embeddings/models/67f04da0369fc4a7f4549ac03730eea5c25e2ffe/embedding_model.pt (torch_old, 37102 bytes, 12 tensors)

gcn_1.weight f4 [8, 32]
0.1819788 -0.10672094 0.0059508234 0.046366956 -0.15739974 -0.024757544 0.101393394 0.12697679
0.0830957 -0.102399945 0.088439204 -0.10825909 -0.18068369 -0.103049695 -0.023002682 -0.12514414
-0.16868106 0.14393207 0.16922988 0.057665415 -0.083470136 -0.16073342 0.11605052 -0.15540093
0.04697855 -0.015179133 -0.15225579 -0.02711342 0.1556386 -0.03354691 0.020517185 -0.06223237
0.035813034 -0.02908173 -0.03290153 -0.082375735 -0.12667972 0.17551267 -0.18171218 0.13854268
-0.1382912 -0.15600443 -0.06675719 0.13686791 -0.1053888 -0.013214671 -0.057545707 0.16682991
-0.08619131 -0.15709227 -0.12600328 0.018107751 0.11396632 -0.031361833 0.04406742 0.06653834
0.10427657 0.039757732 -0.011731183 -0.07918832 -0.14278701 0.105271816 0.12162434 -0.1025766
-0.14737763 -0.03359739 0.044587087 0.1459284 0.00633903 0.11778702 -0.027594393 -0.032860152
0.17084296 -0.15807658 -0.05161733 -0.14054322 -0.020099254 -0.0038909896 -0.13815318 -0.037169676
0.054642644 -0.01182156 0.0829413 0.009668484 0.06700376 -0.14725628 0.05450058 -0.054576747
0.029949304 0.02113101 0.014954248 -0.09373184 -0.024587937 -0.025286285 0.023530671 -0.15165305
0.13662346 0.16750671 0.13865083 0.03187975 0.017949363 -0.12159029 -0.0707617 -0.14037074
-0.12914929 -0.05780803 0.14916116 -0.173739 0.12179147 -0.0635299 0.10986025 -0.059909377
-0.10838072 0.16891798 -0.050445907 -0.013550043 0.09853975 -0.15497936 0.031563155 -0.101504065
0.14317645 -0.024576424 0.044592608 0.07943507 0.13377596 0.0752852 0.058576994 -0.06157813
0.012237551 0.040730614 -0.08337616 0.14026299 0.00583418 0.090871334 -0.055281594 0.033127543
0.124611154 -0.12596424 0.08985785 0.06815928 -0.15070738 0.06527831 -0.018393282 0.09380998
0.0014592755 -0.107825 -0.1690791 -0.11772372 -0.006353207 -0.01466729 0.13568972 0.14119352
0.06815082 0.021604272 0.08254118 0.11443875 0.009373542 -0.053839274 0.11256336 -0.012720132
-0.11468367 -0.16241561 -0.14394912 -0.09662873 -0.09942797 0.15633596 0.0578163 -0.09521504
-0.17495371 0.12583518 0.1111661 0.11997961 0.1049782 -0.015388929 -0.11046989 -0.15971826
0.009870904 0.16175885 0.007822844 0.14624554 -0.0635746 -0.046754513 -0.09469044 0.078035764
0.15757132 -0.07147218 -0.11971105 0.005621617 -0.1676557 -0.17611493 -0.13724028 -0.059103936
0.1513822 -0.04270546 0.17477418 -0.13389993 -0.0996756 -0.14707851 0.0051579243 0.10794558
-0.14068691 -0.03153614 0.05297617 -0.13470387 0.15633346 -0.09359098 -0.081676774 0.04981711
0.13624868 -0.12782605 -0.16705954 0.016995622 0.03804965 0.052946262 -0.15709001 -0.037848998
0.0015108747 0.13442722 -0.10282097 -0.118908554 0.09915337 0.13913374 0.16579944 -0.081690095
0.13854323 -0.07266726 -0.17349769 0.00417267 0.10371453 0.08925488 -0.093259595 0.07093893
0.06934482 0.05276789 -0.16463095 -0.031925876 0.16689913 -0.1738239 -0.05345627 0.1245854
0.120391555 -0.08918187 -0.01825693 0.09951156 0.12277637 -0.048885994 -0.17203172 -0.0443828
-0.16311544 0.16533336 0.03067836 -0.17602931 0.111953616 -0.068674065 0.0879309 -0.0015903482
00000000: a758 3a3e 8290 dabd 20ff c23b 47eb 3d3d
00000010: 662d 21be 55d0 cabc 57a7 cf3d 3406 023e
00000020: 142e aa3d 10b7 d1bd 9d1f b53d f1b6 ddbd
00000030: 2505 39be b80b d3bd 1f70 bcbc c925 00be
00000040: baba 2cbe ee62 133e 994a 2d3e 9232 6c3d
00000050: 64f2 aabd 4d97 24be e5ab ed3d 6c21 1fbe
00000060: 946c 403d e6b1 78bc f1e8 1bbe f71c debc
00000070: ba5f 1f3e 7c68 09bd a813 a83c 5fe7 7ebd
00000080: b0b0 123d cf3c eebc c1c3 06bd 9cb4 a8bd
00000090: 54b8 01be 98b9 333e c212 3abe 22de 0d3e
000000a0: 359c 0dbe a0bf 1fbe feb7 88bd 1a27 0c3e
000000b0: 15d6 d7bd 5982 58bc 0cb5 6bbd 76d5 2a3e
000000c0: 1285 b0bd ccdc 20be 0107 01be b556 943c
000000d0: 2d67 e93d 4475 00bd 0a80 343d 4145 883d
000000e0: f48e d53d 01d9 223d 2634 40bc 7c2d a2bd
000000f0: c236 12be c098 d73d 2f16 f93d ae13 d2bd
00000100: 29ea 16be 6b9d 09bd f3a0 363d 416e 153e
00000110: a3b7 cf3b 523a f13d a30d e2bc 5e98 06bd
00000120: 75f1 2e3e d4de 21be b26c 53bd 90ea 0fbe
00000130: 31a7 a4bc f9ff 7ebb 0778 0dbe 3b3f 18bd
00000140: f7d0 5f3d 37af 41bc 21dd a93d 9068 1e3c
00000150: 4439 893d 5aca 16be 003c 5f3d de8b 5fbd
00000160: 3e58 f53c f11a ad3c aa02 753c 7bf6 bfbd
00000170: a46c c9bc 2f25 cfbc 65c3 c03c f04a 1bbe
00000180: 05e7 0b3e e186 2b3e 7cfa 0d3e 5794 023d
00000190: 8b0a 933c 5404 f9bd 83eb 90bd 59bd 0fbe
000001a0: b63f 04be 1dc8 6cbd b4bd 183e a3e8 31be
000001b0: ce6d f93d f71b 82bd 69fe e03d 8963 75bd
000001c0: b6f6 ddbd d6f8 2c3e 5ea0 4ebd 0001 5ebc
000001d0: 35cf c93d e9b2 1ebe 5e48 013d 5de1 cfbd
000001e0: d99c 123e 7f54 c9bc bda6 363d dbae a23d
000001f0: 91fc 083e 202f 9a3d 6eee 6f3d 5939 7cbd
00000200: 0280 483c 25d5 263d 1fc1 aabd 1aa1 0f3e
00000210: a62c bf3b c01a ba3d f46e 62bd bfb0 073d
00000220: 2234 ff3d c5fc 00be 6407 b83d 1897 8b3d
00000230: 0953 1abe a2b0 853d 82ad 96bc 721f c03d
00000240: 2945 bf3a 5bd3 dcbd 1223 2dbe 2219 f1bd
00000250: 902e d0bb 134f 70bc 3ff2 0a3e 0995 103e
00000260: a892 8b3d 71fb b03c 5a0b a93d dd5e ea3d
00000270: 7c93 193c 9286 5cbd 9e87 e63d 1a68 50bc
00000280: 46df eabd 4750 26be 6667 13be 49e5 c5bd
00000290: e4a0 cbbd 8916 203e c9d0 6c3d 1a00 c3bd
000002a0: 1127 33be f0da 003e 0dab e33d dfb7 f53d
000002b0: cffe d63d d921 7cbc 0a3e e2bd 2f8d 23be
000002c0: 92b9 213c 1da4 253e 632b 003c 64c1 153e
000002d0: 6633 82bd a981 3fbd 10ed c1bd 37d1 9f3d
000002e0: 605a 213e 0260 92bd 112b f5bd 8b35 b83b
000002f0: f0ad 2bbe 7957 34be b788 0cbe f816 72bd
00000300: ef03 1b3e eceb 2ebd 01f8 323e 101d 09be
00000310: b922 ccbd c09b 16be ce03 a93b 9212 dd3d
00000320: 3b10 10be 0a2c 01bd 8afd 583d d0ef 09be
00000330: e115 203e a1ac bfbd 2746 a7bd 070d 4c3d
00000340: c684 0b3e d5e4 02be a811 2bbe 673a 8b3c
00000350: f3d9 1b3d 2ede 583d 34dc 20be 8d07 1bbd
00000360: 8b08 c63a 4aa7 093e cd93 d2bd 5486 f3bd
00000370: ec10 cb3d 1379 0e3e 54c7 293e 234d a7bd
00000380: 47de 0d3e 93d2 94bd 61a9 31be e5ba 883b
00000390: 4968 d43d 43cb b63d e3fe bebd 6e48 913d
000003a0: a804 8e3d 2523 583d 0495 28be b5c4 02bd
000003b0: 9be7 2a3e e4fe 31be f6f4 5abd a126 ff3d
000003c0: d98f f63d fca4 b6bd 8f8f 95bc b7cc cb3d
000003d0: 2d72 fb3d ae3c 48bd 1529 30be bdca 35bd
000003e0: bc07 27be 264d 293e 2f51 fb3c 0741 34be
000003f0: f047 e53d fda4 8cbd 1e15 b43d 3b73 d0ba

gcn_1.bias f4 [32]
0.046122164 -0.13543393 0.10623993 0.13620014 -0.17435709 -0.050216198 0.11525421 0.16133963
0.032974914 0.08549078 -0.029448852 -0.06034095 -0.02785647 0.15191494 -0.07507953 -0.004838586
-0.12606996 -0.14750873 0.04326877 -0.12803936 0.13174699 0.033347055 0.006399289 -0.15873177
-0.061504602 -0.041648835 0.13993792 -0.010498017 -0.049169585 0.063319296 0.06770244 0.100931
00000000: 98ea 3c3d 31af 0abe 5294 d93d 0d78 0b3e
00000010: aa8a 32be 80af 4dbd 660a ec3d 3736 253e
00000020: b410 073d ca15 af3d b83e f1bc 1228 77bd
00000030: 4033 e4bc 978f 1b3e 4cc3 99bd 008d 9ebb
00000040: 7c18 01be 870c 17be 983a 313d c01c 03be
00000050: afe8 063e ec96 083d 20b1 d13b 958a 22be
00000060: 40ec 7bbd f897 2abd e34b 0f3e e0ff 2bbc
00000070: 0c66 49bd 8cad 813d 94a7 8a3d eab4 ce3d

norm_1.weight f4 [32]
0.9952749 0.99791753 1.0013335 1.0009663 1.0097696 1.000723 0.9957943 1.0020292
0.9951178 0.994943 1.0000572 0.9964936 1.0075006 0.9938502 0.9967752 1.0060979
0.99720204 0.9985573 0.99052536 1.0008277 0.99522513 1.001173 1.0010004 0.9977549
0.9971618 1.000202 0.9968914 0.99482054 0.99946845 1.0010301 1.0011665 1.0025884
00000000: 56ca 7e3f 8677 7f3f b22b 803f aa1f 803f
00000010: 2140 813f b117 803f 60ec 7e3f 7e42 803f
00000020: 0ac0 7e3f 96b4 7e3f e001 803f 341a 7f3f
00000030: c8f5 803f f76c 7e3f a92c 7f3f d1c7 803f
00000040: a248 7f3f 74a1 7f3f 1293 7d3f 1f1b 803f
00000050: 13c7 7e3f 7026 803f c820 803f dd6c 7f3f
00000060: ff45 7f3f 9e06 803f 4634 7f3f 8fac 7e3f
00000070: 2add 7f3f c121 803f 3926 803f d154 803f

norm_1.bias f4 [32]
-0.0006037923 0.0072970293 0.0011466116 0.0030085628 -0.007996885 0.0010043012 -0.0011522669 0.005666671
0.0054008933 0.0060677556 0.0042488696 0.0058644563 -0.006240384 -0.0027272468 -0.00093194016 -0.00043774972
-0.007289582 0.0062259515 0.004322739 -0.0021290856 -0.0004427574 0.0007783855 0.00075750763 0.0070409696
0.0041798605 0.006155978 0.0012720997 -0.0004134919 0.010632867 -0.004989733 0.0073980917 0.0032673269
00000000: d147 1eba eb1b ef3b e749 963a 4f2b 453b
00000010: 5e05 03bc c2a2 833a a907 97ba 7baf b93b
00000020: faf9 b03b 06d4 c63b 1a3a 8b3b a02a c03b
00000030: 237c ccbb 9cbb 32bb 724d 74ba c681 e5b9
00000040: 72dd eebb 1103 cc3b c3a5 8d3b 2188 0bbb
00000050: e421 e8b9 910c 4c3a 7a93 463a efb7 e63b
00000060: 36f7 883b 16b8 c93b 95bc a63a f2c9 d8b9
00000070: 7a35 2e3c ea80 a3bb b16b f23b a620 563b

gcn_2.weight f4 [64, 64]
0.09390471 -0.012898173 0.10212303 0.114509076 0.021193262 0.084514394 0.11927994 0.101303436
0.1064545 -0.08697767 -0.059976257 0.09419871 -0.088185534 0.03857065 -0.05872379 -0.038905054
-0.037867863 -0.07233528 0.01784889 -0.081354216 0.10697663 -0.0941122 0.091578476 0.08146528
-0.09013522 -0.051396422 -0.0584128 0.031052083 0.04268252 -0.115487225 -0.04767551 -0.028827671
-0.03384897 -0.03995687 -0.041950416 -0.09475341 0.056030344 0.06864329 -0.039134875 0.06962424
-0.11032996 -0.09804451 -0.12109359 -0.026950743 0.100140356 0.05364364 -0.073389344 -0.035713714
-0.023318412 -0.031829577 0.027362945 0.030041875 -0.039734356 0.08053171 -0.07764139 -0.08174931
-0.010985266 0.115457475 -0.08284624 -0.093746625 -0.017933952 -0.04311356 0.03778918 -0.031910088
0.097716905 0.06518215 0.113454625 -0.019272849 -0.07523907 -0.042416394 -0.0115502495 -0.09403229
0.00544526 0.04476794 -0.0574335 -0.07808812 -0.04323507 -0.1255242 0.11111763 0.11357401
0.10290417 0.10126266 0.11315357 0.0687929 0.054830045 -0.06971215 0.01831188 0.043183018
0.018091107 0.09611103 0.05666827 0.095981985 0.01631478 0.11919526 0.100613944 -0.018718926
0.08750289 -0.079871655 0.112378314 0.09220382 0.06906473 0.009060033 -0.002330092 0.09277365
0.067621455 0.0859332 0.011180359 0.11904297 0.019358894 0.007055588 0.026780654 -0.113747835
-0.03886406 0.02863898 -0.055702616 0.11078623 0.025150865 0.039379276 0.057822235 0.04239495
-0.09924464 -0.11478613 -0.08681815 0.033916343 0.08718674 -0.04888135 -0.07858459 -0.04877281
0.1218917 -0.11701612 -0.12114462 -0.02915815 -0.050679427 0.07009899 0.0786559 -0.09045786
-0.11601299 -0.1177046 -0.019596312 0.058664612 -0.014307233 0.05951437 -0.09697157 0.0075863446
0.120771 0.025246235 0.10094339 -0.09998642 -0.10835417 -0.021751743 -0.117991485 -0.077862315
-0.034659106 -0.041284587 -0.054718338 0.08002877 -0.056634773 -0.111030094 0.10251492 0.028039044
0.11248174 0.11673213 -0.025701648 0.04630718 -0.084325746 -0.058933645 0.043171223 0.12653542
-0.007345229 -0.06317793 -0.058025837 -0.10094637 -0.05519533 -0.047311723 0.08764069 -0.040064372
0.09763766 -0.044369105 0.045007396 0.00585339 0.11154459 -0.049641773 0.10043318 0.10501449
0.053525254 0.011253281 0.02783451 -0.081317835 0.08606326 -0.057744112 -0.0031894199 -0.074990824
-0.07295186 -0.064725414 0.093826875 -0.1291034 0.099108756 -0.048579354 -0.034621503 0.0374075
-0.10191459 0.051623635 0.06455279 -0.11031681 0.13066325 -0.113943666 0.017614128 0.09932501
-0.09407569 0.058128305 0.04364405 -0.10122753 -0.040285707 -0.059384823 -0.022216028 0.09054922
0.022713007 -0.037462793 -0.042610385 0.011245901 0.09583401 0.034550704 0.026256783 0.051230073
-0.009533203 -0.03959638 0.091125384 -0.08724378 0.011797589 0.09461128 -0.08119173 -0.06945288
-0.051623963 0.05937151 -0.013061424 -0.02378597 -0.11354465 0.092504956 0.09504262 0.112388365
-0.07123484 0.028757207 0.0630011 0.069644555 -0.07691587 -0.038914062 0.12364898 -0.07238383
-0.09939981 -0.0032406086 0.052548863 -0.02061598 0.1010538 -0.064578615 -0.05426016 0.0012263521
00000000: 1d51 c03d dc52 53bc e125 d13d bc83 ea3d
00000010: 7e9d ad3c e215 ad3d 0b49 f43d 2d78 cf3d
00000020: d104 da3d 5921 b2bd aaa9 75bd 41eb c03d
00000030: 9e9a b4bd 42fc 1d3d 5b88 70bd e85a 1fbd
00000040: 551b 1bbd 8524 94bd d637 923c 0a9d a6bd
00000050: 9016 db3d e6bd c0bd 7f8d bb3d 45d7 a63d
00000060: d098 b8bd 0e85 52bd 4342 6fbd f060 fe3c
00000070: ded3 2e3d 9184 ecbd 6547 43bd 0228 ecbc
00000080: 38a5 0abd d1a9 23bd 33d4 2bbd 130e c2bd
00000090: 1380 653d da94 8c3d e44b 20bd 2797 8e3d
000000a0: adf4 e1bd 8fcb c8bd ebff f7bd cec7 dcbc
000000b0: 6316 cd3d 6fb9 5b3d 274d 96bd 8b48 12bd
000000c0: 4106 bfbc bb5f 02bd 4128 e03c 611a f63c
000000d0: 7ec0 22bd cfed a43d 7302 9fbd 2f6c a7bd
000000e0: 8cfb 33bc f874 ec3d 4aab a9bd 3bfe bfbd
000000f0: 39ea 92bc d897 30bd d4c8 1a3d 27b4 02bd
00000100: cd1f c83d 387e 853d e65a e83d 18e2 9dbc
00000110: f116 9abd d0bc 2dbd 423d 3dbc 0094 c0bd
00000120: 276e b23b 965e 373d 643f 6bbd aaec 9fbd
00000130: 4217 31bd 6a89 00be a491 e33d 7e99 e83d
00000140: 6cbf d23d cc62 cf3d 0fbd e73d 4be3 8c3d
00000150: 7895 603d 3ec5 8ebd cc02 963c ade0 303d
00000160: cd33 943c dcd5 c43d fd1c 683d 3492 c43d
00000170: 93a6 853c a51c f43d af0e ce3d 6f58 99bc
00000180: b734 b33d c093 a3bd 9a26 e63d 5bd5 bc3d
00000190: cf71 8d3d 8870 143c 75b4 18bb 1d00 be3d
000001a0: 1e7d 8a3d bffd af3d d32d 373c cdcc f33d
000001b0: 8b96 9e3c 9032 e73b 1a63 db3c a0f4 e8bd
000001c0: ec2f 1fbd 4b9c ea3c 6d28 64bd e4e3 e23d
000001d0: 3009 ce3c 2a4c 213d 02d7 6c3d 54a6 2d3d
000001e0: c640 cbbd fe14 ebbd b7cd b1bd ddeb 0a3d
000001f0: f68e b23d cf37 48bd f5f0 a0bd ffc5 47bd
00000200: 5ba2 f93d 26a6 efbd ac1a f8bd 13dd eebc
00000210: 3b95 4fbd 0f90 8f3d 5816 a13d f841 b9bd
00000220: 3898 edbd 1c0f f1bd 7288 a0bc 4e4a 703d
00000230: e268 6abc 57c5 733d 0899 c6bd df96 f83b
00000240: c956 f73d 31d1 ce3c 68bb ce3d aec5 ccbd
00000250: cbe8 ddbd b630 b2bc 85a5 f1bd 4776 9fbd
00000260: b5f6 0dbd 071a 29bd 5620 60bd 20e6 a33d
00000270: ddf9 67bd bf63 e3bd 58f3 d13d 23b2 e53c
00000280: d45c e63d 4111 ef3d 438c d2bc 99ac 3d3d
00000290: fab2 acbd 6864 71bd 4fd4 303d 8092 013e
000002a0: 3fb0 f0bb 6e63 81bd 80ac 6dbd f8bc cebd
000002b0: 8014 62bd f0c9 41bd f67c b33d 8a1a 24bd
000002c0: 41f6 c73d 61bc 35bd ad59 383d cbcd bf3b
000002d0: 7d71 e43d 2c55 4bbd e9af cd3d d611 d73d
000002e0: 4c3d 5b3d ae5f 383c 3305 e43c f789 a6bd
000002f0: ef41 b03d 1785 6cbd 9605 51bb ca94 99bd
00000300: c967 95bd c28e 84bd 4e28 c03d af33 04be
00000310: 88f9 ca3d 25fb 46bd 47cf 0dbd 9b38 193d
00000320: 99b8 d0bd 4e73 533d 4134 843d c8ed e1bd
00000330: 96cc 053e 4c5b e9bd 814b 903c e96a cb3d
00000340: c1aa c0bd f217 6e3d 1ac4 323d 6150 cfbd
00000350: a002 25bd 803d 73bd 63fe b5bc df71 b93d
00000360: a110 ba3c 9672 19bd 3a88 2ebd ba40 383c
00000370: 9f44 c43d 0a85 0d3d 7718 d73c a0d6 513d
00000380: 2731 1cbc d02f 22bd f29f ba3d deac b2bd
00000390: ad4a 413c 8fc3 c13d da47 a6bd 503d 8ebd
000003a0: a673 53bd 8a2f 733d 95ff 55bc cbda c2bc
000003b0: 198a e8bd 3d73 bd3d b5a5 c23d df2b e63d
000003c0: 92e3 91bd 3c94 eb3c b906 813d cea1 8e3d
000003d0: 1186 9dbd 5a64 1fbd ad3b fd3d f93d 94bd
000003e0: 2192 cbbd 6460 54bb 7a3d 573d d8e2 a8bc
000003f0: 4bf5 ce3d cb41 84bd e73f 5ebd 8cbd a03a

gcn_2.bias f4 [64]
0.040287286 -0.023892269 0.08832736 0.042124853 -0.06321047 0.03927718 -0.05951707 -0.093706384
-0.038445354 -0.06685378 -0.025143951 0.08412415 -0.03254938 -0.005728513 0.0058707595 0.07886991
-0.04528609 0.023772925 0.02009353 0.012930021 0.05930507 -0.10874094 -0.102598384 -0.052817255
-0.06274226 -0.059703097 -0.12235254 -0.030752242 -0.017274499 -0.10864569 0.02918312 -0.018232003
0.00843896 0.058490545 -0.026301429 0.05338171 -0.082736805 0.033997864 -0.01988265 -0.09299837
0.017713293 -0.10585633 -0.07348758 -0.094103634 0.07575934 0.08298947 -0.08834413 -0.028487518
-0.104395404 -0.11403185 0.09480508 0.09092297 -0.1034435 -0.052592397 0.120989725 -0.07307732
-0.06998798 -0.049065366 0.10021436 0.11631486 0.06930886 0.04917808 -0.040695146 0.06852293
00000000: 4804 253d b8b9 c3bc fae4 b43d 1c8b 2c3d
00000010: 7e74 81bd 1ce1 203d 2cc8 73bd 22e9 bfbd
00000020: e078 1dbd a2ea 88bd b0fa cdbc 4849 ac3d
00000030: 8052 05bd 40b6 bbbb 805f c03b 8c86 a13d
00000040: e87d 39bd 70bf c23c 309b a43c 70d8 533c
00000050: e0e9 723d 92b3 debd 1a1f d2bd e856 58bd
00000060: 047f 80bd 3c8b 74bd f893 fabd 20ec fbbc
00000070: 4083 8dbc a281 debd 7011 ef3c 485b 95bc
00000080: 9043 0a3c c893 6f3d 1876 d7bc c8a6 5a3d
00000090: ea71 a9bd 5841 0b3d f0e0 a2bc ee75 bebd
000000a0: 781b 913c 34cb d8bd a880 96bd 68b9 c0bd
000000b0: b627 9b3d 62f6 a93d c4ed b4bd a85e e9bc
000000c0: 42cd d5bd 8889 e9bd 2a29 c23d d235 ba3d
000000d0: 30da d3bd 206b 57bd 76c9 f73d 90a9 95bd
000000e0: dc55 8fbd c4f8 48bd 303d cd3d 7c36 ee3d
000000f0: cef1 8d3d f46e 493d f4af 26bd c055 8c3d

norm_2.weight f4 [64]
0.99654496 0.99358845 0.996481 1.0065995 1.0098325 0.9990345 0.9929068 0.9967051
1.0025029 1.008588 1.002772 0.9946074 1.0175362 1.0053891 1.0003662 1.0035347
0.9951654 1.0031929 1.0076971 0.99113303 1.0088342 0.990673 0.9978882 0.9993177
0.9943694 0.9924303 0.9997977 1.0010465 0.9994768 1.0006402 0.9992033 0.9987657
1.0015854 0.99619156 0.998311 0.99962354 0.99887395 0.9936772 1.0098622 1.0047834
0.9985544 1.0004233 1.0043721 0.9992118 0.994388 1.0076414 1.0029324 0.99444973
1.0069689 1.0032856 1.0001348 0.99854326 1.0131546 0.9928942 1.0023332 0.99596006
1.0011123 1.0004051 0.9986092 0.99505895 0.9925271 0.9977989 1.0057338 0.99818075
00000000: 921d 7f3f d05b 7e3f 6119 7f3f 41d8 803f
00000010: 3142 813f bac0 7f3f 242f 7e3f 1128 7f3f
00000020: 0452 803f 6919 813f d55a 803f 979e 7e3f
00000030: a03e 823f 97b0 803f 000c 803f d373 803f
00000040: 29c3 7e3f a068 803f 38fc 803f e5ba 7d3f
00000050: 7b21 813f bf9c 7d3f 9a75 7f3f 49d3 7f3f
00000060: fe8e 7e3f ea0f 7e3f bef2 7f3f 4b22 803f
00000070: b6dd 7f3f fa14 803f cacb 7f3f 1caf 7f3f
00000080: f333 803f 6906 7f3f 4f91 7f3f 54e7 7f3f
00000090: 34b6 7f3f a161 7e3f 2a43 813f be9c 803f
000000a0: 43a1 7f3f df0d 803f 448f 803f 58cc 7f3f
000000b0: 3690 7e3f 65fa 803f 1760 803f 4294 7e3f
000000c0: 5be4 803f aa6b 803f 6b04 803f 88a0 7f3f
000000d0: 0daf 813f 502e 7e3f 744c 803f 3df7 7e3f
000000e0: 7324 803f 460d 803f daa4 7f3f 2fbc 7e3f
000000f0: 4216 7e3f c06f 7f3f e3bb 803f c688 7f3f

norm_2.bias f4 [64]
0.0037862812 -0.0020770575 -0.007935984 -0.004329967 0.0005583934 -0.0014683336 0.0027101978 0.01092965
0.005676304 0.0071764514 0.0046082623 -0.00012822679 0.0022007667 -0.006614166 -0.0023385058 -0.0026893353
-0.0005416689 -0.0006744542 0.008106232 -0.0014426168 0.015409707 -0.0010138399 -0.0128112035 -0.0041604727
0.0054100878 0.0056576473 0.004472532 -0.0010948825 -0.007794615 -0.0030948233 -0.008805789 0.00064852956
0.0027486985 0.005517728 0.008438229 0.0018181448 -0.0012277956 0.00696416 0.0025163905 0.00495049
-0.010061864 -0.007970845 -0.0013390597 -0.0046951445 -0.0032238078 0.0037456497 -0.0075276247 -0.0032352533
-0.0036310886 -0.002787808 -0.00077279564 -5.824407e-05 0.007927973 0.0013436527 0.0035915955 0.0029926267
0.0016216015 -0.0050456864 -0.00078585313 -0.00055981457 8.405679e-05 0.00078291877 0.0020149646 0.002955385
00000000: 4223 783b 3e1f 08bb ee05 02bc 65e2 8dbb
00000010: 2661 123a 1a75 c0ba 939d 313b 4612 333c
00000020: 4a00 ba3b 7028 eb3b e800 973b 9e74 06b9
00000030: bd3a 103b a5bb d8bb 9e41 19bb 8f3f 30bb
00000040: c9fe 0dba dbcd 30ba 00d0 043c 3016 bdba
00000050: ff78 7c3c d2e2 84ba 15e6 51bc 9354 88bb
00000060: 1b47 b13b c963 b93b 518e 923b 2982 8fba
00000070: f869 ffbb 85d2 4abb 2846 10bc 1502 2a3a
00000080: 8223 343b 0fce b43b 7f40 0a3c d14e ee3a
00000090: fced a0ba 9c33 e43b 07ea 243b b837 a23b
000000a0: 84da 24bc 2698 02bc 6383 afba bad9 99bb
000000b0: 8546 53bb 9379 753b 4baa f6bb 8b06 54bb
000000c0: 8ff7 6dbb a8b3 36bb 7095 4aba 184b 74b8
000000d0: 54e4 013c 811d b03a f960 6b3b f21f 443b
000000e0: eb8b d43a 4956 a5bb b601 4eba 85c0 12ba
000000f0: a547 b038 ca3c 4d3a 7f0d 043b 22af 413b

gcn_3.weight f4 [128, 32]
-0.1411242 0.08446392 0.04342871 0.10608334 0.08296473 0.0914548 -0.09028235 -0.07159172
-0.17795141 0.1706663 -0.032914683 -0.111936085 0.043309927 -0.1665791 -0.063015155 0.048637345
0.16608189 -0.15945154 0.017277107 0.0049371626 0.15308648 0.09560815 -0.10512242 0.01805165
-0.01830489 -0.04145895 -0.107962616 -0.07075789 0.123026505 0.119617924 -0.072695784 0.08251274
0.074946016 -0.13573533 -0.110716134 0.08528306 0.071150966 -0.009357236 0.10614673 0.12576966
0.014543828 0.055433024 0.090687305 0.022853993 0.1358073 -0.06484659 -0.017679071 -0.054689065
-0.018324975 -0.10148088 0.025215723 0.12029244 -0.08442851 -0.0031362548 0.06128081 -0.05560472
0.13818137 -0.15923455 -0.12080951 0.043748014 -0.1532037 0.06771933 0.1392657 0.07248486
0.15049534 0.015474734 0.029954532 -0.1692066 -0.042029772 0.0187716 -0.124613926 0.16034804
0.11891009 -0.11426435 -0.16299075 0.15879717 0.13769649 0.10696005 0.16004491 0.12378824
-0.13235244 -0.02711995 -0.05354716 0.07551875 0.15071973 0.031590972 -0.1738721 -0.15538073
0.057786666 0.029506588 -0.0009249524 -0.12313961 -0.11637217 0.051350877 -0.10140296 0.07900166
-0.009257926 0.16620044 -0.032768764 -0.022130834 0.16483511 -0.0061885803 0.074301 0.085228465
0.01738189 -0.04419043 -0.110052206 0.12289591 -0.1604347 0.061943475 0.040828664 -0.14291178
0.027462736 -0.055828836 -0.09784234 -0.15043814 -0.16827992 -0.04505099 0.04363454 -0.047336616
-0.02977411 0.05996331 -0.04767285 -0.016692698 -0.020851888 -0.11909268 0.023767782 0.15663022
0.116598375 0.016143544 -0.0022197347 0.17358766 0.087471224 0.056604445 -0.035248484 -0.11871407
-0.10899938 0.015739767 -0.08245075 0.08416346 0.08536526 0.028532349 -0.063027285 -0.11609848
0.059592955 0.053016778 -0.034965407 -0.12098091 -0.045765433 0.07591836 -0.08499869 0.1386674
0.12968865 -0.10342009 0.053767752 -0.16167511 0.042007394 -0.11892084 0.1584542 0.10095781
-0.10646297 0.15953645 0.12956671 0.09699543 0.011743576 -0.12959811 0.03537101 -0.013741999
0.08760499 0.06874003 -0.0769798 0.013226051 0.09715987 -0.17000078 0.1122741 0.07059219
0.018591788 0.051098045 0.046048846 0.080933556 -0.036556467 -0.14076264 0.050556697 0.14308605
-0.055047955 0.10486356 0.029712174 -0.10186113 0.14336991 -0.16571954 0.06516265 0.036525916
-0.1673508 0.09231263 0.15077904 -0.043581087 0.15040259 0.04087026 0.12409366 0.05046197
0.17069407 -0.098672934 0.11452657 -0.15870543 0.10957918 0.07471481 -0.15465423 0.11155192
-0.084704585 -0.0042501306 -0.05653205 0.010163837 -0.08273394 -0.093985245 0.1612866 -0.13143307
0.020537365 -0.14495267 0.034625985 -0.13616389 -0.13489828 -0.12982768 -0.1585107 -0.008976282
-0.07903613 -0.058170352 -0.024130238 -0.08005675 -0.013856887 -0.05366185 0.13950703 0.13580202
0.12379108 0.06573914 0.13833025 -0.12021886 -0.15171446 0.0745083 0.10985792 0.11955495
0.046687655 0.15617262 -0.07579682 0.031168066 0.052773263 0.05955621 0.103441514 0.09668741
0.16400251 -0.08973195 -0.01649277 -0.07884838 0.082791686 -0.17167152 0.108488776 0.032825258
00000000: dd82 10be 6bfb ac3d 4ee2 313d 3942 d93d
00000010: 6ae9 a93d a74c bb3d f4e5 b8bd ae9e 92bd
00000020: e538 36be 26c3 2e3e 8cd1 06bd bf3e e5bd
00000030: c065 313d b693 2abe 170e 81bd f437 473d
00000040: 5f11 2a3e 4447 23be b888 8d3c ecc7 a13b
00000050: b4c2 1c3e 35ce c33d 6c4a d7bd 0ee1 933c
00000060: 23f4 95bc dcd0 29bd 811b ddbd 83e9 90bd
00000070: 52f5 fb3d 3efa f43d 87e1 94bd 70fc a83d
00000080: 4c7d 993d 34fe 0abe 24bf e2bd e3a8 ae3d
00000090: 99b7 913d 184f 19bc 7563 d93d c3c9 003e
000000a0: 3c49 6e3c bd0d 633d 44ba b93d 4c38 bb3c
000000b0: 1211 0b3e 4ace 84bd b3d3 90bc a401 60bd
000000c0: 421e 96bc 35d5 cfbd 3491 ce3c e25b f63d
000000d0: dbe8 acbd a089 4dbb 9601 7b3d c6c1 63bd
000000e0: 6b7f 0d3e 620e 23be fa6a f7bd 1e31 333d
000000f0: 6ee1 1cbe 6fb0 8a3d ab9b 0e3e f172 943d
00000100: 731b 1a3e bd89 7d3c 3563 f53c 7f44 2dbe
00000110: 6927 2cbd e6c6 993c 9635 ffbd 4732 243e
00000120: 2287 f33d 6d03 eabd 0ce7 26be ba9b 223e
00000130: 4f00 0d3e df0d db3d d0e2 233e b084 fd3d
00000140: 6687 07be a82a debc 4454 5bbd 93a9 9a3d
00000150: 4656 1a3e 8965 013d 870b 32be 201c 1fbe
00000160: b6b1 6c3d cdb7 f13c 8178 72ba 9f30 fcbd
00000170: 8854 eebd 4c55 523d 5bac cfbd 9fcb a13d
00000180: 8eae 17bc 7330 2a3e 8a38 06bd b94b b5bc
00000190: 89ca 283e 93c9 cabb 1f2b 983d 438c ae3d
000001a0: 7764 8e3c 0601 35bd 0d63 e1bd dab0 fb3d
000001b0: fe48 24be 71b8 7d3d f53b 273d 7757 12be
000001c0: 88f9 e03c c7ac 64bd 9161 c8bd 750c 1abe
000001d0: 9251 2cbe 6387 38bd 22ba 323d 0ae4 41bd
000001e0: d6e8 f3bc 169c 753d 9b44 43bd 20bf 88bc
000001f0: 94d1 aabc dde6 f3bd a7b4 c23c ac63 203e
00000200: 21cb ee3d 773f 843c f878 11bb f7c0 313e
00000210: 1d24 b33d 10da 673d b760 10bd 5d20 f3bd
00000220: 113b dfbd aff0 803c f0db a8bd e45d ac3d
00000230: fbd3 ae3d acbc e93c 7314 81bd 0ac5 edbd
00000240: be17 743d 1f28 593d e337 0fbd d7c4 f7bd
00000250: 8974 3bbd 167b 9b3d cb13 aebd d4fe 0d3e
00000260: 1acd 043e eacd d3bd 933b 5c3d 298e 25be
00000270: f20f 2c3d c58c f3bd d141 223e f8c2 ce3d
00000280: 4209 dabd 865d 233e 23ad 043e 8aa5 c63d
00000290: 2168 403c 5eb5 04be 31e1 103d 1f26 61bc
000002a0: 3f6a b33d 93c7 8c3d 96a7 9dbd 14b2 583c
000002b0: c1fb c63d af14 2ebe f7ef e53d a392 903d
000002c0: ce4d 983c 2f4c 513d b79d 3c3d 7ec0 a53d
000002d0: 3cbc 15bd 1524 10be 8a14 4f3d 2685 123e
000002e0: f779 61bd b5c2 d63d f266 f33c 919c d0bd
000002f0: 90cf 123e 62b2 29be ff73 853d 339c 153d
00000300: 025e 2bbe 670e bd3d d265 1a3e 1582 32bd
00000310: 2303 1a3e 9367 273d d124 fe3d 36b1 4e3d
00000320: 6dca 2e3e 0915 cabd e88c ea3d ad83 22be
00000330: 0d6b e03d 1404 993d ae5d 1ebe 5575 e43d
00000340: 9979 adbd ae44 8bbb 278e 67bd 3986 263c
00000350: 6970 a9bd 567b c0bd 5128 253e 6496 06be
00000360: fa3d a83c 796e 14be fad3 0d3d 8c6e 0bbe
00000370: c622 0abe 8cf1 04be a150 22be 4111 13bc
00000380: b2dd a1bd 0944 6ebd c7ac c5bc cbf4 a3bd
00000390: ff07 63bc 87cc 5bbd eeda 0e3e af0f 0b3e
000003a0: 2e86 fd3d 3ea2 863d 72a6 0d3e 4e35 f6bd
000003b0: 095b 1bbe cf97 983d 30fd e03d 3ad9 f43d
000003c0: 8e3b 3f3d b7eb 1f3e 5d3b 9bbd 2c54 ff3c
000003d0: c728 583d 36f1 733d 25d9 d33d 0c04 c63d
000003e0: 46f0 273e 62c5 b7bd d81b 87bc 427b a1bd
000003f0: b08e a93d a9ca 2fbe 5d2f de3d c773 063d

gcn_3.bias f4 [32]
0.08023976 -0.0669764 -0.08395214 0.095158175 0.032626927 0.08070119 0.03430094 0.13636519
0.17393027 0.12590311 0.015604764 -0.06212905 0.12052573 -0.055792354 -0.023772776 0.07550712
0.09838666 0.009800464 -0.0663465 -0.15809165 -0.08234744 0.06809056 0.12199865 -0.06282542
0.11029799 0.117167816 -0.13991687 -0.10259171 0.080191955 0.11016147 0.062285587 -0.12847286
00000000: be54 a43d ec2a 89bd 19ef abbd 4ae2 c23d
00000010: d0a3 053d aa46 a53d 247f 0c3d 51a3 0b3e
00000020: c71a 323e bfec 003e 20ab 7f3c 087b 7ebd
00000030: 32d6 f63d 8686 64bd 20bf c2bc 7aa3 9a3d
00000040: f27e c93d 2092 203c ace0 87bd c7e2 21be
00000050: c6a5 a8bd 1073 8b3d 6eda f93d 9daa 80bd
00000060: eae3 e13d aef5 ef3d 5e46 0fbe 9a1b d2bd
00000070: ae3b a43d 569c e13d 2c1f 7f3d 648e 03be

norm_3.weight f4 [32]
0.9909177 1.0011483 1.0131685 1.0103168 0.9953036 0.9960016 1.011106 0.99998796
1.0053425 0.99462205 0.99507475 0.9951349 1.003547 0.9979299 0.9955824 1.0126044
1.0006356 1.0077084 1.0050753 0.9925576 1.0078706 0.9903578 1.0020874 0.99844855
0.9956019 0.9944 0.99821544 0.9936134 0.9979479 0.9913095 0.9915414 0.99570733
00000000: c8ac 7d3f a125 803f 81af 813f 1052 813f
00000010: 37cc 7e3f f6f9 7e3f ec6b 813f 36ff 7f3f
00000020: 10af 803f 8d9f 7e3f 38bd 7e3f 29c1 7e3f
00000030: 3a74 803f 5578 7f3f 7dde 7e3f 059d 813f
00000040: d414 803f 97fc 803f 4fa6 803f 4118 7e3f
00000050: e701 813f 1788 7d3f 6644 803f 539a 7f3f
00000060: c4df 7e3f 0091 7e3f 0c8b 7f3f 735d 7e3f
00000070: 8379 7f3f 76c6 7d3f a8d5 7d3f ade6 7e3f

norm_3.bias f4 [32]
-0.0022605495 -1.18930175e-05 0.005565966 0.0029021332 -0.0006279172 0.0042750346 0.0003704094 0.0031992446
0.006644685 0.0050783204 -0.002795666 -0.0028133162 0.0064732493 -0.0044599897 -0.0029246903 0.0051351395
-0.0027387724 0.00036027076 0.01252885 -0.006786722 0.010905441 -0.006030486 0.0045114206 -0.002177112
-0.0017656952 -0.0005451863 -0.0005920404 -0.0008922393 0.00042511162 -0.0037466227 -0.0058303187 -0.00080921635
00000000: ba25 14bb 1f88 47b7 b562 b63b b731 3e3b
00000010: cf9a 24ba 9715 8c3b 8233 c239 6baa 513b
00000020: a8bb d93b 0a68 a63b 7e37 37bb 9d5f 38bb
00000030: 8d1d d43b 1b25 92bb 29ac 3fbb ac44 a83b
00000040: fa7c 33bb b9e2 bc39 ce45 4d3c 2763 debb
00000050: bcac 323c 629b c5bb 8ad4 933b e1ad 0ebb
00000060: e66e e7ba d5ea 0eba 2933 1bba 2ae5 69ba
00000070: 84e1 de39 e689 75bb 420c bfbb 9721 54ba
