embeddings/models/67f04da0369fc4a7f4549ac03730eea5c25e2ffe/global_graph_model.pt (torch_old, 208353 bytes, 16 tensors)

query_gen.0.linear.weight f4 [128, 38]
0.13343252 0.1512021 0.021420209 0.018987406 0.0027557295 0.09708274 -0.14934969 0.09019492
0.010301964 0.08817426 -0.02808699 -0.012875381 -0.13173248 0.08568489 -0.046112828 -0.08616848
-0.109290466 -0.050230782 0.09473272 -0.014413 -0.041355323 0.06277015 0.0755197 -0.14722385
-0.109840825 0.037643366 -0.1526021 -0.07435111 -0.0920576 0.15112257 -0.13561751 -0.077766776
0.09400363 -0.09455567 -0.11592283 -0.08573836 0.056593645 -0.12880686 -0.15336645 -0.052238096
-0.007215185 -0.033762295 -0.08784171 -0.054013792 -0.13177124 -0.017831394 0.11610419 0.12998858
-0.025254972 -0.15388228 -0.11632009 0.079665855 0.15657184 0.1600546 0.13193578 -0.08844334
-0.032848414 -0.047527567 -0.057546277 0.053013165 0.015096025 -0.053270396 0.08453807 0.06588294
0.035775445 -0.02331744 0.07054972 0.1507161 -0.11716271 0.12166207 0.13343912 -0.1223343
-0.110136606 -0.11026313 -0.15567246 0.0332625 0.0633804 0.08590767 -0.06857085 -0.05446045
0.07329197 -0.044379234 -0.15502155 0.11717384 0.022724545 -0.10000706 0.07156587 0.11314099
-0.05740029 -0.09714874 0.059247594 -0.07939927 -0.035712484 -0.105812855 -0.14104322 -0.0030200477
-0.03154658 -0.15354337 -0.018068094 0.022332279 0.07504092 -0.059054613 0.031274162 -0.13589881
-0.122350335 0.07519417 0.070437975 -0.049628273 0.065157086 -0.083155595 -0.023242528 0.15014783
-0.09503066 0.080509394 -0.07958032 -0.044971 0.10139313 -0.07701918 -0.022437463 -0.11630362
0.040843654 -0.0374316 -0.098353796 0.032961965 -0.059307557 -0.055513777 0.12688912 -0.012308329
-0.14486761 0.03897658 -0.11025101 -0.14369549 0.13409217 0.16164263 -0.0867315 0.026066847
0.07563133 0.1605082 0.14909744 -0.012545306 0.011003041 -0.07362671 0.0249443 -0.11093457
0.13518126 0.13710524 -0.11156548 0.09196552 -0.030279916 0.031864133 -0.08423 0.052992426
0.034152735 0.13677502 -0.068039306 0.11805646 -0.042478114 0.14248744 -0.022203775 -0.122581676
0.089233615 0.08296874 -0.095898576 0.08444434 -0.07795723 -0.13096976 0.06829578 0.022294054
-0.14492135 0.14352992 0.01788001 0.16153446 -0.117543004 0.005261419 0.11289561 0.029308746
-0.03881844 0.11043804 0.018651986 0.1423998 0.13163574 -0.11289729 -0.11233809 -0.013941555
-0.08398411 -0.13334027 0.06558763 -0.036224764 -0.09821291 -0.0054583843 0.09757347 -0.1005281
-0.03293658 -0.109358095 -0.09493007 -0.05940975 0.07278214 -0.030383525 0.1535316 0.024959804
0.011211476 0.1079766 0.15695159 0.13281058 -0.041346174 -0.10982711 -0.045059852 0.121280625
0.15392146 -0.017440936 -0.13840948 0.10748246 -0.043039013 0.09569128 -0.10392186 0.06565571
0.09371743 -0.029299878 -0.067839615 0.02973901 0.1550704 0.023649275 -0.09886859 0.06576137
0.02895489 0.035745453 0.05641544 -0.06510688 -0.061372574 0.08853427 0.004631008 -0.13232055
-0.05442864 0.023613334 0.1344338 0.05150746 0.009942117 0.11453483 -0.0061730626 -0.036873337
-0.12278913 0.038131528 0.08857248 -0.038332704 0.13915652 0.14086097 0.006088363 -0.10070502
0.03512104 0.0988842 -0.08298033 -0.06502694 -0.07995482 0.028955812 0.069082975 -0.015638731
00000000: 89a2 083e b9d4 1a3e 6f79 af3c 7a8b 9b3c
00000010: 7899 343b 51d3 c63d 20ef 18be 1db8 b83d
00000020: 92c9 283c b594 b43d b016 e6bc 43f3 52bc
00000030: e1e4 06be 8f7b af3d cee0 3cbd 1a79 b0bd
00000040: aed3 dfbd cbbe 4dbd 3a03 c23d 8124 6cbc
00000050: 3364 29bd a38d 803d 13aa 9a3d d9c1 16be
00000060: 3af4 e0bd ee2f 1a3d ba43 1cbe 6545 98bd
00000070: b288 bcbd e0bf 1a3e 51df 0abe 3044 9fbd
00000080: fa84 c03d 67a6 c1bd f368 edbd 9897 afbd
00000090: bdce 673d f2e5 03be 180c 1dbe 9df7 55bd
000000a0: 5c6d ecbb 554a 0abd 5be6 b3bd 913d 5dbd
000000b0: 0aef 06be 2513 92bc 09c8 ed3d ba1b 053e
000000c0: 84e3 cebc 5193 1dbe 3a39 eebd da27 a33d
000000d0: 5e54 203e 5ae5 233e 2c1a 073e c821 b5bd
000000e0: 0f8c 06bd 44ac 42bd a5b5 6bbd 5524 593d
000000f0: 5155 773c 0f32 5abd 4c22 ad3d a3ed 863d
00000100: 4689 123d 3704 bfbc 5f7c 903d 5255 1a3e
00000110: 01f3 efbd f729 f93d 44a4 083e 688a fabd
00000120: 4d8f e1bd a3d1 e1bd 9a68 1fbe 423e 083d
00000130: 95cd 813d 5cf0 af3d e06e 8cbd ec11 5fbd
00000140: 1a1a 963d 00c7 35bd f8bd 1ebe d7f8 ef3d
00000150: d328 ba3c 80d0 ccbd 2091 923d 77b6 e73d
00000160: 911c 6bbd ebf5 c6bd 9bad 723d 169c a2bd
00000170: 4147 12bd 69b4 d8bd a26d 10be feeb 45bb
00000180: fd36 01bd 793a 1dbe 8a03 94bc 2ff2 b63c
00000190: 0eaf 993d 40e3 71bd 5619 003d 0f29 0bbe
000001a0: d092 fabd 67ff 993d c941 903d 0447 4bbd
000001b0: 1471 853d 7b4d aabd 1d67 bebc 5ac0 193e
000001c0: 6f9f c2bd 1ce2 a43d 02fb a2bd 8333 38bd
000001d0: 34a7 cf3d 3bbc 9dbd c5ce b7bc 9830 eebd
000001e0: ad4b 273d e151 19bd b76d c9bd 2003 073d
000001f0: 7bec 72bd 6a62 63bd 39ef 013e e0a8 49bc
00000200: 2d58 14be e8a5 1f3d 48cb e1bd e924 13be
00000210: 754f 093e a585 253e 49a0 b1bd 248a d53c
00000220: 99e4 9a3d 435c 243e 00ad 183e d48a 4dbc
00000230: 1946 343c 9ac9 96bd fd57 cc3c aa31 e3bd
00000240: f56c 0a3e 5165 0c3e 717c e4bd 6b58 bc3d
00000250: 960d f8bc f783 023d c780 acbd 960e 593d
00000260: bde3 0b3d c00e 0c3e 3158 8bbd 96c7 f13d
00000270: 88fd 2dbd 3ae8 113e b1e4 b5bc 1a0c fbbd
00000280: 1dc0 b63d 84eb a93d 7966 c4bd 27f1 ac3d
00000290: 0aa8 9fbd f01c 06be a8de 8b3d 05a2 b63c
000002a0: 4366 14be 82f9 123e 1979 923c 4a69 253e
000002b0: 63ba f0bd fb67 ac3b d035 e73d e518 f03c
000002c0: 1600 1fbd 572d e23d 0dcc 983c 41d1 113e
000002d0: 85cb 063e b236 e7bd 8311 e6bd 1f6b 64bc
000002e0: dcff abbd 5a8a 08be cf52 863d 6b60 14bd
000002f0: da23 c9bd 3fdc b2bb 99d4 c73d ade1 cdbd
00000300: 82e8 06bd 23f7 dfbd b26a c2bd a357 73bd
00000310: cd0e 953d dfe6 f8bc 6337 1d3e 8178 cc3c
00000320: 57b0 373c d622 dd3d ebb7 203e 7fff 073e
00000330: 9b5a 29bd 09ed e0bd ae90 38bd fa61 f83d
00000340: 969d 1d3e 4be0 8ebc 37bb 0dbe c41f dc3d
00000350: ad49 30bd caf9 c33d fcd4 d4bd 8076 863d
00000360: edee bf3d 4c06 f0bc 7fef 8abd 399f f33c
00000370: c6ca 1e3e 20bc c13c 9e7b cabd e6ad 863d
00000380: ce32 ed3c d369 123d e013 673d c256 85bd
00000390: cf61 7bbd 7551 b53d b6bf 973b 0a7f 07be
000003a0: 91f0 5ebd c070 c13c 04a9 093e 7df9 523d
000003b0: 43e4 223c 3d91 ea3d 6747 cabb 7f08 17bd
000003c0: de78 fbbd ce2f 1c3d 7d65 b53d c102 1dbd
000003d0: 0c7f 0e3e dc3d 103e e480 c73b 6f3e cebd
000003e0: 14db 0f3d cd83 ca3d 97f1 a9bd d82c 85bd
000003f0: 5abf a3bd bd34 ed3c 607b 8d3d cc1c 80bc

query_gen.0.linear.bias f4 [128]
-0.011039799 -0.11643229 -0.11200365 -0.058126934 -0.07138109 0.021605525 0.022669256 0.023565823
-0.12930463 0.14455092 -0.021183642 -0.106103286 0.050808754 0.031600706 -0.006579506 0.039428342
0.035777703 -0.0049033207 0.01030259 0.10665819 0.12620014 0.14735691 -0.14967115 0.007960354
-0.11570784 0.020271055 -0.038850456 -0.12637624 0.12925732 -0.100825734 -0.008285913 0.03729336
0.08330692 0.08902501 -0.042256344 -0.03225241 0.14271645 -0.09236496 0.09660429 0.0009798084
-0.040151913 -0.0066153435 -0.083398834 -0.13675633 0.004339366 -0.12339262 0.025222136 0.1592273
0.12615164 -0.13483635 0.15163906 0.022671461 -0.08926775 0.13519838 -0.049097456 0.104502894
0.044139337 -0.08361153 -0.10575881 0.016426086 0.062014207 -0.04181632 -0.023972724 0.043775104
-0.021096554 -0.0073863748 0.0034614648 -0.13446532 -0.06447188 -0.04163842 0.15027381 0.06571125
0.11224025 0.074051596 0.041569144 -0.1292294 -0.026398944 0.14390999 -0.06333365 -0.0145959975
0.14314322 0.11871627 0.011858096 0.059349824 0.14174989 -0.014563379 -0.12393102 0.045968127
-0.12824371 -0.14268702 -0.03742845 -0.022471644 -0.13616842 -0.15523618 0.11806535 -0.056580726
0.15091848 -0.09050243 -0.05915297 0.1494521 -0.07895166 -0.1360377 0.117135756 0.11509183
0.036648065 -0.16020648 0.12326942 0.0077660205 -0.075177975 -0.111057974 -0.13128172 -0.0134448325
0.10378973 0.03994761 -0.026346577 0.009624079 0.15735973 0.11420614 0.08604437 -0.0390792
-0.15261886 -0.041150745 0.13269974 0.16092964 0.08664322 0.03901374 -0.14632751 -0.105185
00000000: 46e0 34bc 0d74 eebd 2b62 e5bd 8216 6ebd
00000010: 4030 92bd 12fe b03c e0b4 b93c 1d0d c13c
00000020: 6f68 04be 2805 143e 5189 adbc ae4c d9bd
00000030: d71c 503d be6f 013d e698 d7bb 9d7f 213d
00000040: a48b 123d 09ac a0bb 32cc 283c 9c6f da3d
00000050: 9c3a 013e bbe4 163e 6543 19be 256c 023c
00000060: 3bf8 ecbd 7c0f a63c a821 1fbd c668 01be
00000070: 085c 043e b97d cebd a3c1 07bc ecc0 183d
00000080: d29c aa3d bf52 b63d fd14 2dbd 1a1b 04bd
00000090: 4324 123e d729 bdbd 78d8 c53d ea6c 803a
000000a0: 5576 24bd 86c5 d8bb 02cd aabd da09 0cbe
000000b0: 3e31 8e3b 45b5 fcbd a79e ce3c 7b0c 233e
000000c0: e52d 013e 8a12 0abe 4547 1b3e 80b9 b93c
000000d0: 03d2 b6bd 7271 0a3e 6a1a 49bd 9d05 d63d
000000e0: 73cb 343d 863c abbd 1398 d8bd 0090 863c
000000f0: 9c02 7e3d 9747 2bbd 7262 c4bc 864d 333d
00000100: aed2 acbc 6709 f2bb bed9 623b 47b1 09be
00000110: d509 84bd 0c8d 2abd 61e1 193e 9f93 863d
00000120: 37de e53d 5da8 973d 6844 2a3d b654 04be
00000130: 9942 d8bc 245d 133e 13b5 81bd 0d24 6fbc
00000140: 2394 123e 8421 f33d 7648 423c cd18 733d
00000150: e226 113e 3d9b 6ebc 8ccf fdbd 1349 3c3d
00000160: 5252 03be 8c1c 12be 934e 19bd 7416 b8bc
00000170: bc6f 0bbe 3cf6 1ebe 3fcc f13d 31c1 67bd
00000180: 608a 1a3e 5759 b9bd 624a 72bd f909 193e
00000190: 68b1 a1bd 784d 0bbe dfe4 ef3d 44b5 eb3d
000001a0: 481c 163d 2b0d 24be ad74 fc3d 1a7a fe3b
000001b0: e9f6 99bd 5d72 e3bd b76e 06be b747 5cbc
000001c0: b68f d43d 1ba0 233d c7d4 d7bc 50ae 1d3c
000001d0: e922 213e e9e4 e93d 0838 b03d 8311 20bd
000001e0: 1e48 1cbe af8d 28bd 71e2 073e bdca 243e
000001f0: 0072 b13d dfcc 1f3d e1d6 15be 3c6b d7bd

query_gen.0.norm.weight f4 [128]
0.9995779 1.0011448 0.99994856 1.0002581 1.0 1.0005144 1.0006086 0.9989042
1.0013175 0.99993396 0.99923635 1.0000923 0.99915713 1.0 0.9999864 0.9998728
0.9985306 0.9986796 0.9999979 1.0005685 0.9992413 0.99970645 1.0 0.999355
1.0 1.0 1.0004944 1.001134 1.000079 0.9996609 1.0005574 1.0007708
1.0 1.000276 1.0 0.999906 1.0000613 0.9993006 1.0 1.0001267
0.9995467 1.0 1.0 1.000528 1.0000299 1.0 1.0002286 1.0001609
1.0002973 1.0 1.0007935 0.9999057 0.9995046 1.0001411 1.0002565 0.9989113
0.9995077 0.99995047 1.0 0.9997433 1.0 1.0000407 0.99965835 0.9995241
1.0004253 1.0 1.00007 1.0003116 1.001004 1.0000789 1.0013499 1.0
1.0 1.0 1.0 0.9992654 1.0 1.0006518 1.0 1.0
0.9999574 1.0 1.0013323 0.9999346 1.0000317 1.0 0.9999586 1.0
1.0005634 1.0000789 0.9998555 1.0 1.0000181 0.9993094 0.9987099 0.99846333
1.0 1.0 0.9994199 1.0 1.0 1.0 0.9997394 0.99977016
1.0 0.9988776 0.99999243 1.0 1.000177 1.0 1.0000502 1.0
0.9999993 1.0 1.0 1.0006083 1.0002114 0.9999352 0.9994487 1.0019432
1.0 0.9996077 1.0004227 1.0 1.0 1.000632 0.99981344 1.0008441
00000000: 56e4 7f3f 8325 803f a1fc 7f3f 7508 803f
00000010: 0000 803f db10 803f f113 803f 30b8 7f3f
00000020: 2c2b 803f acfb 7f3f f4cd 7f3f 0603 803f
00000030: c3c8 7f3f 0000 803f 1cff 7f3f aaf7 7f3f
00000040: b49f 7f3f 77a9 7f3f ddff 7f3f a112 803f
00000050: 47ce 7f3f c3ec 7f3f 0000 803f bbd5 7f3f
00000060: 0000 803f 0000 803f 3310 803f 2925 803f
00000070: 9702 803f c7e9 7f3f 4412 803f 4219 803f
00000080: 0000 803f 0b09 803f 0000 803f d7f9 7f3f
00000090: 0202 803f 2ad2 7f3f 0000 803f 2704 803f
000000a0: 4be2 7f3f 0000 803f 0000 803f 4d11 803f
000000b0: fb00 803f 0000 803f 7e07 803f 4605 803f
000000c0: be09 803f 0000 803f 001a 803f d2f9 7f3f
000000d0: 89df 7f3f a004 803f 6808 803f a7b8 7f3f
000000e0: bddf 7f3f c1fc 7f3f 0000 803f 2def 7f3f
000000f0: 0000 803f 5501 803f 9ce9 7f3f d0e0 7f3f
00000100: f00d 803f 0000 803f 4b02 803f 360a 803f
00000110: e620 803f 9602 803f 3c2c 803f 0000 803f
00000120: 0000 803f 0000 803f 0000 803f dbcf 7f3f
00000130: 0000 803f 5c15 803f 0000 803f 0000 803f
00000140: 35fd 7f3f 0000 803f a82b 803f b7fb 7f3f
00000150: 0a01 803f 0000 803f 49fd 7f3f 0000 803f
00000160: 7612 803f 9602 803f 88f6 7f3f 0000 803f
00000170: 9800 803f bed2 7f3f 74ab 7f3f 4b9b 7f3f
00000180: 0000 803f 0000 803f fcd9 7f3f 0000 803f
00000190: 0000 803f 0000 803f ecee 7f3f f0f0 7f3f
000001a0: 0000 803f 71b6 7f3f 81ff 7f3f 0000 803f
000001b0: cd05 803f 0000 803f a501 803f 0000 803f
000001c0: f4ff 7f3f 0000 803f 0000 803f ef13 803f
000001d0: ed06 803f c1fb 7f3f dfdb 7f3f ad3f 803f
000001e0: 0000 803f 4ae6 7f3f da0d 803f 0000 803f
000001f0: 0000 803f b614 803f c6f3 7f3f a91b 803f

query_gen.0.norm.bias f4 [128]
-0.0007370581 0.001961762 0.0002737338 0.00025056204 0.0 0.00048906694 0.0006197641 -0.0010773976
0.0013637728 -5.2967385e-05 -0.000743575 0.00013734818 -0.00080828654 0.0 -2.4239565e-05 -0.0004321452
-0.0015837692 -0.0013131989 -0.000118568634 0.00050110056 -0.00076264655 -9.7370656e-05 0.0 -0.001450799
0.0 0.0 0.00031708606 0.0011534553 5.428817e-05 -0.0007870848 0.0011264783 0.00078040996
0.0 0.0002852678 0.0 2.0988731e-05 1.03488765e-05 -0.0006933043 0.0 7.250147e-06
-0.00044617808 0.0 0.0 0.0005151872 3.6544494e-05 0.0 0.0012025128 0.00019039835
0.0003063414 0.0 0.0008496021 -9.87318e-05 -0.00048779984 0.00016949422 0.00016684127 -0.0010770315
-0.0005197028 -1.4852524e-06 0.0 -8.901473e-05 0.0 0.00012651458 -0.00033325652 -0.00050112506
0.00041606626 0.0 -0.00016830211 0.0003221409 0.001052147 7.325222e-05 0.0013879108 1.9084504e-05
0.0 0.0 0.0 -0.00074960163 0.0 0.00066205725 0.0 0.0
-0.00011958147 0.0 0.0016560728 -7.0749054e-05 0.0006106852 0.0 -8.034379e-05 0.0
0.00051463523 -1.5859985e-05 -0.0001641185 9.04436e-06 2.6295851e-05 -0.00069127796 -0.001251902 -0.0018388268
0.0 0.0 -0.00062462763 0.0 0.0 0.0 -0.00032249934 -0.00093317765
0.0 -0.001156723 -7.1412946e-06 0.0 0.00018950815 0.0 3.4830315e-05 0.0
1.289994e-05 0.0 -1.2083731e-05 0.00092066877 0.00023719572 -0.0006789447 -0.0005454481 0.0019257133
0.0 -0.00069322815 0.000473169 0.0 0.0 0.00062140886 0.00054773584 0.0008495878
00000000: 2237 41ba e890 003b ee83 8f39 de5d 8339
00000010: 0000 0000 ba34 003a aa77 223a 7737 8dba
00000020: 9fc0 b23a 4c29 5eb8 79ec 42ba 1f05 1039
00000030: 31e3 53ba 0000 0000 1256 cbb7 8c91 e2b9
00000040: 7a96 cfba a51f acba 0da8 f8b8 4a5c 033a
00000050: 58ec 47ba 7933 ccb8 0000 0000 bd28 beba
00000060: 0000 0000 0000 0000 923e a639 8a2f 973a
00000070: 7bb3 6338 5e54 4eba 57a6 933a 6d94 4c3a
00000080: 0000 0000 ff8f 9539 0000 0000 f510 b037
00000090: 16a0 2d37 ddbe 35ba 0000 0000 4a46 f336
000000a0: 02ed e9b9 0000 0000 0000 0000 a10d 073a
000000b0: 5a47 1938 0000 0000 a29d 9d3a aba5 4739
000000c0: 729c a039 0000 0000 d5b7 5e3a 3b0e cfb8
000000d0: 63bf ffb9 42ba 3139 1df2 2e39 2e2b 8dba
000000e0: aa3c 08ba e258 c7b5 0000 0000 6bad bab8
000000f0: 0000 0000 00a9 0439 efb8 aeb9 ef5d 03ba
00000100: 7823 da39 0000 0000 417a 30b9 05e5 a839
00000110: 32e8 893a fc9e 9938 8fea b53a a917 a037
00000120: 0000 0000 0000 0000 0000 0000 ea80 44ba
00000130: 0000 0000 e98d 2d3a 0000 0000 0000 0000
00000140: d0c7 fab8 0000 0000 9510 d93a 1c5f 94b8
00000150: 6416 203a 0000 0000 3e7e a8b8 0000 0000
00000160: 96e8 063a 0f0b 85b7 3917 2cb9 3bbd 1737
00000170: e995 dc37 e136 35ba dc16 a4ba ca04 f1ba
00000180: 0000 0000 0000 0000 0dbe 23ba 0000 0000
00000190: 0000 0000 0000 0000 2115 a9b9 7ea0 74ba
000001a0: 0000 0000 2f9d 97ba 419f efb6 0000 0000
000001b0: b5b6 4639 0000 0000 c416 1238 0000 0000
000001c0: d26c 5837 0000 0000 3bbb 4ab7 0959 713a
000001d0: beb7 7839 35fb 31ba 67fc 0eba 3768 fc3a
000001e0: 0000 0000 c1b9 35ba ab13 f839 0000 0000
000001f0: 0000 0000 0be6 223a ee95 0f3a dfb6 5e3a

query_gen.1.linear.weight f4 [128, 128]
0.08746799 -0.027143452 0.06796202 6.091814e-05 -0.04225977 -0.068139575 -0.08402992 -0.03531853
-0.021393858 -0.0016329087 0.028894972 -0.012256032 0.026787253 -0.07576541 0.035663035 0.035849817
0.0669772 0.01543565 0.043761663 0.05585798 0.018496294 0.017353017 0.0720553 -0.074281506
0.07781149 0.01298786 0.041675556 -0.012183594 0.036644954 0.04940263 -0.015536556 -0.030828532
0.080226995 0.041370515 0.021562614 -0.08493793 -0.062230386 0.07846517 0.07668274 0.08188052
-0.05157558 0.021560743 -0.03914459 0.05584883 0.072706886 0.01491905 0.06960937 -0.005749795
0.05970879 -0.02260872 -0.050261103 -0.009761567 0.021470727 0.05951701 -0.031899758 -0.0052097575
0.0679936 0.00572647 0.024242938 -0.06482807 0.027265184 0.027735703 -0.0420135 0.046350963
0.010259707 0.0076042414 -0.07821741 -0.041903704 -0.086950906 0.0077915117 0.022902843 0.07069075
0.052493684 0.0034309328 0.07896554 -0.07378845 -0.0015716776 -0.0859132 -0.022456333 -0.050949007
0.08294645 -0.043997683 -0.0675806 -0.08221342 0.027001323 -0.03720616 -0.076309465 0.0027416945
0.08795026 -0.027985096 0.0076758503 -0.03741642 0.040073484 0.07398933 -0.04596451 0.064642385
0.031102888 -0.048178315 0.0036952614 0.083806805 0.059190102 -0.05671852 0.084115885 0.022748513
0.0208238 0.043000832 -0.006245441 -0.010534972 0.079783104 0.0054947287 -0.056282252 0.04921385
0.0524805 0.08374529 -0.022082625 0.045366865 -0.08408988 -0.0085886875 -0.08639317 0.07911671
0.05543997 -0.07321943 0.03691246 -0.009518877 -0.04530685 -0.07301782 0.0050908774 0.02341386
0.0048988126 0.0094422465 0.04612692 0.031305935 0.051026024 -0.018843515 0.0672997 0.08745361
-0.016761491 -0.055800095 0.06887975 0.007021044 0.04270315 -0.023546062 -0.080564715 -0.04118714
0.0001262633 0.04740552 0.03373087 -0.06598806 -0.08524677 0.07016319 -0.018381514 -0.01118068
-0.056839757 -0.048554223 -0.025851915 -0.063740164 -0.059457563 0.0860846 -0.03079285 -0.05858875
0.0077474415 0.043416314 -0.05109692 -0.064099334 0.011798637 -0.02429919 0.04720693 -0.026727809
0.022097869 0.05080659 -0.07375361 0.048951913 -0.041912563 -0.0017852485 -0.07853851 0.04499108
0.02664414 0.06753353 0.023581658 0.07126517 0.050030757 -0.062123872 0.04761449 0.0028109758
-0.058384925 -0.009807577 0.0845763 0.04126128 -0.03454007 0.08554721 0.07068164 0.029127227
0.02720111 -0.078040645 0.07795001 -0.058474515 -0.01981198 0.017676987 -0.005420115 0.03204134
-0.07147111 0.07283556 -0.04861269 -0.068161584 0.028622322 -0.02878227 -0.058439102 0.084694065
0.013190327 -0.051814597 0.08115676 0.02344321 0.06411423 0.045427524 -0.029146416 0.08519708
-0.01850581 -0.011684994 -0.03720869 -0.000298077 -0.054289654 -0.05886191 -0.009540359 0.017987972
-0.01444868 0.080747046 -0.025922133 0.024197504 0.034567505 0.034453318 0.06364494 0.022548832
-0.044892367 -0.0433559 -0.060585868 -0.019850373 -0.06967705 -0.04166396 0.036676466 0.056912355
-0.064146005 0.031980343 0.025858179 -0.025994396 -0.018506128 0.05601455 0.0403224 -0.02352271
-0.021620974 -0.03441022 0.08617901 0.06324083 0.035880953 -0.08061168 0.058827147 0.007544957
00000000: 6b22 b33d f25b debc ac2f 8b3d 5b82 7f38
00000010: 9518 2dbd c38c 8bbd e117 acbd 2aaa 10bd
00000020: 2c42 afbc 5307 d6ba 26b5 ec3c 86cd 48bc
00000030: f170 db3c e52a 9bbd 6713 123d 42d7 123d
00000040: 582b 893d cfe5 7c3c 6e3f 333d 56cb 643d
00000050: 8a85 973c ea27 8e3c bb91 933d e720 98bd
00000060: a15b 9f3d 08cb 543c fdb3 2a3d b29d 47bc
00000070: 0519 163d 6a5a 4a3d 0a8d 7ebc 1e8c fcbc
00000080: 0d4e a43d 2174 293d 14a4 b03c f0f3 adbd
00000090: 4ae5 7ebd 59b2 a03d d70b 9d3d f9b0 a73d
000000a0: ea40 53bd 28a0 b03c 1456 20bd bec1 643d
000000b0: 59e7 943d 086f 743c 5b8f 8e3d c768 bcbb
000000c0: 3491 743d ec35 b9bc 96de 4dbd fbee 1fbc
000000d0: 61e3 af3c 1cc8 733d 52a9 02bd 9db6 aabb
000000e0: 3b40 8b3d 1da5 bb3b 2099 c63c 94c4 84bd
000000f0: 3c5b df3c fc35 e33c 5916 2cbd 82da 3d3d
00000100: 5518 283c 002d f93b 7330 a0bd 38a3 2bbd
00000110: 5113 b2bd f04f ff3b be9e bb3c 50c6 903d
00000120: 9e03 573d 80d9 603b afb8 a13d 661e 97bd
00000130: c000 ceba 43f3 afbd 58f6 b7bc e8af 50bd
00000140: d4df a93d ea36 34bd b367 8abd 825f a8bd
00000150: e131 dd3c 7d65 18bd 2348 9cbd 00ae 333b
00000160: 441f b43d 0041 e5bc b385 fb3b f641 19bd
00000170: 1824 243d b887 973d 4845 3cbd 3a63 843d
00000180: 7ccb fe3c a056 45bd 332c 723b e7a2 ab3d
00000190: 5271 723d ae51 68bd f344 ac3d 175b ba3c
000001a0: ac96 aa3c a421 303d 8ea6 ccbb e09a 2cbc
000001b0: 5365 a33d 200d b43b 3888 66bd 7694 493d
000001c0: cbf5 563d a782 ab3d 9fe6 b4bc 9bd2 393d
000001d0: 5137 acbd 91b7 0cbc e7ee b0bd f107 a23d
000001e0: 0615 633d 12f4 95bd 8531 173d 10f5 1bbc
000001f0: ad93 39bd 5e8a 95bd 60d1 a63b 6cce bf3c
00000200: 3886 a03b a7b3 1a3c 95ef 3c3d a73a 003d
00000210: aa00 513d b75d 9abc 6dd4 893d e11a b33d
00000220: 654f 89bc a48e 64bd d410 8d3d c910 e63b
00000230: 80e9 2e3d ace3 c0bc 1dff a4bd d9b3 28bd
00000240: 8c65 0439 4a2c 423d 6129 0a3d bf24 87bd
00000250: dc95 aebd b8b1 8f3d d494 96bc 2c2f 37bc
00000260: ced0 68bd cbe0 46bd 65c7 d3bc 348a 82bd
00000270: c689 73bd 1f4d b03d 4941 fcbc c2fa 6fbd
00000280: 40de fd3b 4ed5 313d 014b 51bd 8346 83bd
00000290: 124f 413c 180f c7bc 0e5c 413d 47f4 dabc
000002a0: 9706 b53c 921a 503d 220c 97bd cd81 483d
000002b0: 82ac 2bbd 00ff e9ba ccd8 a0bd 9148 383d
000002c0: d044 da3c 054f 8a3d 522e c13c 79f3 913d
000002d0: 0ded 4c3d 9a75 7ebd 6907 433d 5938 383b
000002e0: 0825 6fbd f6af 20bc 5736 ad3d 9701 293d
000002f0: e379 0dbd 6033 af3d 89c1 903d 399c ee3c
00000300: ddd4 de3c c6d3 9fbd 41a4 9f3d f982 6fbd
00000310: bc4c a2bc 54cf 903c 389b b1bb c83d 033d
00000320: 725f 92bd cf2a 953d 1a1e 47bd 4d98 8bbd
00000330: 5c79 ea3c ccc8 ebbc d75d 6fbd 1574 ad3d
00000340: 3e1c 583c 8b3b 54bd 8435 a63d fa0b c03c
00000350: 524e 833d 3612 3a3d 77c4 eebc cf7b ae3d
00000360: 7f99 97bc 6b72 3fbc 2468 18bd 3847 9cb9
00000370: d45e 5ebd 3019 71bd 2a4f 1cbc 835b 933c
00000380: 28ba 6cbc b55e a53d a75a d4bc d839 c63c
00000390: a896 0d3d ec1e 0d3d 4758 823d 54b8 b83c
000003a0: 0fe1 37bd f595 31bd e328 78bd 409d a2bc
000003b0: d7b2 8ebd d4a7 2abd 103a 163d ee1c 693d
000003c0: fb5e 83bd d2fd 023d 88d4 d33c 33f2 d4bc
000003d0: 2a9a 97bc 836f 653d 1a29 253d b3b2 c0bc
000003e0: 781e b1bc bbf1 0cbd 9f7e b03d 6984 813d
000003f0: e8f7 123d bd17 a5bd bcf4 703d b03b f73b

query_gen.1.linear.bias f4 [128]
0.04151006 0.0076379166 -0.078143604 0.08065328 -0.04538445 0.064955935 0.07605457 0.03892905
-0.05682367 0.044634733 0.030193355 0.040781714 -0.0027835288 0.06953503 0.06252352 -0.07015386
0.08059169 0.04380752 -0.020404628 0.07651698 -0.08172079 0.044562995 0.06496705 0.036015574
0.055863485 -0.033935968 -0.08710068 0.002369011 -0.077394456 0.07331814 -0.0058952486 0.040612653
0.06329033 0.006828197 -0.014306918 0.0027566329 -0.03340404 -0.041216057 -0.041345574 -0.085967354
-0.023035381 -0.067465566 0.024771204 0.036586072 -0.0436497 0.004992278 -0.06654574 -0.031286262
0.08490042 -0.03859078 -0.05215353 -0.07973213 -0.022710772 0.0035073147 -0.034971707 -0.06732922
-0.045675024 0.061182767 0.043743346 0.05478938 -0.07180649 0.079036236 -0.06546686 -0.0532322
-0.02590218 -0.03462871 -0.06737369 -0.07576935 -0.00028030854 -0.03252924 -0.06452154 -0.016808059
-0.058014702 -0.055766057 0.042530816 0.01157514 -0.085918166 -0.034701433 0.06128481 0.06467229
0.060975257 -0.042545546 -0.066643335 -0.074625015 -0.07216071 0.021997148 -0.06933747 -0.008623301
-0.069722295 -0.011488584 0.0035207567 -0.04384361 -0.03413452 -0.06941591 -0.078152426 -0.08699663
-0.059224065 -0.06073985 -0.06313156 0.06943082 -0.027104015 0.058291696 -0.015576282 0.0798486
-0.05675181 0.079129726 0.043134723 -0.054764662 -0.01176467 -0.060802016 0.0858397 0.050332557
-0.020786727 -0.026079744 -0.023314605 0.022932118 -0.03729228 -0.022981135 0.0605226 -0.06624172
-0.020538863 0.04991752 -0.026451202 -0.042371098 -0.06455409 -0.065872416 0.05154669 -0.029539637
00000000: 7406 2a3d 7d47 fa3b c109 a0bd 8c2d a53d
00000010: 0ce5 39bd 9e07 853d 80c2 9b3d 1174 1f3d
00000020: f0bf 68bd e9d2 363d 0e58 f73c ba0a 273d
00000030: dd6b 36bb 6268 8e3d 550c 803d d4ac 8fbd
00000040: 420d a53d 846f 333d 9b27 a7bc efb4 9c3d
00000050: 3b5d a7bd b087 363d 720d 853d 1185 133d
00000060: 1cd1 643d 7100 0bbd d761 b2bd 6941 1b3b
00000070: fc80 9ebd d227 963d ee2c c1bb 7459 263d
00000080: 5c9e 813d 11bf df3b 9067 6abc a0a8 343b
00000090: add2 08bd 2bd2 28bd fa59 29bd a70f b0bd
000000a0: b2b4 bcbc 632b 8abd fbec ca3c 47db 153d
000000b0: 07ca 32bd 4396 a33b 2249 88bd 0626 00bd
000000c0: 45e0 ad3d 5e11 1ebd f19e 55bd 994a a3bd
000000d0: f10b babc fada 653b 7e3e 0fbd e7e3 89bd
000000e0: bc15 3bbd c89a 7a3d 392c 333d d46a 603d
000000f0: 480f 93bd c0dd a13d 7d13 86bd 020a 5abd
00000100: cf30 d4bc d6d6 0dbd 38fb 89bd f62c 9bbd
00000110: 60f6 92b9 613d 05bd df23 84bd 0eb1 89bc
00000120: d3a0 6dbd f36a 64bd cb34 2e3d a8a5 3d3c
00000130: ddf5 afbd 1723 0ebd c805 7b3d e872 843d
00000140: 31c1 793d 3d44 2ebd 4d7c 88bd 00d5 98bd
00000150: ffc8 93bd 5d33 b43c ce00 8ebd bf48 0dbc
00000160: 90ca 8ebd 9d3a 3cbc 7fbc 663b 5b95 33bd
00000170: a3d0 0bbd ee29 8ebd 610e a0bd 4a2b b2bd
00000180: ef94 72bd 59ca 78bd 1f4b 81bd bf31 8e3d
00000190: 3d09 debc 46c3 6e3d a933 7fbc aa87 a33d
000001a0: 9674 68bd c40e a23d 09ae 303d e950 60bd
000001b0: 9ac0 40bc 890b 79bd bacc af3d 8329 4e3d
000001c0: ed48 aabc 30a5 d5bc 45fe bebc 23dc bb3c
000001d0: cabf 18bd ef42 bcbc 8ce6 773d bda9 87bd
000001e0: 1e41 a8bc 5076 4c3d 31b0 d8bc 518d 2dbd
000001f0: ef34 84bd 1ee8 86bd 9f22 533d 1cfd f1bc

query_gen.1.norm.weight f4 [128]
1.0 0.99970627 0.999711 1.0001136 0.99964243 0.99944574 1.0003028 0.9985492
1.0 1.0005187 0.9991936 0.9996706 1.0 1.000257 1.0 1.0
1.0 1.0 0.9993843 1.0 0.99999315 1.0 0.9991604 0.99944216
1.0 0.99940336 1.0 0.9989321 1.0 1.0 1.0 1.0
1.000211 1.0001718 0.9997193 0.9997405 1.0 0.9989874 1.0 1.0
0.99957216 1.0 1.0 1.0005618 1.0 0.9996424 0.9998692 0.9993146
0.99906915 0.99999195 0.99934065 1.0004212 1.0001206 0.9993285 1.0000486 0.999583
0.99976206 1.0 1.0 1.0 1.0012316 1.0 1.0023662 0.99930406
1.0005758 0.9991427 1.0 0.9989712 1.000173 1.0 1.0 1.0
1.0 0.99993426 1.0 1.0003424 0.99989456 1.0 1.0013037 1.0007674
1.000235 0.99892116 1.0 1.0020869 0.99979675 0.9995612 0.9995339 1.0
1.0 0.99947625 1.0016289 1.0 1.0011126 1.0002447 1.000815 0.9993687
0.99943244 0.99923515 1.000912 1.0 0.9982411 1.0 1.0000924 0.9996727
1.0 0.9996383 1.0002229 1.0013145 0.99980205 1.0 1.000055 1.0
1.0 1.0 0.9994725 1.0 1.0 0.99973494 1.0 1.000408
1.0 0.99976325 1.0 1.0 1.0004729 1.0 1.0000787 1.0
00000000: 0000 803f c0ec 7f3f 0fed 7f3f b903 803f
00000010: 91e8 7f3f addb 7f3f ec09 803f eca0 7f3f
00000020: 0000 803f ff10 803f 27cb 7f3f 6aea 7f3f
00000030: 0000 803f 6c08 803f 0000 803f 0000 803f
00000040: 0000 803f 0000 803f a6d7 7f3f 0000 803f
00000050: 8dff 7f3f 0000 803f fac8 7f3f 71db 7f3f
00000060: 0000 803f e6d8 7f3f 0000 803f 04ba 7f3f
00000070: 0000 803f 0000 803f 0000 803f 0000 803f
00000080: ea06 803f a105 803f 9bed 7f3f feee 7f3f
00000090: 0000 803f a3bd 7f3f 0000 803f 0000 803f
000000a0: f6e3 7f3f 0000 803f 0000 803f 6912 803f
000000b0: 0000 803f 90e8 7f3f 6ef7 7f3f 15d3 7f3f
000000c0: ffc2 7f3f 79ff 7f3f cad4 7f3f cd0d 803f
000000d0: f403 803f fed3 7f3f 9801 803f ace4 7f3f
000000e0: 68f0 7f3f 0000 803f 0000 803f 0000 803f
000000f0: 5b28 803f 0000 803f 894d 803f 64d2 7f3f
00000100: de12 803f d1c7 7f3f 0000 803f 94bc 7f3f
00000110: ab05 803f 0000 803f 0000 803f 0000 803f
00000120: 0000 803f b1fb 7f3f 0000 803f 380b 803f
00000130: 17f9 7f3f 0000 803f b82a 803f 2519 803f
00000140: b307 803f 4cb9 7f3f 0000 803f 6244 803f
00000150: aef2 7f3f 3ee3 7f3f 74e1 7f3f 0000 803f
00000160: 0000 803f addd 7f3f 6035 803f 0000 803f
00000170: 7524 803f 0508 803f b51a 803f a1d6 7f3f
00000180: ceda 7f3f e0cd 7f3f e21d 803f 0000 803f
00000190: bb8c 7f3f 0000 803f 0703 803f 8dea 7f3f
000001a0: 0000 803f 4ce8 7f3f 4e07 803f 132b 803f
000001b0: 07f3 7f3f 0000 803f cd01 803f 0000 803f
000001c0: 0000 803f 0000 803f 6edd 7f3f 0000 803f
000001d0: 0000 803f a1ee 7f3f 0000 803f 5f0d 803f
000001e0: 0000 803f 7cf0 7f3f 0000 803f 0000 803f
000001f0: 7f0f 803f 0000 803f 9402 803f 0000 803f

query_gen.1.norm.bias f4 [128]
0.0 0.00048686366 -0.00018825772 0.00018982799 -9.730009e-05 -0.0007579548 0.0004867433 -0.0014332477
0.0 0.00062600017 -0.0011269385 -0.00067825784 0.0 0.0003213349 0.0 0.0
0.0 0.0 -0.00060820946 0.0 0.0007577077 0.0 -0.00083541987 -0.0005559804
0.0 -0.000495785 0.0 -0.0012449087 0.0 0.0 0.0 0.0
0.0002264138 0.00017080498 -0.00015502248 0.00071953697 0.0 -0.0012572935 0.0 0.0
-0.0004063076 0.0 0.0 0.00055918255 0.0 -0.00032434124 -0.0007907879 -0.00075118715
-0.0012217355 -0.00067109446 -0.0008199648 0.0004422052 0.0004533754 -0.0006499948 0.00031105187 -0.00040679364
-0.00019590664 0.0 0.0 0.0 0.0011876564 0.0 0.0023291165 -0.0006746848
0.00042088996 -0.00084460014 0.0 -0.0010349886 0.00020538225 0.0 0.0 0.0
0.0 0.00015736406 0.0 0.0003435219 -0.000740056 0.0 0.0012766916 0.0007557405
0.00027139383 -0.001041772 0.0 0.0018577585 -0.00016080032 -0.00041651496 -0.00044780437 0.0
0.0 -0.00048420575 0.0016108078 0.0 0.0010300665 0.00024122716 0.00082480925 -0.00061766675
-0.0003094195 -0.0004550046 0.00091523374 0.0 -0.001741208 0.0 0.00016466079 -0.00032564203
0.0 -0.00034856677 0.00022719831 0.0013351226 -0.00017494387 0.0 7.725079e-05 0.0
0.0 0.0 0.0006372039 0.0 0.0 -0.0005970732 0.0 0.0005132262
0.0 -0.00023417988 0.0 0.0 0.00049324374 0.0 -0.00038733738 0.0
00000000: 0000 0000 bc41 ff39 0c67 45b9 900c 4739
00000010: 970d ccb8 7cb1 46ba 9431 ff39 d0db bbba
00000020: 0000 0000 291a 243a c8b5 93ba 1dcd 31ba
00000030: 0000 0000 d778 a839 0000 0000 0000 0000
00000040: 0000 0000 0000 0000 3f70 1fba 0000 0000
00000050: e7a0 463a 0000 0000 1400 5bba 37bf 11ba
00000060: 0000 0000 91f7 01ba 0000 0000 342c a3ba
00000070: 0000 0000 0000 0000 0000 0000 0000 0000
00000080: 7e69 6d39 1d1a 3339 888d 22b9 4f9f 3c3a
00000090: 0000 0000 c5cb a4ba 0000 0000 0000 0000
000000a0: af05 d5b9 0000 0000 0000 0000 1b96 123a
000000b0: 0000 0000 580c aab9 e14c 4fba 51eb 44ba
000000c0: a422 a0ba 63ec 2fba e8f2 56ba c7d7 e739
000000d0: 04b3 ed39 6a64 2aba ad14 a339 eb46 d5b9
000000e0: 4a6c 4db9 0000 0000 0000 0000 0000 0000
000000f0: 23ab 9b3a 0000 0000 17a4 183b 55dd 30ba
00000100: e5aa dc39 2868 5dba 0000 0000 74a8 87ba
00000110: e15b 5739 0000 0000 0000 0000 0000 0000
00000120: 0000 0000 1802 2539 0000 0000 bb1a b439
00000130: 5100 42ba 0000 0000 a956 a73a e31c 463a
00000140: dd49 8e39 118c 88ba 0000 0000 0880 f33a
00000150: 829c 28b9 b15f dab9 49c7 eab9 0000 0000
00000160: 0000 0000 ffdc fdb9 be21 d33a 0000 0000
00000170: 4c03 873a ecf1 7c39 0338 583a eaea 21ba
00000180: 9539 a2b9 af8d eeb9 4cec 6f3a 0000 0000
00000190: 3f39 e4ba 0000 0000 cba8 2c39 efba aab9
000001a0: 0000 0000 d7bf b6b9 153c 6e39 48ff ae3a
000001b0: 2371 37b9 0000 0000 b401 a238 0000 0000
000001c0: 0000 0000 0000 0000 080a 273a 0000 0000
000001d0: 0000 0000 e784 1cba 0000 0000 078a 063a
000001e0: 0000 0000 2f8e 75b9 0000 0000 0000 0000
000001f0: 074d 013a 0000 0000 8b13 cbb9 0000 0000

query_gen.3.weight f4 [128, 128]
0.022229806 -0.009643739 0.08418137 -0.04834377 0.06506841 0.057209622 -0.015203235 0.039674662
0.0029412284 -0.033797536 0.034674894 -0.024340035 0.043280818 -0.06422256 0.050874136 -0.019200973
0.02813711 -0.0818051 -0.04569743 -0.08746917 0.08531838 0.05627442 0.08535788 -0.032418843
0.01583226 0.0002463474 0.019181818 0.07388913 -0.0039597154 -0.054808836 -0.023710549 0.045032434
0.07110317 0.05771648 0.06329066 0.052857447 0.06505159 -0.021873891 -0.024920538 0.0052402467
0.01842229 -0.022779107 0.021600142 -0.043143846 -0.02128639 0.06826479 0.071495004 0.078885876
0.007937326 -0.04617737 0.052172996 0.0018708542 -0.019474179 0.05811526 0.082591824 -0.008476011
0.06758839 0.039729364 -0.010356598 -0.049912468 -0.07443621 0.07387935 0.0017122342 -0.02692716
-0.0008674827 -0.016919008 -0.017938264 -0.07364212 -0.08513712 -0.05071408 0.028149024 -0.059667975
0.004859671 0.0570405 -0.06158924 0.07286607 -0.062164158 0.044509895 -0.07187185 -0.024283823
0.08117688 0.057002764 0.08106602 0.021506492 0.063381396 -0.01964474 -0.040976875 -0.08497904
-0.026107613 -0.031756464 0.07148898 -0.03406888 0.024879284 0.075451165 0.052608926 -0.015996892
-0.061927654 0.021906963 -0.083078794 0.044593416 -0.059269205 -0.022715852 0.081903964 -0.08332694
-0.077404164 -0.006167608 -0.07856938 -0.036133204 -0.0022543732 0.016398199 0.035647694 -0.03507056
-0.046071034 -0.03867788 0.024463706 0.02779077 0.023962475 -0.0667308 -0.07807262 -0.06936715
0.011219226 -0.022870677 -0.0067940056 0.008019052 -0.011717862 0.047774278 0.013931005 0.07066243
-0.05139182 -0.04363709 0.058572836 -0.037870497 0.030765941 0.07219543 0.07669846 0.062929444
-0.058402013 -0.05269918 -0.06653466 0.05006328 -0.036136687 -0.05314543 -0.061744984 0.02348873
-0.06675774 -0.07546291 0.019728014 -0.014128596 -0.08643279 -0.08208875 -0.084346846 0.05663408
0.032208614 -0.078126185 -0.029653456 0.016146092 -0.034858666 -0.056971684 0.08509404 0.03540744
-0.028572384 -0.01891241 0.038928278 0.053266726 0.07621076 0.052627847 0.05927431 0.023551702
-0.05502668 -0.025709227 0.06356049 0.03879123 0.08835351 -0.053487483 0.04601242 0.0732841
0.033662625 0.056025185 0.06348356 0.05819327 -0.08284476 0.077876076 -0.044329192 -0.04336256
-0.0027686015 -0.061457932 -0.074704215 -0.06966727 -0.08644265 0.022330545 -0.009719611 0.010823622
0.08168649 -0.06499515 -0.045633584 -0.0127219055 -0.03170712 0.08452045 -0.07372098 0.034085043
-0.02011785 -0.080590636 0.087519534 -0.03381378 0.06336603 0.059949525 0.08212129 -0.010309083
0.060501393 0.065817006 -0.050170753 0.06086014 -0.075778715 -0.004171442 -0.043306995 -0.029940836
0.016207516 0.029899279 -0.08275188 -0.05667492 -0.072356954 0.08344845 -0.05015938 0.040781885
-0.055485286 0.034696493 -0.015590465 -0.04807083 -0.033790007 -0.07762251 -0.040953025 -0.014552356
0.032923408 0.03280755 -0.031868406 -0.063768506 0.052982565 0.027448967 -0.06279325 -0.013891116
-0.07923183 0.07705187 0.009231469 0.008867212 -0.0020739809 -0.062996335 -0.06985861 0.06301745
0.08804575 -0.0107653905 0.08532088 -0.009423479 -0.010118881 -0.07688667 0.054733817 -0.07603648
00000000: 481b b63c c600 1ebc 4867 ac3d 1e04 46bd
00000010: 9642 853d a354 6a3d fd16 79bc e681 223d
00000020: a0c1 403b 496f 0abd 4307 0e3d c164 c7bc
00000030: 3a47 313d 1e87 83bd 6661 503d 5c4b 9dbc
00000040: cc7f e63c 6f89 a7bd 3a2d 3bbd 0923 b3bd
00000050: 67bb ae3d 0280 663d 1dd0 ae3d 9fc9 04bd
00000060: a8b2 813c 3028 8139 3023 9d3c 2f53 973d
00000070: 80c0 81bb 3b7f 60bd a03c c2bc ee73 383d
00000080: 8a9e 913d 1e68 6c3d 899e 813d 0d81 583d
00000090: c539 853d e030 b3bc 2826 ccbc 60b6 ab3b
000000a0: 58ea 963c 409b babc c8f2 b03c 9ab7 30bd
000000b0: cc60 aebc 69ce 8b3d f96b 923d eb8e a13d
000000c0: 8f0b 023c 7b24 3dbd 5ab3 553d 7337 f53a
000000d0: 5088 9fbc 440a 6e3d e725 a93d f8de 0abc
000000e0: c86b 8a3d 42bb 223d b8ae 29bc 0471 4cbd
000000f0: 0372 98bd 0f4e 973d 0c6d e03a 5996 dcbc
00000100: c767 63ba bb99 8abc 44f3 92bc aed1 96bd
00000110: 5f5c aebd 91b9 4fbd c898 e63c 6866 74bd
00000120: e03d 9f3b 4da3 693d 0045 7cbd ce3a 953d
00000130: d89f 7ebd 0250 363d 8c31 93bd deee c6bc
00000140: 1040 a63d bb7b 693d f105 a63d 622e b03c
00000150: 1bce 813d 01ee a0bc 5ed7 27bd 7e09 aebd
00000160: a2df d5bc 1113 02bd d068 923d cf8b 0bbd
00000170: a4cf cb3c 2486 9a3d 757c 573d ea0b 83bc
00000180: daa7 7dbd 3b76 b33c 3725 aabd 96a7 363d
00000190: 44c4 72bd 9816 babc 44bd a73d 51a7 aabd
000001a0: 1386 9ebd a519 cabb fce8 a0bd 6900 14bd
000001b0: 1bbe 13bb 8455 863c 5103 123d 26a6 0fbd
000001c0: fbb4 3cbd b26c 1ebd 1c68 c83c 78a9 e33c
000001d0: f44c c43c 28aa 88bd 8ae4 9fbd 5d10 8ebd
000001e0: d8d0 373c 495b bbbc 40a0 debb 5862 033c
000001f0: 47fc 3fbc f6ae 433d df3e 643c 77b7 903d
00000200: 3b80 52bd cebc 32bd 12ea 6f3d 181e 1bbd
00000210: db08 fc3c 33db 933d 1514 9d3d 27e1 803d
00000220: f336 6fbd 18db 57bd 5343 88bd 270f 4d3d
00000230: 1004 14bd 06af 59bd 4fe8 7cbd 706b c03c
00000240: 48b8 88bd 4c8c 9abd a59c a13c a07b 67bc
00000250: ad03 b1bd 261e a8bd 0abe acbd 23f9 673d
00000260: 2eed 033d 9f00 a0bd ceeb f2bc cf44 843c
00000270: f6c7 0ebd 245b 69bd c945 ae3d 6407 113d
00000280: a210 eabc 33ee 9abc 4273 1f3d 362e 5a3d
00000290: 6314 9c3d 4c90 573d 9ec9 723d 80ef c03c
000002a0: a863 61bd 289c d2bc 012c 823d 8ee3 1e3d
000002b0: aff2 b43d b115 5bbd 8577 3c3d f915 963d
000002c0: d2e1 093d aa7a 653d ab03 823d 115c 6e3d
000002d0: 83aa a9bd 7e7d 9f3d 8792 35bd f19c 31bd
000002e0: 6d71 35bb 50bb 7bbd 86fe 98bd b7ad 8ebd
000002f0: d808 b1bd 8cee b63c 013f 1fbc 9055 313c
00000300: 3f4b a73d 2d1c 85bd 48ea 3abd 8a6f 50bc
00000310: 53df 01bd 0f19 ad3d 06fb 96bd c29c 0b3d
00000320: 30ce a4bc b40c a5bd 713d b33d 5180 0abd
00000330: 0dc6 813d a28d 753d 352f a83d 6ee7 28bc
00000340: 4fd0 773d 11cb 863d d97f 4dbd 7b48 793d
00000350: df31 9bbd 97b0 88bb ad62 31bd 7c46 f5bc
00000360: a0c5 843c 55ef f43c d179 a9bd f623 68bd
00000370: e22f 94bd 05e7 aa3d ec73 4dbd e80a 273d
00000380: 8a44 63bd e91d 0e3d 266f 7fbc ebe5 44bd
00000390: 6467 0abd 8df8 9ebd 5cbe 27bd 016d 6ebc
000003a0: b2da 063d 3661 063d 7288 02bd 1099 82bd
000003b0: 3f04 593d a8dc e03c bf99 80bd 9097 63bc
000003c0: 4c44 a2bd 5fcd 9d3d 963f 173c c847 113c
000003d0: a0eb 07bb 3904 81bd 0812 8fbd 4b0f 813d
000003e0: 5551 b43d 5261 30bc b7bc ae3d f064 1abc
000003f0: aac9 25bc c276 9dbd 9130 603d 04b9 9bbd

query_gen.3.bias f4 [128]
0.0077611883 0.08827406 -0.07336466 -0.064104006 0.05118221 -0.056635413 0.08227557 -0.07310352
-0.05363373 -0.03910193 -0.024919165 -0.022384236 -0.023226876 -0.007069348 0.03118185 0.066760406
0.001348566 0.0004258546 -0.07169168 0.018308775 0.06970491 0.029252047 0.071937844 -0.00928767
0.014564925 0.06401976 -0.0043887873 -0.08829303 0.055644214 0.035874076 -0.08278543 0.0884244
-0.028223721 -0.016835205 0.008416684 0.015187874 0.020612575 -0.031839848 0.006603623 0.048942164
-0.018082483 0.0586532 0.08341099 -0.01941862 0.05761509 0.0636613 -0.027748588 0.051037934
0.05509734 0.05198995 0.023935635 0.08407816 0.083681785 -0.0281687 0.08136189 0.02580935
0.052267596 -0.031784076 0.0450068 0.03582304 -0.04110821 0.06317366 -0.06555185 -0.024386985
-0.0013121183 -0.08248079 -0.0004945614 0.065831795 -0.032518122 -0.06544971 -0.061511144 -0.05217913
0.081063166 -0.034610894 0.08922534 0.05766734 -0.07790965 -0.015466745 0.008752787 0.06360853
0.040610563 0.0060195317 0.057353165 0.024525564 -0.08242857 0.017980361 0.009556557 -0.007896545
0.038508467 -0.0028831025 -0.08805819 -0.0007616905 -0.04860811 -0.069497794 0.08650568 -0.058251698
-0.0355864 0.07178946 -0.044538155 0.053094335 -0.077825174 0.058108736 0.028460862 0.07660099
-0.035509873 -0.00043744553 0.029434178 0.040499 -0.01727019 -0.07813129 -0.050611734 0.060049627
0.06864992 -0.028347367 0.02414447 0.045567285 -0.071725875 -0.049624857 0.00041277712 -0.082521856
0.016126849 -0.043041892 -0.025307188 0.045385122 0.026681175 0.010318575 -0.065699466 -0.044152047
00000000: 9151 fe3b 08c9 b43d 3640 96bd f648 83bd
00000010: 70a4 513d 89fa 67bd 1880 a83d 4cb7 95bd
00000020: 0baf 5bbd 5829 20bd 4723 ccbc 255f b7bc
00000030: 4a46 bebc fda5 e7bb 1471 ff3c aeb9 883d
00000040: 5ec2 b03a 3d45 df39 16d3 92bd 49fc 953c
00000050: 73c1 8e3d fda1 ef3c 2654 933d 502b 18bc
00000060: b9a1 6e3c cb1c 833d d1cf 8fbb fad2 b4bd
00000070: 30eb 633d b2f0 123d 688b a9bd da17 b53d
00000080: 6f35 e7bc fce9 89bc 22e6 093c 90d6 783c
00000090: b4db a83c 806a 02bd 3463 d83b 9477 483d
000000a0: b721 94bc 563e 703d 62d3 aa3d cc13 9fbc
000000b0: cdfd 6b3d db60 823d 0251 e3bc 270d 513d
000000c0: c0ad 613d 6af3 543d aa14 c43c 2c31 ac3d
000000d0: 5b61 ab3d 0cc2 e6bc 10a1 a63d 216e d33c
000000e0: 8c16 563d 0530 02bd 0d59 383d 2ebb 123d
000000f0: 1561 28bd 3161 813d 0c40 86bd 37c7 c7bc
00000100: 62fb abba b0eb a8bd 74a5 01ba d2d2 863d
00000110: b931 05bd 7f0a 86bd 1cf3 7bbd c9b9 55bd
00000120: 7204 a63d 27c4 0dbd c6bb b63d 9734 6c3d
00000130: 188f 9fbd 3b68 7dbc d967 0f3c 3045 823d
00000140: 4357 263d 7e3f c53b 27eb 6a3d d6e9 c83c
00000150: 4fd0 a8bd 8d4b 933c 1b93 1c3c 8360 01bc
00000160: 0ebb 1d3d 6ff2 3cbb da57 b4bd 2fac 47ba
00000170: 4c19 47bd dc54 8ebd e429 b13d 5599 6ebd
00000180: 0cc3 11bd 5a06 933d a46d 36bd 7279 593d
00000190: ce62 9fbd 6d03 6e3d c126 e93c fbe0 9c3d
000001a0: cd72 11bd f258 e5b9 f21f f13c 48e2 253d
000001b0: 377a 8dbc 4c03 a0bd 404e 4fbd 99f6 753d
000001c0: 5498 8c3d bd38 e8bc a0ca c53c c3a4 3a3d
000001d0: 04e5 92bd 6f43 4bbd 026a d839 3801 a9bd
000001e0: 741c 843c b24c 30bd 0551 cfbc c0e5 393d
000001f0: 7b92 da3c 3e0f 293c 718d 86bd c7d8 34bd

attention.in_proj_weight f4 [96, 32]
-0.14530343 0.05352531 0.094505295 0.10834819 -0.10343335 -0.07831885 -0.10774083 -0.047268227
-0.17377335 -0.03631145 -0.12422106 -0.0074613374 -0.06674732 0.1576251 -0.20262852 -0.095064126
-0.06998241 -0.13387816 -0.055432502 -0.011796043 0.10022854 0.016348738 0.1462968 -0.12913883
-0.1438535 -0.14330252 -0.035617895 -0.16187483 0.036510415 -0.047920436 -0.037007608 0.020786043
-0.035730384 -0.20951645 -0.09833065 0.019114917 0.01350716 0.21018483 -0.15643206 -0.085996345
-0.1647058 0.06505656 0.03424768 -0.17372756 -0.09239458 -0.16945699 0.15965202 0.1524022
0.094084814 -0.21340817 0.0042302962 0.05909136 -0.050836623 0.0971637 -0.14154688 0.13637431
0.074960075 0.047655024 -0.1903098 -0.029271755 0.14996992 -0.10119679 -0.049324572 0.11438579
-0.016328864 -0.14760008 -0.20661336 0.07096457 0.14946933 0.041264996 0.08361091 -0.21116637
0.035344254 0.1653514 -0.1562668 0.1743033 0.15891723 -0.09972065 0.20580125 -0.10291876
0.19939807 -0.16374668 -0.10107654 0.15015297 0.19314767 0.0018200427 -0.11022821 0.06424308
-0.10034313 0.029823128 0.0835022 -0.14474137 -0.16631365 0.19171906 0.07184464 -0.038129315
0.14993872 -0.012570252 -0.16285363 -0.105081126 0.091139875 0.05106135 0.11855354 -0.08660514
-0.015674217 -0.14431755 0.158121 0.08722013 0.09349644 -0.01901616 -0.20577115 0.1633948
0.12989362 -0.13181782 0.08170781 -0.1721158 0.20336942 -0.087122835 -0.16659857 0.022920048
0.20183875 -0.015025391 -0.12309771 -0.065832384 -0.09164874 -0.084327124 -0.007987852 0.13178772
-0.06818362 0.028367875 0.12332623 0.106866464 -0.017246388 -0.16840917 0.16722412 -0.014024189
-0.08837787 0.1482786 0.14030154 0.050238665 0.08533929 -0.015348505 -0.033195585 0.15338185
0.16947968 0.14142808 0.09041682 -0.052825164 -0.20906167 0.1346243 -0.06769833 0.14197397
0.1895891 -0.14306396 0.083192624 0.12321566 -0.076115415 -0.11869854 0.18759337 -0.13254891
0.014838564 -0.033665445 -0.2092413 0.05854277 0.124341905 -0.013214365 -0.15704294 0.15105227
0.1195472 -0.07212518 -0.0010728401 -0.1302589 -0.19268519 -0.024885394 -0.015535031 -0.1522847
0.0321295 -0.20293471 -0.0052343337 0.15440886 0.18365182 -0.0031810973 0.021526756 -0.15523274
0.026469411 -0.07907521 -0.07376077 0.112740695 -0.19893087 0.19949889 0.17376243 0.17329662
-0.1977095 -0.18894918 -0.10304088 0.16314928 -0.18026188 0.03131404 -0.13286018 0.20762657
0.020912008 -0.077566616 -0.16577095 0.018251894 0.07494035 -0.04183335 0.07255819 -0.13686518
-0.11787274 0.15876672 0.04513026 -0.17118658 0.12706326 0.1530103 0.19518179 -0.0030008024
0.2135102 -0.12065622 -0.09118504 -0.02247117 0.05619498 -0.19007546 0.15898614 0.0023518773
0.017646924 0.06481064 -0.016861811 0.055342402 0.1479295 -0.078204006 -0.06248388 -0.080328204
0.09990556 0.1298295 -0.10794142 0.09365023 -0.01880036 -0.10993041 0.07354853 0.147628
0.096291125 -0.14455129 -0.00067393796 -0.17781125 -0.21097893 0.09386758 -0.05401991 0.0076869065
-0.15817627 -0.18523417 -0.0428096 0.1797506 -0.10778318 -0.08558702 -0.08380948 -0.16745989
00000000: 6cca 14be 5b3d 5b3d fe8b c13d a8e5 dd3d
00000010: ddd4 d3bd a265 a0bd 39a7 dcbd 549c 41bd
00000020: a4f1 31be 51bb 14bd 9c67 febd 3c7e f4bb
00000030: d2b2 88bd 7968 213e da7d 4fbe fbb0 c2bd
00000040: f052 8fbd 5b17 09be 310d 63bd 3144 41bc
00000050: 9f44 cd3d caed 853c d4ce 153e f83c 04be
00000060: 554e 13be e5bd 12be 12e4 11bd 84c2 25be
00000070: f28b 153d 3848 44bd 4a95 17bd 7e47 aa3c
00000080: 065a 12bd 7b8b 56be 9461 c9bd e396 9c3c
00000090: 234d 5d3c b13a 573e ba2f 20be da1e b0bd
000000a0: a3a8 28be 603c 853d 4c47 0c3d a3e5 31be
000000b0: 5f39 bdbd 2286 2dbe d27b 233e 530f 1c3e
000000c0: 8aaf c03d ac87 5abe 4c9e 8a3b c809 723d
000000d0: 103a 50bd c3fd c63d aaf1 10be b5a5 0b3e
000000e0: ab84 993d ea31 433d 92e0 42be 52cb efbc
000000f0: b791 193e 4340 cfbd 9008 4abd 1943 ea3d
00000100: 1cc4 85bc 7a24 17be 7492 53be df55 913d
00000110: 7d0e 193e 7c05 293d 323c ab3d ff3b 58be
00000120: 23c5 103d e151 293e 6704 20be 907c 323e
00000130: 33bb 223e 573a ccbd 90bd 523e 12c7 d2bd
00000140: 022f 4c3e 36ad 27be 3801 cfbd b3c1 193e
00000150: 81c8 453e 808e ee3a 54bf e1bd e091 833d
00000160: b380 cdbd a24f f43c 3403 ab3d 1537 14be
00000170: 204e 2abe 0052 443e 4823 933d 7c2d 1cbd
00000180: 8989 193e 75f3 4dbc 1ac3 26be c634 d7bd
00000190: 8ba7 ba3d b525 513d 33cc f23d 095e b1bd
000001a0: 3767 80bc fbc7 13be 79ea 213e 78a0 b23d
000001b0: 107b bf3d c7c7 9bbc acb5 52be f750 273e
000001c0: d502 053e 40fb 06be 6d56 a73d 203f 30be
000001d0: 1340 503e 756d b2bd d198 2abe d3c2 bb3c
000001e0: d1ae 4e3e 0f2d 76bc a71a fcbd 21d3 86bd
000001f0: 56b2 bbbd b3b3 acbd 7bdf 02bc 5cf3 063e
00000200: dba3 8bbd bf63 e83c 7692 fc3d cedc da3d
00000210: 4c48 8dbc 7473 2cbe cd3c 2b3e b6c5 65bc
00000220: 75ff b4bd 58d6 173e 35ab 0f3e 0fc7 4d3d
00000230: 5ec6 ae3d 4c78 7bbc 18f8 07bd 2210 1d3e
00000240: 158c 2d3e 86d2 103e 742c b93d 335f 58bd
00000250: 4314 56be f4da 093e 6ca5 8abd a061 113e
00000260: a523 423e 5c7f 12be e560 aa3d 7e58 fc3d
00000270: 66e2 9bbd 3818 f3bd 7a18 403e e7ba 07be
00000280: 731d 733c c7e4 09bd 5a43 56be 8bca 6f3d
00000290: f8a6 fe3d 1081 58bc ddcf 20be 72ad 1a3e
000002a0: 2ad5 f43d 5eb6 93bd 8a9e 8cba 9762 05be
000002b0: 444f 45be 74dc cbbc a586 7ebc 85f0 1bbe
000002c0: 399a 033d 1ece 4fbe c684 abbb 5b1d 1e3e
000002d0: 390f 3c3e f579 50bb e158 b03c 55f5 1ebe
000002e0: 61d6 d83c 2ff2 a1bd e30f 97bd 98e4 e63d
000002f0: 89b4 4bbe 7049 4c3e c7ee 313e ab74 313e
00000300: 5c74 4abe e57b 41be 1907 d3bd 9b10 273e
00000310: 9296 38be 2743 003d 800c 08be 0f9c 543e
00000320: a94f ab3c 3fdb 9ebd dcbf 29be ff84 953c
00000330: 547a 993d 7259 2bbd 6399 943d 6326 0cbe
00000340: 4367 f1bd be93 223e 82da 383d 894b 2fbe
00000350: df1c 023e bbae 1c3e bcdd 473e 1ca9 44bb
00000360: 6ba2 5a3e 9c1a f7bd 39bf babd 7615 b8bc
00000370: b52c 663d 24a3 42be 43cd 223e f421 1a3b
00000380: 4890 903c 71bb 843d c821 8abc b7ae 623d
00000390: d57a 173e 6c29 a0bd 19ef 7fbd 1d83 a4bd
000003a0: 499b cc3d 06f2 043e 6410 ddbd b1cb bf3d
000003b0: 3603 9abc 3223 e1bd 9da0 963d cb2b 173e
000003c0: 4834 c53d 4105 14be 36ab 30ba 2714 36be
000003d0: dc0a 58be a53d c03d fb43 5dbd 72e2 fb3b
000003e0: f6f8 21be 07ae 3dbe 1e59 2fbd 8b10 383e
000003f0: 6ebd dcbd 3f48 afbd 4ea4 abbd 9b7a 2bbe

attention.in_proj_bias f4 [96]
-0.00022369511 0.0004551339 0.0007964446 -0.0002278927 6.503612e-05 -6.4118394e-06 9.2154834e-05 -0.00047209315
0.00032630513 -0.000992 -0.0007068552 0.0011920113 0.0017383345 -0.0006496861 -0.0011034025 0.0014176683
2.427374e-05 0.0005853101 9.882096e-05 -0.0011990927 -0.00026586748 0.0003131512 0.0006570297 8.852566e-05
0.0007848654 -0.0004966221 -0.0004420875 0.0010618612 -0.0017152607 -9.495242e-05 0.0015644097 0.0014218654
-2.374515e-08 1.6209173e-08 4.074546e-08 -4.2669304e-09 4.3217995e-08 -3.6068586e-09 -1.4929e-08 9.185421e-09
-7.2960153e-09 -3.310588e-09 1.7516342e-08 5.3315823e-09 -8.024895e-09 1.6275354e-09 -1.2607544e-08 -3.11474e-08
8.1046253e-10 -5.2347993e-09 2.6480115e-10 -2.8727711e-09 1.1323504e-08 -1.7425972e-08 1.0930631e-08 3.1269938e-08
1.74695e-08 1.872471e-09 -1.5927234e-09 2.9207148e-10 1.2084894e-08 -7.226945e-09 -4.399214e-09 -1.4800782e-08
0.0038514244 -0.00040171228 -0.0011081264 -0.0010485129 0.0014432999 0.00071696646 0.00042598494 0.0009282635
-0.0013430073 -0.0016471858 -0.0012964646 -0.0005726256 -0.0007591949 0.0011438328 0.0013475142 0.0025221845
-0.0011520342 0.0018590547 -0.0007472629 0.0012710952 -0.0006609255 4.2449778e-05 -6.3289335e-05 -0.0013620697
0.0010034499 -0.000748768 -0.000660811 -0.0006921885 5.131912e-05 0.00079404656 0.0012032987 0.00039942435
00000000: b38f 6ab9 0a9f ee39 7ec8 503a 7bf6 6eb9
00000010: 0064 8838 4825 d7b6 4043 c138 4583 f7b9
00000020: ef13 ab39 ff05 82ba 404c 39ba 433d 9c3a
00000030: d4d8 e33a b24f 2aba 0ba0 90ba 0ed1 b93a
00000040: 769f cb37 7f6f 193a 193e cf38 e02a 9dba
00000050: 2164 8bb9 712e a439 843c 2c3a daa6 b938
00000060: 6dbf 4d3a bf2f 02ba fbc7 e7b9 262e 8b3a
00000070: 99d2 e0ba 3121 c7b8 e10c cd3a e35d ba3a
00000080: 23f8 cbb2 593c 8b32 1b00 2f33 519c 92b1
00000090: b09e 3933 87dc 77b1 383d 80b2 e9cd 1d32
000000a0: 6eb0 fab1 7b80 63b1 d876 9632 1831 b731
000000b0: dddd 09b2 d0af df30 9198 58b2 eec6 05b3
000000c0: 3bc7 5e30 c8dd b3b1 7393 912f 536a 45b1
000000d0: 4c89 4232 1eb0 95b2 6cc9 3b32 a94d 0633
000000e0: d60f 9632 dcac 0031 f9e6 dab0 6891 a02f
000000f0: ed9d 4f32 e150 f8b1 e527 97b1 8746 7eb2
00000100: 2e68 7c3b e99c d2b9 8d3e 91ba 416e 89ba
00000110: 1c2d bd3a cef2 3b3a bb56 df39 b556 733a
00000120: d907 b0ba 62e6 d7ba 22ee a9ba 411c 16ba
00000130: b504 47ba a9ec 953a 139f b03a 3c4b 253b
00000140: daff 96ba 86ab f33a f7e3 43ba e19a a63a
00000150: f641 2dba 1a0c 3238 34ba 84b8 7a87 b2ba
00000160: 3186 833a f848 44ba 473a 2dba fc73 35ba
00000170: 7c3f 5738 9027 503a 01b8 9d3a d469 d139
