embeddings/models/9baf90f8cde23a1c810ed056217db588448ea225/embedding_model.pt (torch_old, 37102 bytes, 12 tensors)

gcn_1.weight f4 [8, 32]
0.1433909 0.0037532593 0.11763308 0.0551132 0.06704791 -0.12591031 -0.06075685 -0.13600956
0.16578881 0.06817212 -0.11011561 0.16927801 -0.011875785 -0.14043479 0.12313308 -0.1456373
-0.057360772 0.0023135627 -0.103562094 0.15693411 -0.031141497 0.058234397 -0.1638034 -0.005997797
-0.038342007 0.096013166 -0.13962647 -0.047958024 0.15496184 -0.032272086 0.07950982 0.15396592
-0.0054010972 0.0013413071 -0.061486688 -0.004802463 0.028958382 -0.10894784 -0.17453457 -0.04770298
0.02316431 -0.17641883 0.002464321 0.04231036 -0.10832442 0.05021493 -0.002468187 0.10779581
-0.1255555 0.051824134 0.12244203 0.1529912 -0.111863114 -0.07665561 -0.010866923 -0.002918534
0.047742713 0.0593763 0.030825278 0.15969013 0.026175937 0.11962001 0.07923419 0.07004336
-0.09764231 0.03291036 -0.15898626 -0.028820295 -0.040109042 0.08165999 0.06062331 0.08105272
0.0146541335 0.08413018 0.0039973035 -0.030802218 0.07377728 -0.0799691 0.08432106 0.003945182
0.112583466 0.061222248 0.02301122 0.08472441 -0.055612005 0.10788576 0.17602278 0.1353533
0.13036337 -0.09536025 -0.1300304 -0.110032156 0.02881375 -0.03332265 -0.16238546 0.17252061
0.1672788 0.112527035 0.024542551 0.12050438 -0.060103036 0.1786582 0.15548594 0.15534854
-0.17917845 0.13433005 0.052461684 -0.013504659 -0.07533678 0.14327213 -0.1321835 -0.07062653
0.11860062 -0.016998619 -0.14205913 0.08911837 -0.107390404 -0.15441237 0.02883894 0.14037582
-0.03235785 0.10876185 -0.003907253 -0.030372318 -0.027950708 -0.14938071 -0.013075973 0.030474717
0.10549335 -0.021159684 0.10790073 -0.009515391 -0.12493037 -0.045125116 0.07738631 0.046282142
-0.03475577 -0.17545725 -0.15128948 -0.08266758 -0.018826015 0.03635912 -0.17026311 -0.05429474
0.14042553 0.1137937 0.014211626 0.0017330816 -0.12324033 -0.14912896 0.12238271 -0.13247046
0.012041446 -0.07959697 0.0105125 -0.11504222 0.15460606 0.0072714984 0.13345408 0.1334706
-0.15850016 0.036482286 -0.14256275 0.012105506 0.14328037 0.08613952 0.02350342 0.16216943
0.064815015 0.0895228 -0.05502888 0.005365003 0.013424944 0.07748225 0.1362643 -0.14653152
0.15177459 0.13020945 -0.15331735 -0.024005748 0.025775276 -0.090547755 -0.14393733 0.095416486
0.068999074 -0.15766518 -0.15849167 0.1543468 0.080982015 -0.14696397 0.07750583 -0.043756157
0.16472578 0.013613696 0.057011478 -0.11400239 0.0048478018 -0.04624202 0.12577544 -0.02697237
0.11154178 -0.09265195 -0.006649664 -0.09204907 0.024281982 0.09046444 -0.0011430804 -0.12544869
0.07908961 -0.08730614 0.05188358 -0.14369889 0.17216292 0.023218 0.022768889 -0.087003544
0.07672856 -0.12044122 0.013029571 0.11217248 0.077727325 0.10370394 0.13847288 -0.16436923
0.04742052 0.126597 0.17467536 -0.12701136 -0.14863852 0.09230869 0.08354274 -0.062081173
-0.064950645 0.112440184 -0.15397303 0.11055632 -0.046842113 0.13878429 -0.020538673 -0.16534156
0.07906147 -0.15850751 -0.14652914 0.15275264 0.15160836 0.15264465 0.014576272 -0.15432388
-0.14155325 0.10279834 -0.14654423 -0.11538345 0.16705258 -0.11290308 0.045818385 -0.13097142
00000000: 10d5 123e 3ef9 753b 9de9 f03d 61be 613d
00000010: 6a50 893d a2ee 00be 2ddc 78bd 1746 0bbe
00000020: 8bc4 293e d39d 8b3d 4b84 e1bd 3757 2d3e
00000030: a792 42bc 23ce 0fbe 322d fc3d f221 15be
00000040: 21f3 6abd 249f 173b 5d18 d4bd 56b3 203e
00000050: 741c ffbc 3187 6e3d 14bc 27be 2b89 c4bb
00000060: 820c 1dbd 8da2 c43d 3efa 0ebe a26f 44bd
00000070: 51ae 1e3e bc2f 04bd 0bd6 a23d 3ea9 1d3e
00000080: b0fb b0bb ccce af3a 77d9 7bbd fb5d 9dbb
00000090: 213a ed3c 0c20 dfbd 31b9 32be 3364 43bd
000000a0: 14c3 bd3c 23a7 34be 7280 213b a14d 2d3d
000000b0: 32d9 ddbd 2cae 4d3d 4ec1 21bb 0dc4 dc3d
000000c0: 9f91 00be 8b45 543d e3c2 fa3d baa9 1c3e
000000d0: 7d18 e5bd 9efd 9cbd 2e0b 32bc e044 3fbb
000000e0: dd8d 433d 9034 733d 4b85 fc3c cf85 233e
000000f0: eb6e d63c 56fb f43d 8945 a23d e572 8f3d
00000100: b1f8 c7bd 03cd 063d 4bcd 22be 8a18 ecbc
00000110: 6149 24bd 5a3d a73d 2650 783d f8fe a53d
00000120: e417 703c 724c ac3d d0fb 823b ef54 fcbc
00000130: 8b18 973d d7c6 a3bd 85b0 ac3d 9646 813b
00000140: 2992 e63d 2ec4 7a3d 0782 bc3c fe83 ad3d
00000150: 6ac9 63bd 36f3 dc3d 513f 343e 0e9a 0a3e
00000160: fa7d 053e 3c4c c3bd b026 05be 8a58 e1bd
00000170: d00a ec3c 557d 08bd 6048 26be 3ea9 303e
00000180: 224b 2b3e 9374 e63d 760d c93c 00cb f63d
00000190: 9a2e 76bd 2df2 363e b537 1f3e b013 1f3e
000001a0: 8e7a 37be d18d 093e 10e2 563d a542 5dbc
000001b0: 2b4a 9abd eeb5 123e 1d5b 07be a4a4 90bd
000001c0: e2e4 f23d b040 8bbc f377 11be b183 b63d
000001d0: 80ef dbbd 471e 1ebe a43f ec3c aebe 0f3e
000001e0: aa89 04bd 88be de3d 6a08 80bb 5ecf f8bc
000001f0: e2f8 e4bc 42f7 18be 9b3c 56bc 1da6 f93c
00000200: e60c d83d 1357 adbc 0ffb dc3d 71e6 1bbc
00000210: 7edb ffbd 1dd5 38bd b77c 9e3d 5892 3d3d
00000220: 115c 0ebd 11ab 33be a1eb 1abe 9f4d a9bd
00000230: 0439 9abc 4ded 143d 7459 2ebe 2964 5ebd
00000240: b6cb 0f3e ac0c e93d e1d7 683c 9228 e33a
00000250: 6d65 fcbd 43b5 18be c9a3 fa3d 56a6 07be
00000260: 7c49 453c bc03 a3bd 9f3c 2c3c 419b ebbd
00000270: 0d51 1e3e c045 ee3b 30a8 083e 84ac 083e
00000280: de4d 22be 736e 153d f8fb 11be 2c56 463c
00000290: 17b8 123e eb69 b03d 3f8a c03c be0f 263e
000002a0: bcbd 843d bb57 b73d f665 61bd e8cc af3b
000002b0: 4cf4 5b3c 04af 9e3d de88 0b3e 5c0c 16be
000002c0: cc6a 1b3e a055 053e 39ff 1cbe b4a7 c4bc
000002d0: ac26 d33c 1a71 b9bd 4f64 13be b869 c33d
000002e0: 634f 8d3d fb72 21be a44b 22be 160d 1e3e
000002f0: e6d9 a53d b97d 16be 60bb 9e3d a839 33bd
00000300: e0ad 283e fb0b 5f3c de84 693d 167a e9bd
00000310: 4fda 9e3b 4668 3dbd 47cb 003e 29f5 dcbc
00000320: 0470 e43d 4ec0 bdbd 6de5 d9bb 3984 bcbd
00000330: 02eb c63c 6c45 b93d 6ad3 95ba 9f75 00be
00000340: bcf9 a13d 90cd b2bd e083 543d cd25 13be
00000350: 7a4b 303e ad33 be3c d285 ba3c ea2e b2bd
00000360: dd23 9d3d e3a9 f6bd fb79 553c afba e53d
00000370: 812f 9f3d bb62 d43d d6cb 0d3e 6850 28be
00000380: 053c 423d a5a2 013e 19de 323e 440f 02be
00000390: b234 18be 570c bd3d 7518 ab3d d448 7ebd
000003a0: d804 85bd 0a47 e63d 1bab 1dbe 5a6b e23d
000003b0: 84dd 3fbd 781d 0e3e b840 a8bc 4c4f 29be
000003c0: fbea a13d cb4f 22be bc0b 16be 306b 1c3e
000003d0: 393f 1b3e e14e 1c3e 51d1 6e3c 1407 1ebe
000003e0: 56f3 10be f087 d23d b10f 16be 294e ecbd
000003f0: d50f 2b3e bb39 e7bd 0fac 3b3d 5f1d 06be

gcn_1.bias f4 [32]
-0.1434979 0.036937743 0.07634576 0.0075838566 0.1243058 0.16052993 -0.03156118 -0.007833436
-0.12233822 0.01656729 -0.17618836 -0.12678069 0.12466507 0.08546369 0.17482166 0.070338994
0.106956825 -0.15018082 -0.15467557 -0.17378819 -0.14133653 -0.07987694 0.1280482 0.14235966
-0.16462594 -0.005535245 0.06065777 -0.08511259 -0.06688606 -0.022799462 0.12347622 -0.15457778
00000000: 1df1 12be 084c 173d 2a5b 9c3d 0082 f83b
00000010: 0a94 fe3d f561 243e 4c46 01bd d057 00bc
00000020: 768c fabd 20b8 873c b96a 34be ccd2 01be
00000030: 6650 ff3d 9607 af3d 7304 333e e40d 903d
00000040: 2e0c db3d 00c9 19be 4663 1ebe 88f5 31be
00000050: 86ba 10be 8596 a3bd 111f 033e bbc6 113e
00000060: b493 28be 0061 b5bb 4874 783d 824f aebd
00000070: 8ffb 88bd f0c5 babc 1ae1 fc3d a349 1ebe

norm_1.weight f4 [32]
0.9984573 1.004876 0.98417586 1.0036596 1.006012 1.0145488 0.9916201 0.9981334
1.0047917 1.0040644 1.0036534 0.9984391 0.99431694 1.0103537 0.9953839 1.0036114
1.0007313 1.0051404 1.0038322 1.0013051 0.99093795 0.99345225 0.99222434 0.99334735
1.003082 1.0052209 0.9802272 0.99776036 0.99486816 1.0092297 0.9761616 0.98768514
00000000: e69a 7f3f c79f 803f f3f2 7b3f eb77 803f
00000010: 00c5 803f bcdc 813f d1da 7d3f ac85 7f3f
00000020: 049d 803f 2f85 803f b777 803f b499 7f3f
00000030: 8e8b 7e3f 4553 813f 7bd1 7e3f 5776 803f
00000040: f717 803f 71a8 803f 937d 803f c42a 803f
00000050: 1cae 7d3f e352 7e3f 6a02 7e3f 034c 7e3f
00000060: fe64 803f 14ab 803f 2bf0 7a3f 396d 7f3f
00000070: aeaf 7e3f 702e 813f bae5 793f efd8 7c3f

norm_1.bias f4 [32]
0.008655983 -0.0026058482 -0.006806958 0.0039839284 0.010031165 0.016552614 -0.0018517312 0.008877488
0.0076758224 0.015150628 0.0064627095 0.01728297 -0.0038106292 0.013669331 -0.0050627985 0.0013261365
0.020312821 -0.003698752 0.004226985 0.0052338913 -0.0036022794 -0.013817808 -0.0087537225 -0.006352742
-0.007873991 0.007541156 -0.007806468 -0.0027328343 0.0042141182 0.0038426875 -0.008469618 0.0043257577
00000000: d3d1 0d3c e1c6 2abb e70c dfbb 9d8b 823b
00000010: c159 243c 5999 873c cab5 f2ba e272 113c
00000020: 7785 fb3b 573a 783c 23c5 d33b 0495 8d3c
00000030: c0bb 79bb 54f5 5f3c d5e5 a5bb c2d1 ad3a
00000040: 1367 a63c c366 72bb 8582 8a3b 1081 ab3b
00000050: 3814 6cbb 1664 62bc c66b 0fbc aa2a d0bb
00000060: e901 01bc cd1b f73b 66cd ffbb 5a19 33bb
00000070: 9616 8a3b 99d5 7b3b 27c4 0abc 16bf 8d3b

gcn_2.weight f4 [64, 64]
-0.08162266 0.067622334 -0.10517777 0.11298551 0.016771324 0.014202514 0.04643991 0.01785336
0.029830256 -0.0122827655 0.040265035 0.113731496 -0.01198834 0.11261953 -0.034672223 0.09973521
0.09855956 -0.026880551 -0.12446388 -0.047283396 -0.006616159 0.006087271 -0.041799746 0.034119893
0.11478478 0.033616345 0.018094271 0.079424284 -0.053833388 -0.06982125 -0.009817196 -0.028151104
-0.121773705 -0.0721368 0.10485365 0.02031429 -0.009531874 -0.10539692 0.109281674 0.09716535
0.029753761 0.09403662 0.03819838 -0.039517257 -0.0998317 0.030567214 -0.08965881 -0.004392504
0.04528792 -0.017024007 0.037745498 -0.06396035 -0.050974883 0.06067647 -0.052783694 -0.09423694
-0.018748602 0.019786058 0.12124951 0.11418755 -0.10433264 0.056273457 0.08938524 -0.0009164447
-0.05649089 -0.08963261 0.12484034 -0.048944097 0.03668761 0.04745704 -0.10929695 0.045335863
-0.066865325 -0.024761887 -0.11161757 -0.07617035 0.12978032 0.053743158 -0.073005 0.031426884
-0.0384567 -0.022996953 -0.03689475 0.06506762 -0.053811103 0.09820622 0.059128523 0.06272243
-0.07228089 -0.029625928 0.118549064 -0.029648297 0.10153113 0.12569913 -0.014536423 0.009798469
-0.114614904 0.061872832 -0.0067861048 -0.032626152 -0.009063203 -0.09467203 0.058541138 0.09833411
0.08220113 -0.039450273 -0.06307612 0.062575765 0.0100716045 0.119036525 -0.14010952 -0.07294834
0.013061054 -0.057775818 -0.049389184 0.09840494 0.042687435 -0.04736481 -0.0069451313 0.10342586
0.0046122456 -0.111745246 0.07782542 0.10716664 -0.10648431 -0.054321557 0.037951358 0.0013220233
0.019934485 0.035989296 -0.09274149 -0.11349131 0.0033789547 -0.064868696 -0.007498763 0.0072704037
0.021033622 -0.035869088 -0.0051382785 0.065819815 0.0006311123 0.09459775 0.0672063 -0.024679169
-0.10139864 0.051375523 -0.039503302 -0.052778177 0.0730674 0.12388146 -0.0075703943 -0.049732193
-0.059077322 -0.07945182 -0.090620674 -0.033594016 -0.065157995 0.07984878 -0.013362753 0.10894354
-0.09239317 0.038774986 -0.025343347 -0.0067358227 0.012812252 -0.031964354 -0.019618759 0.04978957
-0.0061057247 0.07765663 -0.10848941 0.01796942 -0.008476099 0.01356516 0.027916314 -0.04328437
0.06903627 0.061372943 0.014279608 0.10175279 -0.12872842 -0.09203316 -0.110797554 0.04949835
-0.10141022 0.09790222 0.00029419584 0.02347312 0.042374406 0.12053721 0.08938476 -0.12703021
0.096053466 0.06157847 0.020000236 -0.02012116 -0.011939695 -0.035039254 -0.023902774 -0.018624244
0.060074802 -0.07641235 -0.018445274 0.0066876183 -0.06489483 0.006141964 0.11494115 -0.052667126
-0.11832641 0.021345207 -0.10181103 -0.08328238 0.075181074 -0.11362708 0.042307083 -0.0885524
-0.05818458 0.08232634 0.016124345 0.10657938 0.047382403 -0.05649785 -0.012035365 -0.0749578
0.08564095 -0.07798039 -0.1102705 0.12985857 -0.09598514 0.049154058 -0.00031288213 -0.11753777
-0.019936634 -0.021988891 0.005445816 -0.05605454 0.09017832 0.099752404 -0.0880578 0.10142467
-0.001723351 0.064539835 0.034642655 0.09740431 0.12692304 -0.04595494 -0.07897237 0.07738818
0.04809962 0.120634146 -0.051258307 0.080628455 0.098649904 -0.072289705 0.051128164 -0.015970323
00000000: c829 a7bd 947d 8a3d 7167 d7bd f264 e73d
00000010: 0464 893c a9b1 683c c637 3e3d 3641 923c
00000020: 955e f43c a73d 49bc f3ec 243d 0fec e83d
00000030: be6a 44bc 11a5 e63d 7604 0ebd f941 cc3d
00000040: 98d9 c93d 9a34 dcbc ebe6 febd 3cac 41bd
00000050: 5dcc d8bb bb77 c73b 3636 2bbd 4dc1 0b3d
00000060: 4814 eb3d 4bb1 093d 703a 943c 33a9 a23d
00000070: 6680 5cbd 72fe 8ebd 4ed8 20bc 259d e6bc
00000080: 7e64 f9bd 75bc 93bd 83bd d63d 276a a63c
00000090: 942b 1cbc 57da d7bd 12cf df3d a1fe c63d
000000a0: 29be f33c 4596 c03d e875 1c3d d9dc 21bd
000000b0: 9074 ccbd 1868 fa3c 0a9f b7bd ffee 8fbb
000000c0: d37f 393d ee75 8bbc 069b 1a3d a5fd 82bd
000000d0: 0acb 50bd e487 783d b733 58bd 4cff c0bd
000000e0: ab96 99bc 5f16 a23c aa51 f83d 2adb e93d
000000f0: 5aac d5bd ff7e 663d 9c0f b73d 903d 70ba
00000100: fe62 67bd 4d91 b7bd 4bac ff3d 9b79 48bd
00000110: bf45 163d 5062 423d 14d7 dfbd 19b2 393d
00000120: b0f0 88bd 71d9 cabc c197 e4bd 33ff 9bbd
00000130: 22e5 043e c921 5c3d a583 95bd 7ab9 003d
00000140: c684 1dbd 1b64 bcbc f31e 17bd 2c42 853d
00000150: 0869 5cbd 5820 c93d c030 723d 9e74 803d
00000160: 0108 94bd 13b2 f2bc dac9 f23d fce0 f2bc
00000170: 8eef cf3d 46b7 003e 2d2a 6ebc c289 203c
00000180: 38bb eabd 5e6e 7d3d f95d debb 00a3 05bd
00000190: d47d 14bc 69e3 c1bd d5c8 6f3d 6563 c93d
000001a0: 1159 a83d 9c96 21bd 0e2e 81bd b927 803d
000001b0: 5f03 253c 6cc9 f33d df78 0fbe f065 95bd
000001c0: 08fe 553c 56a6 6cbd 504c 4abd 8788 c93d
000001d0: 05d9 2e3d 9a01 42bd fc93 e3bb f0d0 d33d
000001e0: 5222 973b b1da e4bd ef62 9f3d 2f7a db3d
000001f0: 7214 dabd 4880 5ebd e272 1b3d be47 ad3a
00000200: a54d a33c 8369 133d 40ef bdbd 226e e8bd
00000210: 7471 5d3b e1d9 84bd 2fb8 f5bb 913c ee3b
00000220: b44e ac3c 77eb 12bd 015f a8bb 8acc 863d
00000230: 3b71 253a 77bc c13d 75a3 893d f82b cabc
00000240: 17aa cfbd 246f 523d 37ce 21bd ee2d 58bd
00000250: 5ca4 953d 90b5 fd3d 1211 f8bb fcb3 4bbd
00000260: 10fb 71bd a3b7 a2bd 5597 b9bd e199 09bd
00000270: 8e71 85bd c287 a33d 73ef 5abc ca1d df3d
00000280: a138 bdbd 85d2 1e3d da9c cfbc 2db8 dcbb
00000290: 7bea 513c 0eed 02bd 85b7 a0bc 26f0 4b3d
000002a0: 8812 c8bb 700a 9f3d b22f debd 9b34 933c
000002b0: 56df 0abc 6840 5e3c c1b0 e43c f44a 31bd
000002c0: e362 8d3d 3262 7b3d 04f5 693c c463 d03d
000002d0: 62d1 03be e27b bcbd d4e9 e2bd c8be 4a3d
000002e0: 29b0 cfbd f680 c83d 4c3e 9a39 b34a c03c
000002f0: c990 2d3d 36dc f63d 5b0f b73d 3514 02be
00000300: aeb7 c43d b539 7c3d 89d7 a33c 22d5 a4bc
00000310: b69e 43bc 5285 0fbd c0cf c3bc df91 98bc
00000320: ff10 763d 147e 9cbd 8b1a 97bc cf23 db3b
00000330: 95e7 84bd 8742 c93b 4466 eb3d 7cb9 57bd
00000340: 1e55 f2bd 25dc ae3c 4d82 d0bd f48f aabd
00000350: 89f8 993d 51b5 e8bd 314a 2d3d f65a b5bd
00000360: f452 6ebd b69a a83d 3417 843c 4a46 da3d
00000370: 0d14 423d 4a6a 67bd fb2f 45bc 7a83 99bd
00000380: 8664 af3d 2fb4 9fbd 80d5 e1bd a5f9 043e
00000390: db93 c4bd c455 493d 540a a4b9 a4b7 f0bd
000003a0: 2752 a3bc 0c22 b4bc d172 b23b 7299 65bd
000003b0: 69af b83d fd4a cc3d a657 b4bd bdb7 cf3d
000003c0: 10e2 e1ba 762d 843d 75e5 0d3d e97b c73d
000003d0: 1df8 013e 3f3b 3cbd 44bc a1bd b27d 9e3d
000003e0: 1b04 453d 090f f73d 3bf4 51bd 8820 a53d
000003f0: f608 ca3d a00c 94bd c46b 513d 32d4 82bc

gcn_2.bias f4 [64]
-0.09596987 0.064923555 0.06878199 -0.10532184 0.08017017 0.122407585 -0.0044538677 0.031179726
-0.018112257 0.12349738 -0.031841233 -0.038204983 0.019979537 0.061977193 -0.017470017 0.01442413
0.062316 0.00038835406 -0.051044434 0.043629497 -0.06567268 0.10892117 -0.0061362535 -0.043303505
-0.0009007007 0.035548046 0.07141927 0.05166678 -0.09649283 -0.12167312 -0.055077374 -0.06288098
0.08692482 0.076423064 0.054045618 -0.09696682 0.050347984 0.051862955 -0.02662608 0.055836678
0.09643011 -0.093576625 0.054607883 0.030004352 -0.048368394 0.103933096 0.05197577 -0.08938806
0.024420917 0.030912966 -0.06552407 -0.11351812 -0.031549215 -0.07820934 0.07882242 -0.11874698
-0.061304644 0.09375773 0.07552442 -0.06184846 -0.10208537 0.04633072 0.08517896 -0.076311916
00000000: da8b c4bd a4f6 843d 92dd 8c3d fab2 d7bd
00000010: 4230 a43d d4b0 fa3d c0f1 91bb a06c ff3c
00000020: 2860 94bc 32ec fc3d f46b 02bd d47c 1cbd
00000030: 20ac a33c ccdb 7d3d 481d 8fbc 3053 6c3c
00000040: 103f 7f3d 009c cb39 f813 51bd d8b4 323d
00000050: 667f 86bd 1012 df3d a012 c9bb 045f 31bd
00000060: 001d 6cba d49a 113d 4444 923d 8ca0 533d
00000070: 089e c5bd c22f f9bd d098 61bd bec7 80bd
00000080: a405 b23d b283 9c3d f05e 5d3d 8a96 c6bd
00000090: b039 4e3d 406e 543d f01e dabc 00b5 643d
000000a0: 267d c53d 1aa5 bfbd 84ac 5f3d b0cb f53c
000000b0: f01d 46bd e0da d43d 8ce4 543d 1611 b7bd
000000c0: 600e c83c 303d fd3c 7c31 86bd 307c e8bd
000000d0: c039 01bd 382c a0bd a66d a13d 9e31 f3bd
000000e0: 941a 7bbd 0e04 c03d 8cac 9a3d d054 7dbd
000000f0: 2212 d1bd 48c5 3d3d 4e72 ae3d 6c49 9cbd

norm_2.weight f4 [64]
1.0132785 0.99316597 0.9950664 0.99138284 1.0076826 1.0010175 0.98998 1.0002441
0.9840153 1.0047321 1.003746 1.0158207 0.9969083 0.98336214 0.9903272 0.99688447
0.99792653 0.98911047 1.0087677 0.98215467 1.0001495 1.0061743 1.0253305 0.9974956
1.0105991 1.0014446 0.9947067 1.0010499 1.0257691 0.9867225 0.9927127 1.0049229
1.0006874 1.0056198 0.99440336 1.0079498 1.0000138 0.9923864 0.99771655 0.998572
0.9832458 0.9956466 0.99229467 0.98656553 1.0106888 0.9784938 0.99809957 0.9976588
1.0124443 1.022921 1.0008451 0.9981386 0.9922261 1.0061712 1.0065098 1.0010164
1.0056585 0.98548144 0.99839324 1.0066395 0.99600315 0.9937901 1.014869 0.9979916
00000000: 1cb3 813f 2040 7e3f acbc 7e3f 44cb 7d3f
00000010: befb 803f 5721 803f 546f 7d3f 0008 803f
00000020: 6de8 7b3f 109b 803f c07a 803f 6a06 823f
00000030: 6235 7f3f 9fbd 7b3f 1586 7d3f d233 7f3f
00000040: 1d78 7f3f 5836 7d3f 4d1f 813f 7d6e 7b3f
00000050: e604 803f 52ca 803f 083e 833f df5b 7f3f
00000060: 505b 813f 562f 803f 19a5 7e3f 6722 803f
00000070: 674c 833f d999 7c3f 6b22 7e3f 50a1 803f
00000080: 8616 803f 26b8 803f 3891 7e3f 8004 813f
00000090: 7400 803f 090d 7e3f 5a6a 7f3f 6aa2 7f3f
000000a0: ffb5 7b3f b2e2 7e3f 0607 7e3f 8f8f 7c3f
000000b0: 405e 813f 927e 7a3f 7483 7f3f 9166 7f3f
000000c0: c697 813f 13ef 823f b11b 803f 0386 7f3f
000000d0: 8802 7e3f 38ca 803f 50d5 803f 4e21 803f
000000e0: 6bb9 803f 8348 7c3f b396 7f3f 90d9 803f
000000f0: 10fa 7e3f 0769 7e3f 3ae7 813f 617c 7f3f

norm_2.bias f4 [64]
-0.0008901933 -0.0023139669 -0.0021127937 0.00049494783 0.009508472 -0.0026224484 -0.0021622083 7.7014774e-05
-0.008147461 -0.0006480919 0.0049255067 0.02620782 0.0017515075 -0.01428028 -0.001466911 0.0048386347
0.0022889348 -5.608147e-05 0.0068833088 -0.008883585 -0.001753942 0.0104992855 0.010348931 -0.00026277977
0.009337702 0.0038749722 -0.002779893 0.0037345733 0.015934862 -0.0020777767 -0.0031083059 0.0028194601
0.006490757 0.00378871 -0.003726606 0.011100401 -0.00936741 0.0030769121 0.0020360292 -8.006951e-05
-0.0047452906 -0.0020180119 0.0023736723 -0.0065064677 0.0036693036 -0.011286408 -0.0018604421 0.0016542975
0.010912744 0.0048070922 0.0051006516 0.0056464174 -0.0032473158 0.01259054 0.005520046 0.007553022
0.0042844135 -0.0032623638 0.008304957 0.0119225895 0.0046869717 -0.0073678475 0.006473387 -0.0022785934
00000000: dc5b 69ba eca5 17bb cc76 0abb 63bf 013a
00000010: 6cc9 1b3c 62dd 2bbb d6b3 0dbb fe82 a138
00000020: ee7c 05bc b6e4 29ba 2566 a13b c8b1 d63c
00000030: d792 e53a d6f7 69bc 5e45 c0ba 698d 9e3b
00000040: f401 163b 0539 6bb8 618d e13b 758c 11bc
00000050: 87e4 e5ba 3205 2c3c 908e 293c b4c5 89b9
00000060: 29fd 183c 3ff3 7d3b de2e 36bb bebf 743b
00000070: d489 823c 4f2b 08bb b8b4 4bbb b1c6 383b
00000080: 6bb0 d43b 024c 783b 133a 74bb 75de 353c
00000090: c479 19bc 05a6 493b e76e 053b feea a7b8
000000a0: 627e 9bbb 9f40 04bb 9d8f 1b3b 3534 d5bb
000000b0: b378 703b a0ea 38bc 14da f3ba 03d5 d83a
000000c0: 5ecb 323c d084 9d3b 5e23 a73b 9505 b93b
000000d0: ebd0 54bb 8d48 4e3c 81e1 b43b 577f f73b
000000e0: 4464 8c3b 62cd 55bb 8411 083c f756 433c
000000f0: 2b95 993b fc6d f1bb b51e d43b 7454 15bb

gcn_3.weight f4 [128, 32]
0.17481202 0.12081617 0.10562086 0.019643504 0.0041925404 -0.003972652 0.11641436 -0.119030006
0.036638737 -0.09448795 0.0436785 0.017574677 -0.17839904 -0.00920238 -0.03455094 -0.14546648
0.11234025 0.15966073 -0.16491848 -0.17154329 0.07871003 -0.102562435 0.07133173 -0.12678139
-0.17268765 -0.004471796 -0.16670506 0.042347487 -0.06717348 0.12424673 0.056601662 0.013284674
-0.034264926 0.16102366 0.105133675 0.028529648 -0.087032594 0.0025810786 0.07810882 -0.014061683
-0.10593181 0.025890186 -0.004933654 -0.074323215 -0.13168067 -0.12503417 0.0027295807 -0.118115775
0.037564944 0.008060111 0.111905135 -0.020586336 0.12814891 0.114464276 0.060617216 0.13914931
0.05924103 0.102559 -0.095566295 0.093445145 -0.07136533 0.09371588 0.13822304 0.075760886
0.10549226 0.13219564 -0.033846896 0.19670434 0.1336499 -0.13168651 0.16296427 0.036279432
0.1047961 0.13575672 -0.08545552 -0.16396606 -0.06360482 -0.0046142843 0.1594829 -0.04956041
0.035448715 0.03791721 0.03855372 0.14155424 -0.047405064 -0.16439334 -0.118974715 -0.07666258
-0.08565312 -0.10797141 0.120390445 0.11389521 0.09787805 -0.13792337 0.08539522 0.15880325
0.039460186 0.09922631 0.027829548 -0.05860756 -0.10047142 0.15395652 -0.016623877 0.11722412
-0.15705115 0.16361071 -0.16609064 -0.10818164 0.07633336 -0.0632519 -0.06313406 0.088056065
0.1383335 -0.159915 0.11871245 -0.10801584 0.04236901 0.07792541 -0.03403778 -0.058137782
-0.12153858 0.06929359 -0.114388324 0.030795334 0.07161924 -0.118922405 0.012252365 -0.06166759
0.1666445 -0.14903285 0.15867373 -0.014321288 -0.031752758 0.15356995 0.102476 -0.144066
0.10816414 0.097115085 0.08170682 -0.1022588 -0.09151214 0.1008706 0.09277737 0.1236378
-0.16073824 -0.12753507 -0.17289133 0.09820144 -0.049858376 -0.12143683 0.118316874 -0.078210965
0.07743946 0.1460586 -0.18342185 -0.020109491 0.014242609 -0.13117222 0.026615411 -0.14586827
-0.07685426 0.14347197 -0.10263033 -0.072616406 0.15975222 -0.051556196 -0.14229324 -0.14626126
0.005880508 -0.144391 -0.008145056 -0.07583462 -0.11963556 -0.12679176 0.12981749 -0.17920807
0.09945827 -0.13663104 0.12494112 -0.027988736 -0.11562559 -0.031302672 -0.058966722 -0.015533669
0.063865945 -0.066365585 0.042676575 -0.030329144 0.09674117 0.13861229 -0.039662242 -0.09253357
-0.019312514 -0.14152518 0.007016546 0.0289909 -0.07294828 -0.050769255 -0.08951624 -0.019165777
0.082986616 0.1679088 -0.1442174 -0.04680396 -0.033431794 0.04584028 0.14502805 0.10394727
-0.03352689 0.15375091 0.08627054 0.13827562 -0.10144983 0.15854138 -0.057554293 -0.15937065
-0.15856232 -0.16164918 0.010102464 0.011601428 0.12501942 -0.120439194 -0.02292494 0.09481611
-0.077492595 -0.07731119 -0.030785391 0.08698903 0.043810606 -0.12827867 -0.026390646 -0.018012373
-0.11996122 -0.17784767 -0.02045927 -0.09048321 0.16260505 0.124374196 -0.06279381 0.039595403
-0.06823626 -0.07325672 -0.11975462 -0.14791784 0.086262785 0.029673098 -0.10077522 -0.1024723
-0.05317021 -0.08379109 -0.048723105 0.16229269 -0.13402598 0.018381903 0.020910818 -0.07559894
00000000: ec01 333e 786e f73d c04f d83d 6aeb a03c
00000010: 9461 893b 052d 82bb a76a ee3d 01c6 f3bd
00000020: 8012 163d e682 c1bd 3ae8 323d c5f8 8f3c
00000030: 3dae 36be 94c5 16bc 4985 0dbd 2af5 14be
00000040: a512 e63d 1a7e 233e 64e0 28be 0ba9 2fbe
00000050: b932 a13d 410c d2bd 5f16 923d fbd2 01be
00000060: 08d5 30be 2588 92bb bbb4 2abe 8f74 2d3d
00000070: 4092 89bd 1275 fe3d 25d7 673d f6a7 593c
00000080: 6159 0cbd 63e3 243e 5350 d73d 02b7 e93c
00000090: 253e b2bd 5027 293b 84f7 9f3d f962 66bc
000000a0: c7f2 d8bd a817 d43c 7daa a1bb c536 98bd
000000b0: 4cd7 06be f508 00be c4e2 323b afe6 f1bd
000000c0: b3dd 193d 8e0e 043c 852e e53d ada4 a8bc
000000d0: 7839 033e 3f6c ea3d c249 783d 287d 0e3e
000000e0: b9a6 723d 740a d23d 43b8 c3bd 2b60 bf3d
000000f0: fc27 92bd 1cee bf3d 578a 0d3e 8628 9b3d
00000100: 530c d83d 4b5e 073e 0ba3 0abd dd6c 493e
00000110: 85db 083e d4d8 06be 1be0 263e be99 143d
00000120: 569f d63d cf03 0b3e 4e03 afbd b8e6 27be
00000130: 3e43 82bd 6c33 97bb 7c4f 233e dbff 4abd
00000140: ac32 113d 144f 1b3d 81ea 1d3d 98f3 103e
00000150: d02b 42bd ba56 28be 04a9 f3bd 4501 9dbd
00000160: e76a afbd 1d20 ddbd 448f f63d e441 e93d
00000170: 4974 c83d c93b 0dbe b0e3 ae3d 529d 223e
00000180: 01a1 213d 2a37 cb3d cbfa e33c 7b0e 70bd
00000190: f6c3 cdbd c7a6 1d3e cc2e 88bc 3313 f03d
000001a0: 04d2 20be 9189 273e aa13 2abe 568e ddbd
000001b0: aa54 9c3d 368a 81bd 6e4c 81bd bd56 b43d
000001c0: 4ca7 0d3e c2c0 23be 831f f33d 6937 ddbd
000001d0: 218b 2d3d 5b97 9f3d 336b 0bbd e221 6ebd
000001e0: 38e9 f8bd cce9 8d3d 6d44 eabd 7f46 fc3c
000001f0: 1cad 923d 978d f3bd 25be 483c 2897 7cbd
00000200: dba4 2a3e 119c 18be 5e7b 223e d6a3 6abc
00000210: 2e0f 02bd 7141 1d3e f0de d13d 0a86 13be
00000220: 2985 dd3d 46e4 c63d e855 a73d 106d d1bd
00000230: b86a bbbd 3f95 ce3d 1002 be3d d135 fd3d
00000240: 9198 24be 8e98 02be 6d0a 31be d61d c93d
00000250: 4c38 4cbd dfb3 f8bd 1e50 f23d 122d a0bd
00000260: 9498 9e3d 6390 153e f0d2 3bbe a9bc a4bc
00000270: d559 693c 0352 06be 9008 da3c 7e5e 15be
00000280: c465 9dbd 51ea 123e da2f d2bd e9b7 94bd
00000290: 1696 233e 972c 53bd 52b5 11be 83c5 15be
000002a0: 47b1 c03b 3cdb 13be d772 05bc 2e4f 9bbd
000002b0: 7d03 f5bd b3d5 01be e0ee 043e 5282 37be
000002c0: c7b0 cb3d 02e9 0bbe 21e1 ff3d a248 e5bc
000002d0: 1ccd ecbd 3b37 00bd 1787 71bd ee80 7ebc
000002e0: 26cc 823d aeea 87bd a2cd 2e3d d374 f8bc
000002f0: 3c20 c63d 61f0 0d3e e074 22bd 3e82 bdbd
00000300: 4735 9ebc faeb 10be 0eeb e53b 537e ed3c
00000310: e865 95bd 6cf3 4fbd 4a54 b7bd 8c01 9dbc
00000320: e3f4 a93d 49f0 2b3e baad 13be 82b5 3fbd
00000330: c7ef 08bd 04c3 3b3d 3c82 143e 4ee2 d43d
00000340: 7e53 09bd e170 1d3e 9cae b03d 2098 0d3e
00000350: eec4 cfbd ac58 223e 0dbe 6bbd 0f32 23be
00000360: 295e 22be 5d87 25be ce84 253c ea13 3e3c
00000370: 1705 003e d3a8 f6bd 15cd bbbc f32e c23d
00000380: 70b4 9ebd 5455 9ebd a531 fcbc 4e27 b23d
00000390: c072 333d 7c5b 03be 3231 d8bc af8e 93bc
000003a0: 3aae f5bd b31d 36be 339a a7bc 434f b9bd
000003b0: f081 263e e6b7 fe3d 0b9a 80bd ca2e 223d
000003c0: 74bf 8bbd 9f07 96bd e941 f5bd c677 17be
000003d0: 8baa b03d ff14 f33c 3d63 cebd ffdc d1bd
000003e0: 02c9 59bd aa9a abbd e191 47bd 0e30 263e
000003f0: 1b3e 09be a595 963c 2a4d ab3c 9ed3 9abd

gcn_3.bias f4 [32]
-0.06416976 -0.020071596 0.0102838725 0.06779061 -0.09847021 -0.1065851 0.17321281 -0.13785279
0.019500285 -0.050005212 0.1704707 0.13546295 -0.11612055 0.08451475 0.11016904 0.021256566
0.07409118 -0.075529575 0.08783226 -0.07598031 0.08561973 0.12719862 0.09018825 -0.16021904
-0.07715575 0.030228078 -0.092942335 -0.040502325 0.07522531 -0.08818461 0.06527679 0.00062054396
00000000: 6f6b 83bd 306d a4bc b07d 283c ced5 8a3d
00000010: c0aa c9bd 4a49 dabd b35e 313e 4829 0dbe
00000020: 10bf 9f3c 44d2 4cbd df8f 2e3e cdb6 0a3e
00000030: 9cd0 edbd 1216 ad3d 4ea0 e13d 4022 ae3c
00000040: 1ebd 973d 40af 9abd 66e1 b33d 919b 9bbd
00000050: 6659 af3d 5b40 023e 9eb4 b83d 7610 24be
00000060: d503 9ebd e0a0 f73c 8d58 bebd c4e5 25bd
00000070: ba0f 9a3d 229a b4bd d6af 853d 00ac 223a

norm_3.weight f4 [32]
0.9865893 0.9840579 1.0108795 1.0138927 0.9978295 0.98763657 1.0105332 1.0191444
1.0100945 0.9948 0.98546773 1.0067704 1.0126482 1.0089414 0.98770255 0.9985337
1.004015 0.9873147 0.9869501 1.0077301 0.99532795 1.0154302 0.98496085 1.0170964
1.0020496 0.9893418 0.9993299 1.0103245 0.9847111 0.99715215 0.9950417 0.98825
00000000: 1e91 7c3f 38eb 7b3f 8064 813f 3cc7 813f
00000010: c171 7f3f c0d5 7c3f 2759 813f 5373 823f
00000020: c74a 813f 36ab 7e3f 9d47 7c3f dadd 803f
00000030: 759e 813f fe24 813f 13da 7c3f e89f 7f3f
00000040: 9083 803f a8c0 7c3f c3a8 7c3f 4dfd 803f
00000050: d0cd 7e3f 9ef9 813f 6526 7c3f 3730 823f
00000060: 2943 803f 8145 7d3f 16d4 7f3f 5052 813f
00000070: 0716 7c3f 5d45 7f3f 0ebb 7e3f f4fd 7c3f

norm_3.bias f4 [32]
-0.009944467 -0.005858013 0.0060733217 0.00563545 -0.0024129464 -0.0027535327 0.0025400007 0.012323368
-0.0009395787 -0.0038196845 -0.008253652 0.007968879 0.007962107 0.0029709998 -0.002801178 0.00043163114
0.0010250307 -0.008058287 -0.0071851765 -0.00071900955 -0.0026499608 -0.00022008867 -0.0065592336 0.006246798
0.00639812 0.0007814664 -0.008531249 -0.0031024537 -0.011061025 0.0035733043 -0.0040264395 -0.009336325
00000000: 1eee 22bc 93f4 bfbb b702 c73b 95a9 b83b
00000010: 8622 1ebb 9d74 34bb 2476 263b f4e7 493c
00000020: 0f4e 76ba ac53 7abb 533a 07bc e78f 023c
00000030: 7f73 023c 1bb5 423b f893 37bb 8d4c e239
00000040: 535a 863a e806 04bc a171 ebbb ea7b 3cba
00000050: f7aa 2dbb 9ac7 66b9 d7ee d6bb f1b1 cc3b
00000060: 52a7 d13b 53db 4c3a a7c6 0bbc 8952 4bbb
00000070: 4d39 35bc 192e 6a3b 39f0 83bb 63f7 18bc
