embeddings/models/9baf90f8cde23a1c810ed056217db588448ea225/global_graph_model.pt (torch_old, 208353 bytes, 16 tensors)

query_gen.0.linear.weight f4 [128, 38]
0	0xbd795688	-0.06087354
1	0xbe1b3f7c	-0.15160936
2	0x3dd0d3a1	0.10196615
3	0xbe058143	-0.1303759
4	0x3de375bc	0.111064404
5	0x3c0c18e0	0.008550853
6	0xbdc2e624	-0.09516552
7	0xbdde4e50	-0.10854781
8	0x3d4638c9	0.048394
9	0x3d0316c2	0.032004125
10	0xbd21905b	-0.03944431
11	0x3d37ffc4	0.04492165
12	0xbca98c2f	-0.020696728
13	0x3d4c5e5c	0.049894676
14	0xbdf088ee	-0.11744867
15	0xbdcdd91a	-0.100511745
16	0xbd52c6f0	-0.051459253
17	0xbdf80f31	-0.121122725
18	0xbe01034c	-0.12598914
19	0x3dc80dab	0.09768232
20	0x3d4216c3	0.04738499
21	0xbb5597d8	-0.0032591727
22	0x3d7b6389	0.06137422
23	0x3e0d5c54	0.13804752
24	0xbd1d9ab3	-0.03847761
25	0x3e2125b9	0.15737046
26	0x3e0e16ed	0.13875933
27	0x3d322772	0.04349465
28	0xbddc38a7	-0.10752993
29	0x3dd0841a	0.101814464
30	0xbcf25186	-0.029579889
31	0x3daaeb73	0.083456896
32	0xbd33cf43	-0.043898832
33	0x3dc46c2f	0.09590947
34	0xbe0d4bc1	-0.13798429
35	0xbcee386e	-0.029079642
36	0x3e033274	0.12812215
37	0xbd2fdde0	-0.042936206
38	0xbe02c50e	-0.12770483
39	0x3d968b28	0.07350761
40	0x3dad2614	0.084545285
41	0x3d1060f8	0.035248727
42	0x3c4fe313	0.012688416
43	0x3dead6ba	0.11466737
44	0xbda00374	-0.07813159
45	0x3cce5c9f	0.02519065
46	0x3c979759	0.018504785
47	0x3d9eb15b	0.077486716
48	0x3d984eb0	0.074368834
49	0x3c5889e6	0.013216471
50	0x3d30f3a7	0.043201115
51	0x3e0035a9	0.1252047
52	0xbdd3d78d	-0.103438474
53	0x3d776ba8	0.060405403
54	0xbdcb4673	-0.099255465
55	0xbe190ae4	-0.1494556
56	0xbddbdd3a	-0.10735555
57	0x3d9ca47a	0.07648559
58	0xbdde40bd	-0.108521916
59	0x3e0fcce5	0.14043005
60	0x3deb0dea	0.11477263
61	0x3defa692	0.11701693
62	0x3dabd696	0.083905384
63	0x3c74477a	0.014909619
64	0xbd5d5c94	-0.054043368
65	0xbe209ab9	-0.15684022
66	0xbe1df030	-0.15423656
67	0xbe060474	-0.13087636
68	0xbc86b2ff	-0.016442774
69	0x3d0c1fc3	0.034209978
70	0xbe137c15	-0.14402802
71	0xbd3d322e	-0.046190433
72	0xbe13f541	-0.14449026
73	0xbe016616	-0.12636599
74	0x3de915a9	0.113810845
75	0x3e02ee58	0.12786233
76	0xbe253c27	-0.16136228
77	0xbbe66ffc	-0.0070323925
78	0x3d46ce7e	0.04853677
79	0xbe0562a1	-0.13025905
80	0xbd683e96	-0.05670031
81	0xbdb4b9e9	-0.08824522
82	0x3df24c58	0.11830968
83	0x3dbf98df	0.0935533
84	0xbdaccfef	-0.08438098
85	0xbddfa13f	-0.10919427
86	0x3dee980d	0.11650095
87	0x3d9857a4	0.07438591
88	0x3dca377a	0.098738626
89	0xbdfe75e3	-0.12424829
90	0x3de9a932	0.114092246
91	0xbe188219	-0.14893378
92	0xbd92c60c	-0.07166681
93	0xbda93e8d	-0.08263884
94	0x3e15c302	0.14625171
95	0xbdd327db	-0.10310336
96	0x3e0985a4	0.13429886
97	0xbddb7bd7	-0.1071698
98	0x3dd42f8b	0.103606306
99	0x3cb56296	0.022141736
100	0xbd228c54	-0.03968461
101	0x3e232b22	0.15934423
102	0x3c24a91a	0.010050083
103	0xbdfe5aaf	-0.1241964
104	0x3db4a319	0.08820171
105	0x3bb33ecc	0.0054701325
106	0x3dcaffc2	0.09912063
107	0x3d38e74f	0.045142468
108	0x3d4495bf	0.04799437
109	0x3d315a2e	0.043298893
110	0x3d38f89e	0.045158975
111	0xbe20b707	-0.1569482
112	0xbd031a66	-0.032007597
113	0xbca1dcf6	-0.019758683
114	0x3e1e6730	0.1546905
115	0xbd417ef6	-0.04724022
116	0xbd5d1b09	-0.05398086
117	0xbe1a7c31	-0.15086438
118	0xbd062852	-0.032753296
119	0xbe0df5a3	-0.13863234
120	0xbdd63312	-0.1045896
121	0x3cacc167	0.021088315
122	0x3d1eeec8	0.03880194
123	0xbd3c631a	-0.045992948
124	0x3e02743a	0.1273965
125	0x3d84ee7c	0.064908
126	0xbd21fa91	-0.0395456
127	0xbd4ef2ff	-0.050524708
128	0x3d903a56	0.07042377
129	0xbd2879f3	-0.041131925
130	0xbdb583fc	-0.08863065
131	0xbe01b5d8	-0.12667024
132	0x3d0e9078	0.034805745
133	0x3e0dab00	0.13834763
134	0x3e10435c	0.14088196
135	0xbddd4d86	-0.10805802
136	0x3e1cd8f0	0.1531713
137	0x3e01df68	0.12682879
138	0x3cc78e9b	0.024359992
139	0xbc300c0b	-0.010745059
140	0x3d767d51	0.060178105
141	0x3e1f91ab	0.15582912
142	0x3cccf650	0.025019795
143	0xbd8b0f5c	-0.06790039
144	0x3db60402	0.08887483
145	0x3dc1ccbe	0.094628796
146	0x3daa5f34	0.0831894
147	0xbd15ea30	-0.03660029
148	0xbc3d9009	-0.011569985
149	0x3dc83ac9	0.097768374
150	0xbe08b701	-0.1335106
151	0x3dcb9be1	0.09941841
152	0x3e06c1e8	0.13159907
153	0xbddbadd2	-0.10726513
154	0xbde99df7	-0.114070825
155	0xb8d00bb0	-9.92039e-05
156	0xbe12bd87	-0.14330111
157	0xbe12bc96	-0.14329752
158	0x3e1f1072	0.15533617
159	0xbaf3f724	-0.0018613082
160	0xbdb47d86	-0.08813004
161	0xbd75dc02	-0.06002427
162	0x3d862fd0	0.06552088
163	0xbd5f55b0	-0.054525077
164	0x3e17ef56	0.14837393
165	0x3d9e94c6	0.0774322
166	0x3e11b20e	0.14228079
167	0x3d34eac8	0.044169217
168	0x3dadc121	0.08484102
169	0x3da4a1b6	0.080386564
170	0x3e219aa7	0.15781651
171	0xbd2d3bd8	-0.0422934
172	0x3d98cc0a	0.07460792
173	0xbdab1e75	-0.083554186
174	0xbd389ed0	-0.04507333
175	0x3dde7fce	0.108642206
176	0xbe1335d5	-0.14376004
177	0xbd5b20a3	-0.05349792
178	0x3a1af850	0.0005911635
179	0xbe0472eb	-0.12934463
180	0xbe2525d0	-0.16127706
181	0xbbf08b3c	-0.007340817
182	0x3e0af8d2	0.1357148
183	0x3db5ec48	0.08882958
184	0x3e07f525	0.13277109
185	0xbdb49595	-0.08817593
186	0x3e1783b0	0.14796329
187	0x3d9d2b12	0.07674231
188	0xbdbaa1b3	-0.09112873
189	0x3d350fcc	0.04420452
190	0x3d0064fc	0.031346306
191	0xbe0e2ec3	-0.13885026
192	0xbc191665	-0.009343718
193	0x3dcc1fbe	0.09966992
194	0xbe14e00b	-0.1453859
195	0xbdb9097b	-0.090350114
196	0xbdcc8b7b	-0.09987541
197	0x3d957647	0.0729795
198	0x3d1b79bd	0.037957896
199	0xbd888fe6	-0.066680714
200	0xbd2a8565	-0.04163112
201	0xbbfb7343	-0.0076736524
202	0xbdc44b87	-0.09584718
203	0x3db5dbb8	0.08879799
204	0xbe160b19	-0.14652671
205	0x3db90ed5	0.09036032
206	0xbddb1683	-0.10697653
207	0xbd678c3d	-0.056530226
208	0xbe1d0f8d	-0.15337963
209	0x3d51e6ee	0.051245622
210	0x3daf99a3	0.08574226
211	0xbd6b4dad	-0.057447124
212	0x3d9f6f8a	0.07784946
213	0xbdff5bf4	-0.124687105
214	0xbb9ece6a	-0.004846384
215	0xbe1dc882	-0.15408519
216	0xbd7abd3e	-0.06121563
217	0xbc99e54b	-0.018786093
218	0x3dc8dafb	0.09807392
219	0xbe07e4df	-0.13270901
220	0x3e17667f	0.14785193
221	0x3cafc311	0.02145532
222	0x3d364b0c	0.044505164
223	0xbd3788a4	-0.044808045
224	0xbde1bb29	-0.11022026
225	0x3e072fd3	0.13201837
226	0xbd86b85c	-0.065781325
227	0xbd28ce38	-0.04121229
228	0x3e194353	0.14967088
229	0x3e00bc4c	0.1257183
230	0xbda9aa62	-0.08284451
231	0xbdaf65f0	-0.08564365
232	0x3d23b35d	0.039965976
233	0xbe211576	-0.15730843
234	0xbd9a919f	-0.07547306
235	0xbe205481	-0.15657236
236	0xbe15dc17	-0.14634739
237	0x3da2fea8	0.07958728
238	0xbe117903	-0.14206319
239	0x3cf1ef1e	0.029532965
240	0x3df0f0d3	0.117646836
241	0x3caa7823	0.020809239
242	0x3afb8bd2	0.001919145
243	0x3db23bc2	0.08702804
244	0x3ca011fc	0.019539826
245	0xbd461ff7	-0.048370328
246	0x3e22340e	0.1584017
247	0xbcb6b9c1	-0.022305371
248	0xbe0f62eb	-0.14002578
249	0x3df472c1	0.1193595
250	0x3ceb2c61	0.028707685
251	0xbcd84def	-0.02640435
252	0x3e019cda	0.1265749
253	0x3ca541a6	0.020172905
254	0xbd104e56	-0.035230957
255	0xbe123416	-0.14277682

query_gen.0.linear.bias f4 [128]
0	0x3d98e4f6	0.07465546
1	0x3c17fa2e	0.009275956
2	0x3dca595e	0.09880327
3	0x3ce03351	0.02736822
4	0x3cc5979e	0.024120148
5	0x3e2432db	0.16035025
6	0xbdb25365	-0.087073125
7	0x3e261109	0.16217436
8	0xbdc751d9	-0.09732408
9	0x3d68c230	0.056825817
10	0xbdcdeed9	-0.10055322
11	0x3e120baa	0.14262262
12	0x3dcb1c2d	0.099174835
13	0xbd830d17	-0.06398981
14	0xbe212a88	-0.1573888
15	0x3e163869	0.14669956
16	0xbd865c70	-0.065606
17	0xbe150ef7	-0.1455649
18	0xbde9e4a8	-0.11420566
19	0xbda04764	-0.07826117
20	0x3e02d85d	0.12777849
21	0xbe10ee19	-0.14153327
22	0xbdcbed76	-0.099574015
23	0xbe22fed1	-0.15917517
24	0xbd4ffcd9	-0.050778244
25	0x3d77a801	0.060462955
26	0x3e02e721	0.12783481
27	0x3e0ac728	0.13552535
28	0x3d8d1532	0.06888808
29	0xbdba6866	-0.09101944
30	0x3dbd345d	0.09238503
31	0xbc1ff22c	-0.009762328
32	0x3de687c2	0.112563625
33	0xbd65151d	-0.05592834
34	0x3dacab2e	0.084310874
35	0x3da04069	0.07824785
36	0xbbe642fd	-0.0070270286
37	0xbd7b8425	-0.06140532
38	0x3d1b5598	0.037923425
39	0xbe079b7a	-0.13242903
40	0xbd8a4bbc	-0.067527264
41	0x3de20bca	0.11037405
42	0xbd6034e4	-0.05473794
43	0xbcceec32	-0.025259111
44	0xbe1f5ef7	-0.1556357
45	0xbd9953e8	-0.07486707
46	0x3e1194af	0.14216875
47	0x3dfc6267	0.12323456
48	0x3e04c48a	0.12965599
49	0x3e1d6a62	0.15372613
50	0x3d422212	0.047395773
51	0x3e02d0fd	0.12775035
52	0x3d49ca8d	0.049265433
53	0xbe13924e	-0.1441128
54	0x3da2bb24	0.079458505
55	0x3ddf7ef2	0.10912885
56	0x3d77e479	0.060520623
57	0xbe033e8d	-0.1281683
58	0x3dc6f1e8	0.09714109
59	0x3dc7f1a3	0.097628854
60	0x3dd74752	0.1051165
61	0xbb926a58	-0.0044682436
62	0x3cfdb3fc	0.030969612
63	0xbe24c613	-0.16091184
64	0xbdcb44d5	-0.09925238
65	0xbd4c8cf6	-0.04993912
66	0x3d905a6d	0.07048497
67	0x3da0db1d	0.078542925
68	0xbd8c6c69	-0.06856615
69	0x3d983b75	0.074332155
70	0x3e201a96	0.15635142
71	0xbcbcce6c	-0.023047648
72	0xbdb701eb	-0.08935913
73	0x3e18a3a8	0.1490618
74	0xbda5f9bb	-0.08104273
75	0x3e16ddfb	0.14733116
76	0xbdb6d928	-0.08928138
77	0xbe2015c9	-0.1563331
78	0xbde114cb	-0.10990294
79	0xbdae2221	-0.08502603
80	0xbcbbfc9e	-0.022947606
81	0xbde7b7a3	-0.11314323
82	0x3d141c82	0.03616
83	0x3d1c41e0	0.03814876
84	0x3d796e76	0.06089636
85	0xbdd25f93	-0.102721356
86	0x3db25122	0.08706881
87	0x3d2cf451	0.042225186
88	0x3d0a67b8	0.03379032
89	0xbe12e33e	-0.14344499
90	0xbcee680c	-0.029102348
91	0xbc700fea	-0.014652232
92	0xbe169afe	-0.14707562
93	0x3e0684d3	0.13136606
94	0xbe0614f5	-0.13093932
95	0xbdc3630f	-0.09540378
96	0x3d9da2a8	0.0769704
97	0xba45d5be	-0.00075468037
98	0x3bbc2358	0.005741518
99	0xbcf587e2	-0.02997202
100	0x3c4e7b00	0.012602568
101	0xbd1c7b16	-0.03820332
102	0xbd974a8c	-0.073872656
103	0x3d39764a	0.045278825
104	0xbe17998e	-0.1480467
105	0xbc087ee8	-0.008331038
106	0x3dcd91bd	0.10037563
107	0x3e0baed4	0.1364091
108	0x3dd19177	0.10232823
109	0x3b9541d2	0.0045549655
110	0x3d9b05eb	0.07569488
111	0x3e17cdfa	0.14824668
112	0xbcd4772d	-0.025935734
113	0xbcdb772e	-0.026790228
114	0x3dc1aaf4	0.09456435
115	0x3c9c2281	0.019059421
116	0xbddb9b6e	-0.10723005
117	0xbe1c03df	-0.15235852
118	0x3d0c8a27	0.03431144
119	0x3d9d87e1	0.076919325
120	0x3db96e88	0.09054285
121	0xbe13d368	-0.14436114
122	0x3da65a3c	0.081226796
123	0xbd86933b	-0.06571051
124	0x3d40aca6	0.04703965
125	0xbc643907	-0.013929612
126	0x3cc2b784	0.023769148
127	0x3d01ed8b	0.03172068

query_gen.0.norm.weight f4 [128]
0	0x3f801dc2	1.0009081
1	0x3f800000	1.0
2	0x3f800210	1.000063
3	0x3f80007b	1.0000147
4	0x3f800001	1.0000001
5	0x3f7fffce	0.999997
6	0x3f800fe8	1.0004854
7	0x3f7fffe4	0.99999833
8	0x3f800000	1.0
9	0x3f7ffed6	0.99998224
10	0x3f800493	1.0001396
11	0x3f801f19	1.000949
12	0x3f7fffa5	0.9999946
13	0x3f800065	1.000012
14	0x3f800000	1.0
15	0x3f7fc3d7	0.999082
16	0x3f7fff26	0.999987
17	0x3f7fffff	0.99999994
18	0x3f800000	1.0
19	0x3f7fdb41	0.9994393
20	0x3f800052	1.0000098
21	0x3f7fff54	0.99998975
22	0x3f801f05	1.0009466
23	0x3f800000	1.0
24	0x3f800000	1.0
25	0x3f801619	1.0006744
26	0x3f80025b	1.0000719
27	0x3f800000	1.0
28	0x3f7fda79	0.9994274
29	0x3f7ffa8e	0.9999169
30	0x3f7feb31	0.9996825
31	0x3f800bd6	1.0003612
32	0x3f800000	1.0
33	0x3f80071c	1.000217
34	0x3f802254	1.0010476
35	0x3f800000	1.0
36	0x3f7ff1d4	0.99978375
37	0x3f800232	1.000067
38	0x3f7fb2c3	0.99882144
39	0x3f801ac0	1.0008163
40	0x3f800000	1.0
41	0x3f802065	1.0009886
42	0x3f7fd914	0.9994061
43	0x3f801562	1.0006526
44	0x3f800000	1.0
45	0x3f7fbd30	0.9989805
46	0x3f800000	1.0
47	0x3f8019c8	1.0007868
48	0x3f80084f	1.0002536
49	0x3f7ffa30	0.9999113
50	0x3f800000	1.0
51	0x3f800000	1.0
52	0x3f800613	1.0001854
53	0x3f7ff20d	0.99978715
54	0x3f7fb7e4	0.9988997
55	0x3f80044c	1.0001311
56	0x3f7fb3fa	0.99884
57	0x3f800000	1.0
58	0x3f801a4c	1.0008025
59	0x3f800000	1.0
60	0x3f7fcc05	0.99920684
61	0x3f8015ae	1.0006616
62	0x3f800000	1.0
63	0x3f7fc6f3	0.9991295
64	0x3f7fc09c	0.99903274
65	0x3f800000	1.0
66	0x3f800000	1.0
67	0x3f800000	1.0
68	0x3f800000	1.0
69	0x3f8014ec	1.0006385
70	0x3f7fdba2	0.9994451
71	0x3f80059c	1.0001712
72	0x3f800000	1.0
73	0x3f80100c	1.0004897
74	0x3f80004b	1.000009
75	0x3f7fbc3e	0.9989661
76	0x3f7ff516	0.99983346
77	0x3f800000	1.0
78	0x3f7fd0bd	0.99927884
79	0x3f800215	1.0000635
80	0x3f800000	1.0
81	0x3f80038e	1.0001085
82	0x3f800000	1.0
83	0x3f7feb90	0.99968815
84	0x3f800a86	1.0003211
85	0x3f7ffded	0.99996835
86	0x3f7fd5ef	0.9993581
87	0x3f7fecff	0.99971
88	0x3f800000	1.0
89	0x3f800000	1.0
90	0x3f800000	1.0
91	0x3f7ffe9a	0.99997866
92	0x3f7ffebe	0.9999808
93	0x3f800371	1.000105
94	0x3f8000b1	1.0000211
95	0x3f800000	1.0
96	0x3f800000	1.0
97	0x3f8007af	1.0002345
98	0x3f800529	1.0001575
99	0x3f800000	1.0
100	0x3f80112b	1.0005239
101	0x3f7fb979	0.99892384
102	0x3f800000	1.0
103	0x3f800000	1.0
104	0x3f800000	1.0
105	0x3f7fece9	0.9997087
106	0x3f801f77	1.0009602
107	0x3f801333	1.0005859
108	0x3f8000dd	1.0000263
109	0x3f800000	1.0
110	0x3f800000	1.0
111	0x3f800000	1.0
112	0x3f801369	1.0005924
113	0x3f7ff6be	0.99985874
114	0x3f7febae	0.99968994
115	0x3f800000	1.0
116	0x3f800000	1.0
117	0x3f800000	1.0
118	0x3f801495	1.0006281
119	0x3f7fc7f4	0.9991448
120	0x3f7ffbc7	0.99993557
121	0x3f7fda09	0.9994207
122	0x3f800000	1.0
123	0x3f800000	1.0
124	0x3f7feff0	0.9997549
125	0x3f800000	1.0
126	0x3f800000	1.0
127	0x3f7fff8a	0.99999297

query_gen.0.norm.bias f4 [128]
0	0x3a6e09a3	0.00090804155
1	0x00000000	0.0
2	0x38999cf2	7.324842e-05
3	0x382a6ae9	4.0630726e-05
4	0x360a4a05	2.0606687e-06
5	0xb6217684	-2.4059855e-06
6	0x3a124f69	0.0005581291
7	0x37edba06	2.8339226e-05
8	0x00000000	0.0
9	0xb7f730e4	-2.9467461e-05
10	0x39e1c615	0.00043062927
11	0x3a8253c5	0.0009943178
12	0x3801dbd8	3.0960742e-05
13	0xb8b93d8c	-8.8329514e-05
14	0x00000000	0.0
15	0xba72795c	-0.00092496513
16	0xb7aad893	-2.036643e-05
17	0x38192986	3.6516714e-05
18	0x00000000	0.0
19	0xba1058b7	-0.00055063836
20	0x37c55983	2.3525912e-05
21	0xb93c21ae	-0.00017941624
22	0x3a7643db	0.00093942665
23	0x00000000	0.0
24	0x00000000	0.0
25	0x3a328665	0.00068101875
26	0x398be52a	0.00026682887
27	0x00000000	0.0
28	0xba1310f8	-0.00056101335
29	0xb8b2f645	-8.533573e-05
30	0xb9a7e1fb	-0.0003202109
31	0x39db275b	0.00041800257
32	0x00000000	0.0
33	0x395ccb40	0.00021056551
34	0x3a8846dc	0.0010397094
35	0x00000000	0.0
36	0xb96fb8fc	-0.00022861728
37	0x38887edc	6.508615e-05
38	0xbaadb6a6	-0.0013253286
39	0x3a5a173c	0.0008319502
40	0x00000000	0.0
41	0x3a812dcd	0.0009855569
42	0xba1c0d1c	-0.0005952881
43	0x3a2ad86d	0.00065172353
44	0x00000000	0.0
45	0xba84416c	-0.0010090298
46	0x00000000	0.0
47	0x3a4d33fc	0.00078278757
48	0x3989ae95	0.0002626075
49	0xb92cc7e2	-0.0001647766
50	0x00000000	0.0
51	0x00000000	0.0
52	0x3958b017	0.00020664964
53	0xba710b0c	-0.00091950665
54	0xba8e05ff	-0.0010835527
55	0x391a26ac	0.00014700991
56	0xba991ba5	-0.0011681212
57	0x00000000	0.0
58	0x3a522e22	0.00080177386
59	0x00000000	0.0
60	0xba555c98	-0.0008139103
61	0x3a2bb0dd	0.0006549487
62	0x00000000	0.0
63	0xba98991c	-0.001164231
64	0xba77b871	-0.0009449786
65	0x00000000	0.0
66	0x00000000	0.0
67	0x00000000	0.0
68	0x00000000	0.0
69	0x3a285645	0.00064215466
70	0xba1185a4	-0.0005551225
71	0x39385501	0.00017579274
72	0x00000000	0.0
73	0x3a0166d1	0.00049362803
74	0x3692517d	4.3606256e-06
75	0xba917308	-0.0011096904
76	0xb9444378	-0.0001871715
77	0x00000000	0.0
78	0xba3ae5a4	-0.0007129556
79	0xb807e394	-3.2398457e-05
80	0x00000000	0.0
81	0x39819b5d	0.00024720552
82	0x00000000	0.0
83	0xb9a316ea	-0.00031106855
84	0x39a3d18e	0.00031245913
85	0xb8143638	-3.5336445e-05
86	0xba223af3	-0.00061885937
87	0xb96ccb34	-0.00022582413
88	0x00000000	0.0
89	0x00000000	0.0
90	0x00000000	0.0
91	0xb84e7146	-4.921972e-05
92	0xb8b6cba0	-8.7163644e-05
93	0x38f07884	0.000114665396
94	0xb901c6fd	-0.00012376528
95	0x00000000	0.0
96	0x00000000	0.0
97	0x397ff210	0.0002440887
98	0x3921b43e	0.00015421302
99	0x00000000	0.0
100	0x3a08b22f	0.00052145397
101	0xba8d7bea	-0.0010794376
102	0x00000000	0.0
103	0x00000000	0.0
104	0xb61231f9	-2.1784783e-06
105	0xb996049b	-0.0002861366
106	0x3a803cab	0.0009783705
107	0x3a1a72ac	0.0005891721
108	0x38954ed0	7.1195536e-05
109	0x00000000	0.0
110	0x00000000	0.0
111	0x00000000	0.0
112	0x3a1a503a	0.00058865885
113	0xb9123412	-0.00013943043
114	0xb9a54c23	-0.0003152798
115	0x00000000	0.0
116	0x00000000	0.0
117	0x00000000	0.0
118	0x3a22f536	0.0006216349
119	0xba65527e	-0.0008747949
120	0xb964a2ad	-0.00021804376
121	0xba167839	-0.00057399605
122	0x00000000	0.0
123	0x00000000	0.0
124	0xb9b8861a	-0.00035195128
125	0x00000000	0.0
126	0x00000000	0.0
127	0xb7b0627a	-2.1026692e-05

query_gen.1.linear.weight f4 [128, 128]
0	0x3d5f2963	0.05448283
1	0x3caafd90	0.020872861
2	0x3c8cbb24	0.01717908
3	0xbd09f05a	-0.033676483
4	0x3ae36fd8	0.0017352058
5	0xbc37442a	-0.011185685
6	0x3cab9b47	0.020948065
7	0xbcb94a03	-0.0226183
8	0x3d835a75	0.06413738
9	0x3cd51afc	0.026013844
10	0xbc929fb9	-0.017898427
11	0x3d5f5bd4	0.054530933
12	0xbce46493	-0.027879989
13	0x3d891aff	0.06694602
14	0x3b99a490	0.004688807
15	0x3d71067d	0.05884408
16	0x3cc00075	0.023437718
17	0x3ce45bfc	0.027875893
18	0x3cd21158	0.025643036
19	0xbd0e4032	-0.03472919
20	0x3b99c354	0.0046924744
21	0x3d9b6a74	0.07588664
22	0x3c049006	0.0080909785
23	0x3db4b49f	0.08823513
24	0x3d152978	0.0364165
25	0xbda5dc56	-0.08098666
26	0xbd9137ba	-0.07090707
27	0xbd3794b7	-0.04481956
28	0xbd850977	-0.06495946
29	0x3d8cbe52	0.06872238
30	0x3d56cd19	0.05244169
31	0xbbf8cb05	-0.007592561
32	0x3d35e27e	0.044405453
33	0x3cdc46df	0.026889263
34	0xbccaf72e	-0.024776068
35	0x3c8ef3bc	0.017450206
36	0xbbf21408	-0.007387642
37	0xbd11434b	-0.035464566
38	0xbd814ca7	-0.063134484
39	0x39de98c2	0.00042456953
40	0xbdb477aa	-0.088118866
41	0xbce3d6f0	-0.027812451
42	0xbd28e9a6	-0.04123845
43	0x3cf9aa2f	0.030476658
44	0xbd70e421	-0.05881131
45	0x3d8a647d	0.06757448
46	0xbd63c472	-0.055607267
47	0xbd72591b	-0.05916701
48	0xbd80894d	-0.06276188
49	0x3ce35aea	0.027753312
50	0xbd7dba11	-0.061945025
51	0x3d39c76e	0.045356207
52	0xb9101d2b	-0.00013743776
53	0x3d2628a5	0.040566105
54	0x3d7fbd45	0.06243636
55	0xbd1e2244	-0.038606897
56	0x3bad1b29	0.0052827788
57	0x3d965fd9	0.073425
58	0xbdb31d21	-0.0874579
59	0x3d7e41c2	0.06207443
60	0xbd80092e	-0.06251751
61	0x3d0fffe7	0.035156157
62	0xbd8a7973	-0.06761446
63	0x3c5e353f	0.0135625
64	0xbb992e6a	-0.0046747224
65	0x3cc23fb0	0.02371201
66	0xbd7c0b84	-0.06153442
67	0x3d8f6dd9	0.07003374
68	0xbd62cf55	-0.05537351
69	0x3d76adff	0.06022453
70	0xbd32995d	-0.04360329
71	0x3cfa763d	0.030573959
72	0x3c4a4960	0.0123465955
73	0xbc37e753	-0.011224586
74	0x3c575b25	0.013144289
75	0xbb9a2813	-0.0047044843
76	0xbd9121e8	-0.07086545
77	0xbdaf964d	-0.085735895
78	0x3d88fbe1	0.06688667
79	0x3db3341c	0.087501734
80	0xbca921bc	-0.020645969
81	0xbdaeb14d	-0.08529911
82	0xbd27a639	-0.040930007
83	0x3d16953b	0.03676341
84	0x3d95cb0e	0.0731412
85	0xbd84d281	-0.06485463
86	0x3c8f10b3	0.017464017
87	0x3d8f5212	0.069980755
88	0x3cb590c8	0.022163764
89	0xbbd4c5e0	-0.006493315
90	0xbd932c28	-0.071861565
91	0x3d37b771	0.044852678
92	0xbd52e2aa	-0.051485695
93	0xbc4cf813	-0.012510317
94	0xbd571fbc	-0.0525205
95	0x3c347368	0.011013843
96	0x3cb11e00	0.02162075
97	0xbd43e767	-0.047828104
98	0xbd572210	-0.05252272
99	0xbc152170	-0.00910221
100	0xbc7c5120	-0.015400201
101	0x3d860b6e	0.06545149
102	0xbd6dc65c	-0.0580505
103	0xbcf75ef0	-0.030196637
104	0xbda98723	-0.082777284
105	0x3c5e7940	0.013578713
106	0xbcb46288	-0.02201964
107	0x3d8800e7	0.06640797
108	0xb9ceb0e6	-0.0003942318
109	0xbda41892	-0.08012499
110	0xbd6eaa61	-0.058267955
111	0xbc72fb20	-0.014830381
112	0xbd619fc6	-0.055084012
113	0x3d71e7d5	0.059058983
114	0x3cc836df	0.024440227
115	0xbaa4b340	-0.0012565628
116	0xbd09a7d1	-0.033607308
117	0x3d384e86	0.04499676
118	0x3d484490	0.04889351
119	0xbd946936	-0.0724663
120	0x3d927a1d	0.071521975
121	0x3d72bbef	0.05926126
122	0x3daaaa21	0.08333231
123	0x3d921c29	0.071342774
124	0x3da93daf	0.08263718
125	0xbd6c740d	-0.057727862
126	0xbd2cf934	-0.042229846
127	0xbb88481f	-0.004158988
128	0x3c945fb0	0.018112034
129	0xbd0e2181	-0.03469992
130	0x3da9092c	0.082537025
131	0x3b8030dd	0.003912075
132	0x3dac6f7a	0.084197
133	0x3c7a754f	0.015286758
134	0x3d8992a3	0.06717422
135	0xbd872798	-0.06599349
136	0xbc5ff2f0	-0.013668761
137	0xbc5c3b18	-0.013441823
138	0x3d88e8fe	0.06685065
139	0x3da98d9a	0.082789615
140	0x3d3b01ae	0.0456559
141	0x3d56838a	0.05237154
142	0x3d2f7192	0.04283292
143	0xbccf758a	-0.025324602
144	0xbd7a6141	-0.061127905
145	0xbd049e93	-0.03237779
146	0xbda35127	-0.07974463
147	0x3d414c6b	0.04719202
148	0xbcafa04e	-0.021438744
149	0xbd7b90db	-0.06141744
150	0xbdafea17	-0.08589571
151	0x3d8d2e95	0.068936504
152	0xbdb05f30	-0.086119056
153	0x3c07d862	0.008291336
154	0xbcfd3ecb	-0.030913731
155	0xbd5d168f	-0.05397659
156	0xbd259ff0	-0.04043573
157	0x3c4aafc6	0.012371009
158	0x3d4d45aa	0.050115265
159	0x3d8bbe80	0.06823444
160	0x3c03e268	0.008049585
161	0xbd00b120	-0.03141892
162	0xbd4dd631	-0.050253097
163	0xbbd425a0	-0.006474212
164	0x3cbe5378	0.02323316
165	0x3cf2a387	0.029618992
166	0xbd915a3f	-0.07097291
167	0x3cd3887f	0.025821922
168	0xbd9acb0c	-0.07558259
169	0x3d1d00d2	0.03833086
170	0x3cad8911	0.021183522
171	0x3d1dd396	0.038531862
172	0xbd595dde	-0.053068034
173	0x3d865c2e	0.06560551
174	0x3d8f91eb	0.070102535
175	0x3da4d50c	0.08048448
176	0xbd6725ef	-0.05643266
177	0xbd920d6c	-0.07131466
178	0xbd09f820	-0.033683896
179	0x3c6ae0f8	0.014335863
180	0x3d929394	0.071570545
181	0x3c3fd10f	0.011707558
182	0xbc91132f	-0.017709343
183	0x3d1de970	0.0385527
184	0x3c1ce430	0.0095758885
185	0xbce7c2d0	-0.028291136
186	0x3be6a5f5	0.0070388266
187	0x3c451948	0.012029953
188	0xbb99f87a	-0.00469881
189	0xbcc8eb93	-0.024526393
190	0xbd91d0e2	-0.07119919
191	0xbd5b7a04	-0.05358316
192	0x3cea3489	0.028589504
193	0x3d0df360	0.03465593
194	0x3cb7b89c	0.022426896
195	0x3caecabc	0.021336906
196	0x3d427682	0.0474763
197	0x3cbbe2fa	0.02293538
198	0x3c434d82	0.011920335
199	0x3d513437	0.051075187
200	0xbd86c0da	-0.06579752
201	0x3d156044	0.03646876
202	0xbb8566d9	-0.0040710983
203	0xbd4fb1ff	-0.05070686
204	0xbc201315	-0.0097701745
205	0xbd609f48	-0.054839402
206	0x3ca7ac7a	0.020467985
207	0x3d3b0a29	0.045663986
208	0x3d8d451d	0.06897948
209	0xbd5683bd	-0.05237173
210	0x3be07380	0.006849706
211	0xbd8c9a31	-0.06865347
212	0xbd969a96	-0.07353704
213	0x3b91e9b0	0.0044529065
214	0x3b4cc708	0.0031246562
215	0x3d728bc8	0.059215337
216	0xbcc075c4	-0.023493655
217	0x3d9eaa0b	0.07747277
218	0xbd9ed731	-0.07755888
219	0x3c533eae	0.012893362
220	0x3cf5d25a	0.03000753
221	0xbb5dde36	-0.0033854372
222	0x3b89426e	0.0041888272
223	0xbda6f67a	-0.081524804
224	0xbd5e4aba	-0.054270484
225	0xbd3c1a67	-0.045923617
226	0x3daccf9c	0.08438036
227	0x3d34141e	0.043964498
228	0xbcf94ffa	-0.030433644
229	0x3dae64f8	0.08515352
230	0xbd91e71f	-0.07124161
231	0x3d87a7f9	0.06623835
232	0xbd275c04	-0.040859237
233	0x3d1356a1	0.035971288
234	0x3d8afa60	0.067860365
235	0xbd37f71f	-0.044913407
236	0x3d853d52	0.065058365
237	0x3cd4e568	0.025988296
238	0xbace0600	-0.0015718341
239	0xbd2720b9	-0.04080269
240	0x3da3f9fe	0.080066666
241	0x3bd7a42c	0.00658085
242	0x3c1e9c20	0.009680778
243	0xbd8c0f49	-0.06838853
244	0xbd9ffb0d	-0.07811556
245	0xbc7453b8	-0.014912538
246	0x3d96de6f	0.073666446
247	0xbda5c8f4	-0.080949694
248	0xbc6d8630	-0.014497325
249	0x3d12121d	0.035661805
250	0xbc81b648	-0.015833989
251	0x3d867223	0.065647386
252	0xbd590f87	-0.052993324
253	0x3d12ae28	0.03581062
254	0x3cd4b830	0.025966734
255	0x3d5baad4	0.05362971

query_gen.1.linear.bias f4 [128]
0	0xbd07e5b8	-0.03317806
1	0x3d927a0f	0.07152187
2	0xbd4174f4	-0.047230676
3	0x3be41c3a	0.0069613727
4	0x3da134f1	0.07871426
5	0xbd3a0072	-0.04541058
6	0x3d54e3df	0.051975127
7	0xbcf80324	-0.030274935
8	0x3d058b35	0.03260346
9	0x3d7276fe	0.05919551
10	0xbd1b7fd8	-0.03796372
11	0x3da2699f	0.07930302
12	0x3d4887ad	0.048957516
13	0xbd473067	-0.048630144
14	0x3d41b279	0.047289345
15	0xbd3d6132	-0.04623527
16	0xbc767cef	-0.015044435
17	0xbd5c8de4	-0.053846255
18	0xbd8fbae1	-0.07018066
19	0x3d0d67fc	0.034522995
20	0xbd8d778e	-0.06907569
21	0x3d99474e	0.074843034
22	0x3d85b57a	0.065287545
23	0x3da2cab3	0.07948818
24	0xbc6cbc49	-0.014449188
25	0xbd228531	-0.039677802
26	0x3d25314d	0.04033022
27	0x3b323615	0.002719288
28	0xbd8fef90	-0.07028115
29	0x3d392387	0.045199897
30	0x3ce130e6	0.027489137
31	0xbce19611	-0.027537378
32	0x3d94d837	0.07267802
33	0x3d044932	0.032296367
34	0xbdb16a60	-0.086628675
35	0x3d310da8	0.043225914
36	0x3d00ad72	0.03141541
37	0xbd2d2882	-0.04227496
38	0xbd647ec3	-0.055784952
39	0x3d7cb3fb	0.06169508
40	0x3dadc55d	0.0848491
41	0xbcafc795	-0.021457473
42	0xbbc52dc9	-0.006017421
43	0x3cfb0424	0.030641623
44	0xbbf5055a	-0.0074774446
45	0x3d7734bf	0.060353037
46	0xbca988ec	-0.020695172
47	0xbd470533	-0.048588943
48	0x3ba68137	0.0050813216
49	0x3da56844	0.08076528
50	0xbc8804a0	-0.016603768
51	0x3d23e3df	0.040012237
52	0xbcfb3357	-0.03066413
53	0x3d9355ff	0.07194137
54	0xbdb08cde	-0.08620618
55	0xbc6b4b16	-0.014361164
56	0xbcc2e040	-0.023788571
57	0xbcbdcf2e	-0.02317008
58	0xbc9ad8ba	-0.018902171
59	0xbd66f07a	-0.05638168
60	0xbd6a74d9	-0.05724034
61	0x3c4e4b3c	0.012591179
62	0xbd1dc5ed	-0.038518835
63	0x3c539b7d	0.012915489
64	0xbc4dd4ea	-0.01256297
65	0xbd6430ac	-0.05571048
66	0x3d994afa	0.07485004
67	0x3cce1c02	0.02515984
68	0x3d538998	0.05164489
69	0xbd35abe4	-0.04435338
70	0x3daf095f	0.08546709
71	0xbd3d51f8	-0.04622075
72	0x3d440e08	0.047864944
73	0xbd6b0326	-0.05737605
74	0xbcbdc64c	-0.023165844
75	0x3d854a87	0.065083556
76	0x3d49e1bb	0.04928754
77	0xbc912a99	-0.017720507
78	0xbdabd354	-0.08389917
79	0x3ccc931e	0.024972495
80	0xbd191ebe	-0.037382834
81	0xbcb6d392	-0.022317681
82	0x3cfa39b6	0.030545097
83	0x3a9b8a6b	0.0011866813
84	0x3d868106	0.06567578
85	0xbd6bb1be	-0.057542555
86	0xbbd66883	-0.0065432205
87	0x3d1f1aa2	0.03884376
88	0xbc927221	-0.017876687
89	0xbd682e87	-0.056684997
90	0xbcaed54f	-0.021341948
91	0xbd94f510	-0.072733045
92	0x3d73ae6a	0.059492506
93	0xbd2b1fde	-0.041778438
94	0x3d7006f2	0.058600374
95	0xbbd9427b	-0.0066302395
96	0x3d076614	0.033056334
97	0xbb9a65da	-0.0047118487
98	0x3da7cf79	0.08193869
99	0xbd89b122	-0.067232385
100	0x3d86d828	0.06584197
101	0x3c99a54b	0.018755576
102	0x39c799ee	0.00038070924
103	0xbce2856b	-0.02765151
104	0x3da8ddfc	0.08245465
105	0x3c587ab3	0.0132128475
106	0xbda279ca	-0.07933386
107	0x3db07c26	0.086174294
108	0xbccf9ab9	-0.025342332
109	0x3d13f36c	0.036120817
110	0xbd7cae9d	-0.06168996
111	0x3c0a8f6d	0.008457047
112	0xbd95d8d5	-0.07316748
113	0xbd9f67d7	-0.07783478
114	0xbd8d518e	-0.06900321
115	0x3d43a907	0.04776862
116	0x3c9264ab	0.017870268
117	0xbd4f7371	-0.050647203
118	0xbd2a024d	-0.0415061
119	0xbcf0c5a9	-0.029391127
120	0x3d393914	0.04522045
121	0xbd856164	-0.065127164
122	0xbd9325d0	-0.071849465
123	0xbc7bdb5b	-0.015372123
124	0x3d98e0e5	0.0746477
125	0x3d692bfa	0.056926705
126	0xbd5dd0d2	-0.054154225
127	0x3d83a930	0.06428754

query_gen.1.norm.weight f4 [128]
0	0x3f80067b	1.0001978
1	0x3f800389	1.0001079
2	0x3f800000	1.0
3	0x3f800000	1.0
4	0x3f802579	1.0011436
5	0x3f800000	1.0
6	0x3f7ff021	0.9997578
7	0x3f800000	1.0
8	0x3f7fffdd	0.9999979
9	0x3f7fe35b	0.9995629
10	0x3f8026c5	1.0011832
11	0x3f7ff60d	0.9998482
12	0x3f8004b3	1.0001434
13	0x3f7ff1a1	0.9997807
14	0x3f7feaff	0.9996795
15	0x3f7ffe5d	0.999975
16	0x3f800000	1.0
17	0x3f800164	1.0000424
18	0x3f7fe600	0.9996033
19	0x3f7ff15b	0.99977654
20	0x3f800000	1.0
21	0x3f800000	1.0
22	0x3f800000	1.0
23	0x3f80119e	1.0005376
24	0x3f800f43	1.0004658
25	0x3f800020	1.0000038
26	0x3f800b3b	1.0003427
27	0x3f7ff82d	0.9998806
28	0x3f7fb32f	0.9988279
29	0x3f7ffcb8	0.99994993
30	0x3f8010b2	1.0005095
31	0x3f8027d2	1.0012152
32	0x3f80002e	1.0000055
33	0x3f7fbe00	0.9989929
34	0x3f800000	1.0
35	0x3f800000	1.0
36	0x3f802d1f	1.001377
37	0x3f800000	1.0
38	0x3f7fbeaa	0.99900305
39	0x3f800000	1.0
40	0x3f7fc63b	0.9991185
41	0x3f800000	1.0
42	0x3f800000	1.0
43	0x3f800209	1.0000621
44	0x3f800000	1.0
45	0x3f7ffd56	0.99995935
46	0x3f800ba0	1.0003548
47	0x3f800000	1.0
48	0x3f7fb8c3	0.998913
49	0x3f800000	1.0
50	0x3f80001a	1.0000031
51	0x3f7fb5c8	0.9988675
52	0x3f801570	1.0006542
53	0x3f7ff462	0.99982274
54	0x3f7ffffe	0.9999999
55	0x3f80010e	1.0000322
56	0x3f8007e5	1.0002409
57	0x3f7ffd18	0.99995565
58	0x3f7fd1c9	0.9992948
59	0x3f801608	1.0006723
60	0x3f800000	1.0
61	0x3f800412	1.0001242
62	0x3f800cfe	1.0003965
63	0x3f800000	1.0
64	0x3f7fecf4	0.99970937
65	0x3f800000	1.0
66	0x3f7fedd1	0.99972254
67	0x3f800000	1.0
68	0x3f7ff5f1	0.9998465
69	0x3f7fefc6	0.9997524
70	0x3f7fdffe	0.9995116
71	0x3f800000	1.0
72	0x3f7ffde8	0.99996805
73	0x3f800bc1	1.0003587
74	0x3f800000	1.0
75	0x3f800b42	1.0003436
76	0x3f7ff0bc	0.99976707
77	0x3f800000	1.0
78	0x3f7ff6b5	0.9998582
79	0x3f7ffd48	0.9999585
80	0x3f800000	1.0
81	0x3f800000	1.0
82	0x3f801744	1.00071
83	0x3f7fe3c7	0.99956936
84	0x3f7fe264	0.9995482
85	0x3f8010da	1.0005143
86	0x3f801745	1.0007101
87	0x3f7fe3e9	0.9995714
88	0x3f8006a8	1.0002031
89	0x3f800392	1.000109
90	0x3f800000	1.0
91	0x3f7fff80	0.9999924
92	0x3f7fff69	0.999991
93	0x3f800000	1.0
94	0x3f800000	1.0
95	0x3f800000	1.0
96	0x3f800549	1.0001613
97	0x3f800f98	1.0004759
98	0x3f7ff522	0.9998342
99	0x3f800000	1.0
100	0x3f800000	1.0
101	0x3f800001	1.0000001
102	0x3f800000	1.0
103	0x3f800000	1.0
104	0x3f802c3a	1.0013497
105	0x3f7fc411	0.9990855
106	0x3f7ffff9	0.9999996
107	0x3f800000	1.0
108	0x3f7fdfd2	0.999509
109	0x3f802a26	1.0012863
110	0x3f7fa9db	0.99868554
111	0x3f80038e	1.0001085
112	0x3f8022a5	1.0010573
113	0x3f800000	1.0
114	0x3f800000	1.0
115	0x3f800000	1.0
116	0x3f800000	1.0
117	0x3f800000	1.0
118	0x3f800051	1.0000097
119	0x3f800000	1.0
120	0x3f7fff5c	0.9999902
121	0x3f800000	1.0
122	0x3f7fe4bf	0.99958414
123	0x3f80000f	1.0000018
124	0x3f800000	1.0
125	0x3f7fa468	0.9986024
126	0x3f7ff950	0.99989796
127	0x3f800000	1.0

query_gen.1.norm.bias f4 [128]
0	0x398832f5	0.00025977907
1	0x3903182f	0.00012502143
2	0x00000000	0.0
3	0x00000000	0.0
4	0x3a93a0ed	0.001126317
5	0x00000000	0.0
6	0xb9795b63	-0.00023780535
7	0x00000000	0.0
8	0x3922e44d	0.00015534573
9	0xb9da4bdc	-0.0004163672
10	0x3a993c45	0.0011690935
11	0xb8ff7322	-0.00012180793
12	0x3913118c	0.00014025549
13	0xb8acfb01	-8.248352e-05
14	0xba234cc8	-0.0006229398
15	0xb899613c	-7.31372e-05
16	0x00000000	0.0
17	0xb9ac04b7	-0.0003280991
18	0xb9e459ff	-0.000435546
19	0xba1b4c68	-0.0005924166
20	0x00000000	0.0
21	0x00000000	0.0
22	0x00000000	0.0
23	0x3a45b3ce	0.00075417466
24	0x3a0ba31f	0.0005326736
25	0x3932128f	0.00016982316
26	0x39b8e559	0.00035266092
27	0xb92076c5	-0.00015303034
28	0xbabd0caf	-0.0014423336
29	0xb8ca9466	-9.659752e-05
30	0x3a0bbf8e	0.0005330973
31	0x3a9ff24a	0.0012202945
32	0xb7a965a7	-2.0193705e-05
33	0xba88caab	-0.0010436376
34	0x00000000	0.0
35	0x00000000	0.0
36	0x3ab249d0	0.001360232
37	0x00000000	0.0
38	0xba831d45	-0.001000323
39	0x00000000	0.0
40	0xba64704e	-0.00087142445
41	0x00000000	0.0
42	0x00000000	0.0
43	0x38bea8ac	9.0913236e-05
44	0x00000000	0.0
45	0x3840c5a4	4.5960434e-05
46	0x39fc12a7	0.00048079083
47	0x00000000	0.0
48	0xba92b9d5	-0.0011194298
49	0x00000000	0.0
50	0xb7affb49	-2.097864e-05
51	0xba9b3341	-0.0011840836
52	0x3a224051	0.00061893935
53	0x393a4ba4	0.0001776652
54	0x37a90e02	2.0152893e-05
55	0x38571054	5.12752e-05
56	0x39853e24	0.00025414035
57	0xb742194f	-1.1569194e-05
58	0xba3075e6	-0.00067314354
59	0x3a2f9150	0.00066973735
60	0x00000000	0.0
61	0xb954a76d	-0.00020280266
62	0x3aa83f2f	0.0012836213
63	0x00000000	0.0
64	0xb9935178	-0.00028098724
65	0x00000000	0.0
66	0xba0eb5b2	-0.0005443945
67	0x00000000	0.0
68	0x39befd95	0.00036428557
69	0xb9d0c920	-0.000398227
70	0xb9f310e1	-0.00046361148
71	0x00000000	0.0
72	0xb8284a64	-4.0123603e-05
73	0x39ba4e5d	0.0003553507
74	0x00000000	0.0
75	0x39b421c4	0.00034357433
76	0xb99810f0	-0.0002900432
77	0x00000000	0.0
78	0xb8efd790	-0.0001143656
79	0xb8a74de2	-7.977687e-05
80	0x00000000	0.0
81	0x00000000	0.0
82	0x3a37f835	0.0007017882
83	0xb9cf7f8a	-0.0003957714
84	0xba840c75	-0.0010074513
85	0x3a03a1ff	0.0005021393
86	0x3a3948c2	0.00070680317
87	0xb9e387b5	-0.00043397924
88	0x3979ea86	0.00023833857
89	0x38fcf60f	0.000120621284
90	0x00000000	0.0
91	0xb89f9d7d	-7.611045e-05
92	0xb82d88ee	-4.137394e-05
93	0x00000000	0.0
94	0x00000000	0.0
95	0x00000000	0.0
96	0x3a013d89	0.0004930129
97	0x3a11665a	0.00055465626
98	0xb9298cf4	-0.00016169605
99	0x00000000	0.0
100	0x3635aa81	2.7070348e-06
101	0xb7a35a92	-1.947329e-05
102	0x00000000	0.0
103	0x00000000	0.0
104	0x3ac12d38	0.0014738208
105	0xba6a5ce0	-0.0008940231
106	0xb881b384	-6.184637e-05
107	0x00000000	0.0
108	0xba05302d	-0.0005080726
109	0x3aa579e9	0.0012624833
110	0xbaaa462a	-0.0012990881
111	0x39045e2a	0.0001262358
112	0x3a8b8e0d	0.0010647193
113	0x00000000	0.0
114	0xb9534a05	-0.00020150103
115	0x00000000	0.0
116	0x00000000	0.0
117	0x00000000	0.0
118	0x38a640a5	7.927538e-05
119	0x00000000	0.0
120	0x3856f081	5.1245563e-05
121	0x00000000	0.0
122	0xb9ebe021	-0.00044989682
123	0x391fa62d	0.00015225327
124	0x00000000	0.0
125	0xbab4aabc	-0.0013783793
126	0xba281f08	-0.00064133154
127	0x00000000	0.0

query_gen.3.weight f4 [128, 128]
0	0x3d4fbbcc	0.050716206
1	0xbca82429	-0.020525055
2	0x3d7bf2fe	0.061511032
3	0xbc87a198	-0.016556546
4	0x3c2d4c1d	0.010577229
5	0xbd65792f	-0.056023773
6	0x3d7f297c	0.062295422
7	0xbc4a9328	-0.012364186
8	0xbbf7ebdc	-0.0075659584
9	0xbcac8ecb	-0.021064183
10	0x3d7b4617	0.06134614
11	0x3d687091	0.056747977
12	0xbd1b2e6b	-0.037886064
13	0xbd46ef51	-0.048568074
14	0x3c340bc7	0.010989136
15	0xbd5c3c4f	-0.053768452
16	0x3d8bbdfb	0.06823345
17	0xbcfd7740	-0.030940652
18	0x3c8ace16	0.016943973
19	0x3c63032d	0.013855738
20	0xbd7a95d8	-0.06117806
21	0x3d762b3a	0.060099818
22	0xbb692660	-0.0035575852
23	0x3d11f528	0.03563419
24	0x3cdc1644	0.026866086
25	0xbd9c25af	-0.07624375
26	0xbcab9a75	-0.020947674
27	0x3d991427	0.07474547
28	0x3d4ca328	0.049960285
29	0xbc51c4be	-0.012803255
30	0xbcfadd80	-0.030623198
31	0xbd18264d	-0.0371459
32	0x382ad662	4.0730818e-05
33	0xbd807dd3	-0.06273999
34	0x3d89c2b7	0.06726592
35	0xbd227a21	-0.039667252
36	0xbd99cc0f	-0.07509624
37	0xbd751a7a	-0.059839703
38	0xbc01f7e7	-0.00793264
39	0x3d907f53	0.07055535
40	0x3cfe657a	0.031054247
41	0xbd5acb6e	-0.053416662
42	0x3d549c7a	0.05190704
43	0x3da8edbd	0.0824847
44	0x3c631ea8	0.0138622895
45	0xbbca7f55	-0.00617973
46	0xbd2da602	-0.042394646
47	0x3d9a59f9	0.07536692
48	0xbb397b1b	-0.0028302136
49	0x3d95fff1	0.073242076
50	0xbc9d355f	-0.019190488
51	0xbb8ac1f3	-0.0042345463
52	0xbd2d5390	-0.04231602
53	0xbd872b47	-0.066000514
54	0xbd271239	-0.040788863
55	0x3d4fd271	0.050737802
56	0x3d9fa95e	0.07795976
57	0x3d08ee3b	0.03343032
58	0xbd7b4b5b	-0.06135116
59	0x3d62909a	0.055313684
60	0xbb742500	-0.00372535
61	0x3d3f39b7	0.0466859
62	0x3d023182	0.031785496
63	0x3d815973	0.06315889
64	0x3ce28b2c	0.027654253
65	0x3dafc6ef	0.085828654
66	0x3bacf9db	0.0052788085
67	0x3d8eb649	0.06968362
68	0xbd0ddbe4	-0.034633532
69	0xbd69b57b	-0.05705784
70	0xbd583c03	-0.052791607
71	0xbc030528	-0.007996835
72	0x3db0e8fd	0.08638189
73	0x3c56e1e3	0.013115379
74	0x3cb07c70	0.021543711
75	0x3d365a94	0.044519976
76	0xbd76e2c0	-0.06027484
77	0x3d12cbe6	0.035838984
78	0xbc56a1a9	-0.013100066
79	0x3d890134	0.066896826
80	0x3a49ff80	0.0007705614
81	0x3cc3bd40	0.023893952
82	0xbd957743	-0.07298138
83	0xbcef7dae	-0.029234733
84	0x3cf6d92a	0.030132849
85	0x3dab1885	0.08354286
86	0xbc3422ec	-0.010994654
87	0x3c05ffd4	0.00817867
88	0x3d7eda06	0.062219642
89	0xbda0cd06	-0.07851605
90	0x3d2900da	0.041260578
91	0xbd58a176	-0.052888356
92	0x3d9097de	0.07060216
93	0x3b046a00	0.0020204782
94	0x3db2a347	0.08722549
95	0x3d8bb98f	0.06822502
96	0x3cb7fc72	0.022459242
97	0x3c11070e	0.00885178
98	0x3d960a71	0.0732621
99	0xbd90b8d9	-0.07066507
100	0x3cc2e491	0.02379063
101	0xbcd95fac	-0.026534878
102	0x3c3fd698	0.011708878
103	0xbc699810	-0.014257446
104	0xbc111693	-0.00885548
105	0xbc999ce2	-0.018751565
106	0xbcfde1e6	-0.030991506
107	0xbdafbd74	-0.08581057
108	0xbbcdcf01	-0.0062807803
109	0x3d1a61d4	0.037690952
110	0xbdade46b	-0.08490833
111	0x3cfb3768	0.030666068
112	0xbd694ae2	-0.05695618
113	0x3d481992	0.04885251
114	0x3cc3db59	0.023908304
115	0xbd2da52f	-0.04239386
116	0x3da9081d	0.082535006
117	0x3db0aa11	0.086261876
118	0x3c405e33	0.011741209
119	0x3bafd1a0	0.0053655654
120	0x3d773d8a	0.060361423
121	0xbda658cc	-0.081224054
122	0xbd6e6ed8	-0.058211178
123	0x3d510bd4	0.05103667
124	0xbb16cd00	-0.0023010373
125	0xbd419c0e	-0.047267966
126	0x3d1adc9e	0.037808053
127	0xbd16e4ec	-0.03683941
128	0xbd9f2664	-0.07770994
129	0xbbfbd0f0	-0.0076848194
130	0x3d88bbcb	0.06676444
131	0x3d33bd96	0.043881975
132	0x3d40e8a6	0.04709687
133	0x3da0c66f	0.07850348
134	0x3d693f23	0.056944977
135	0xbda9afd4	-0.0828549
136	0x3c872341	0.016496303
137	0xbd5c84ad	-0.053837467
138	0xbbcdb818	-0.006278049
139	0x3ce9088c	0.028446458
140	0x3d04f883	0.03246356
141	0x3daece29	0.08535416
142	0xbc7b102b	-0.015323679
143	0xbd854a09	-0.06508262
144	0x3d4e5276	0.05037161
145	0x3daf446b	0.085579716
146	0xbc9d2573	-0.019182896
147	0xbc0e1305	-0.008671527
148	0x3cf17e80	0.029479265
149	0x3d89da99	0.06731147
150	0x3d3094e6	0.04311075
151	0xbdb30ba9	-0.087424584
152	0x3d48601d	0.048919786
153	0x3d97b8fe	0.07408331
154	0xbd8b070f	-0.06788456
155	0x3cdde2df	0.02708572
156	0xbd810356	-0.062994644
157	0x3d83803d	0.06420944
158	0x3c4dd15d	0.012562123
159	0xbd9afa13	-0.07567229
160	0xbcf042f1	-0.029328795
161	0xbcd6b825	-0.026210854
162	0x3b843450	0.0040345564
163	0xbd9d9578	-0.076945245
164	0xbd180ef5	-0.03712364
165	0x3d931fed	0.07183824
166	0xbceca548	-0.028887406
167	0x3cee3c78	0.029081568
168	0xbd93a8bf	-0.0720992
169	0x3cb55070	0.022133082
170	0x3d17e5da	0.037084438
171	0x3c6c8d57	0.014437995
172	0xbd24c524	-0.04022707
173	0xbd29964e	-0.041403107
174	0xbd0b75d1	-0.034047905
175	0xbd4a3d16	-0.049374662
176	0xbcfc1c26	-0.030775141
177	0x3d8cfa6b	0.06883701
178	0x3bf288b4	0.00740155
179	0x3c9f7405	0.019464502
180	0x3bb03592	0.00537748
181	0x3d4794a2	0.04872573
182	0x3b6ea813	0.0036416098
183	0x3da949de	0.08266042
184	0x3d86869a	0.06568642
185	0x3dad5464	0.08463362
186	0x3d343896	0.043999277
187	0xbdb4d306	-0.08829312
188	0xbca43bb4	-0.020048
189	0xbcb7a704	-0.022418506
190	0xbdb42059	-0.08795232
191	0xbd351b39	-0.044215415
192	0x3d39b878	0.04534194
193	0xbda3aaa1	-0.07991529
194	0xbbe30cad	-0.0069290013
195	0x3d1c5196	0.038163744
196	0x3d315606	0.04329493
197	0xbd8f7853	-0.07005372
198	0xbd8583ae	-0.065192565
199	0x3ca0f6e0	0.01964897
200	0xbd96f315	-0.07370583
201	0xbd715c8e	-0.058926158
202	0xbda03025	-0.07821683
203	0x3c406b06	0.011744266
204	0x3cc75b04	0.024335392
205	0x3cd2499c	0.025669865
206	0x3cfe55bd	0.031046743
207	0xbd83019d	-0.06396792
208	0x3d42c276	0.047548734
209	0xbbda2340	-0.006657034
210	0x3c9d4096	0.019195836
211	0x3da1d742	0.07902385
212	0xbcddfdf4	-0.027098633
213	0x3d47fe20	0.048826337
214	0xbd132044	-0.035919443
215	0x3d7b8bca	0.06141261
216	0xbce5b874	-0.028042056
217	0x3d3b73c2	0.045764692
218	0xbd15702d	-0.036483932
219	0xbd00dcd5	-0.0314606
220	0x3c3272da	0.010891641
221	0xbd7fe0a0	-0.06247008
222	0x3d4b8412	0.0496865
223	0x3daa6ecf	0.08321916
224	0x3d66d7a1	0.056357983
225	0x3d26565d	0.040609706
226	0x3d37c0f4	0.04486175
227	0xbd98df6d	-0.0746449
228	0x3cac8c87	0.021063102
229	0x3d350977	0.04419848
230	0xbd2996ad	-0.04140346
231	0xbd57c260	-0.052675605
232	0xbdb25f36	-0.08709566
233	0xb9facc11	-0.00047835757
234	0x3d8d6c31	0.069054015
235	0xbd329bec	-0.04360573
236	0xba00243b	-0.0004888211
237	0x3d2af1c6	0.04173448
238	0xbd887e1d	-0.06664679
239	0xbd8f2911	-0.06990255
240	0xbd3d8013	-0.04626472
241	0xbd8dd11c	-0.0692465
242	0xbce7ff00	-0.028319836
243	0xbd43128e	-0.047625117
244	0xbd95e929	-0.073198624
245	0xbb306f20	-0.0026921704
246	0x3d150d3a	0.036389567
247	0x3ccc6068	0.024948314
248	0xbd8ea8d9	-0.06965799
249	0x3d9c5ce3	0.07634904
250	0x3da33e1a	0.07970829
251	0xbd96c2ca	-0.07361372
252	0x3da44fbb	0.0802302
253	0xbd90dbd5	-0.0707318
254	0x3d9ed7a6	0.077559754
255	0x3da0f10b	0.07858475

query_gen.3.bias f4 [128]
0	0x3ca3c734	0.019992448
1	0xbd882a0f	-0.06648647
2	0xbd965303	-0.07340052
3	0xbd87fa3a	-0.06639524
4	0x3da22e75	0.07919017
5	0xbd9ab9cd	-0.0755497
6	0xb9bd1177	-0.00036061901
7	0x3d1679da	0.0367373
8	0xbd56a3ec	-0.05240242
9	0xbd9a5b5a	-0.07536955
10	0x3d973778	0.07383627
11	0xbd8165bd	-0.06318233
12	0xbd14a292	-0.03628785
13	0x3d87d6f0	0.06632793
14	0x3c3eaee8	0.011638381
15	0xbd84f49a	-0.064919665
16	0x3d4c0ba0	0.049815774
17	0x3d8eb43a	0.06967969
18	0xbd2c9b41	-0.04214025
19	0x3cc016a0	0.023448288
20	0xbda924fe	-0.08259009
21	0xbd732196	-0.059358202
22	0x3c9a505c	0.018837146
23	0xbb925acb	-0.00446639
24	0x3d7f4ba2	0.06232799
25	0xbbe339a3	-0.006934361
26	0x3d997e4f	0.074947946
27	0x3da52b4c	0.08064899
28	0x3d02b0d4	0.031906918
29	0x3da2ae9a	0.07943459
30	0xbc9e96a2	-0.019358937
31	0xbc5683c1	-0.013092936
32	0xbd101ce6	-0.03518381
33	0x3da50b51	0.08058799
34	0x3cc2b460	0.02376765
35	0xbc9c55e1	-0.019083919
36	0x3d8f351c	0.06992552
37	0x3d6cad48	0.05778244
38	0xbd577111	-0.052598063
39	0x3bda0bf2	0.006654256
40	0x3d80cff0	0.06289661
41	0xbda0e690	-0.07856476
42	0x3db0a264	0.086247236
43	0x3d0dda2c	0.034631893
44	0xbda7f49f	-0.08200955
45	0x3d9c4124	0.07629612
46	0xbb0cf150	-0.0021506138
47	0xbd8c99d7	-0.0686528
48	0xbd98a13c	-0.07452628
49	0x3d8f3c0b	0.06993874
50	0xbc2e3170	-0.010631904
51	0xbda8a97b	-0.08235451
52	0x3d04a804	0.032386795
53	0xbc91c478	-0.017793879
54	0xbd4cbdfe	-0.04998588
55	0xbd9c7173	-0.07638826
56	0x3d263818	0.04058084
57	0xbd37ea61	-0.044901256
58	0xbd6f7b99	-0.05846748
59	0x3c096475	0.008385767
60	0x3d5dd9fc	0.054162964
61	0x3d7bd22a	0.061479725
62	0xbd4e89a4	-0.050424233
63	0xbc399595	-0.011327167
64	0xba11fc64	-0.000556892
65	0xbce2523c	-0.027627103
66	0xbc237144	-0.009975735
67	0xbcd5ba0a	-0.026089687
68	0x3d3bb7e0	0.045829654
69	0xbca47282	-0.020074133
70	0x3da16c4e	0.078819856
71	0x3cc8d189	0.024513977
72	0x3d914000	0.07092285
73	0xbd12bbc1	-0.035823587
74	0x3c4a5d5c	0.01235136
75	0xbd57aed6	-0.05265697
76	0xbd3a6576	-0.045506917
77	0x3d5d5d73	0.0540442
78	0x3daa9f06	0.083311126
79	0x3da9d79f	0.082930796
80	0xbc104c10	-0.008807197
81	0x3da760fc	0.08172795
82	0x3d41c319	0.0473052
83	0xbd2682c1	-0.04065204
84	0xbcd66fd6	-0.026176374
85	0x3ca10484	0.019655474
86	0xbd80fcf6	-0.062982485
87	0xbc246a12	-0.010035055
88	0xbd606018	-0.054779142
89	0x3da928dd	0.08259747
90	0x3d3c3292	0.045946665
91	0xbd23df18	-0.04000768
92	0x3d195818	0.03743753
93	0xbbcb4144	-0.0062028486
94	0x3d21e18f	0.03952175
95	0xbcdc6d63	-0.026907628
96	0xbd965cca	-0.07341917
97	0x3d3bf62c	0.045889065
98	0xbc08cedb	-0.008350099
99	0x3d9e7492	0.07737078
100	0x3d9860ab	0.07440313
101	0x3d7abdc4	0.06121613
102	0x3d79b70e	0.06096559
103	0x3da0a148	0.07843262
104	0x3da520b0	0.08062875
105	0xbc1bbe62	-0.00950584
106	0xbbfc8c88	-0.0077071823
107	0x3c489a40	0.012243807
108	0xbd5df28d	-0.054186393
109	0x3cbffd3e	0.023436185
110	0xbd88abfc	-0.066734284
111	0xbd9c0550	-0.07618201
112	0x3ccdaba8	0.025106266
113	0x3d9ad5e3	0.07560327
114	0xbdae8ef6	-0.085233614
115	0x3b5b3c66	0.0033452748
116	0xbaf4aabe	-0.0018666608
117	0x3c470ac9	0.0121485675
118	0x3bc30313	0.005951294
119	0xbc1422ca	-0.0090414975
120	0x3cd50be6	0.02600665
121	0x3be76890	0.0070620254
122	0xbdb193fe	-0.086708054
123	0xbd9b1a9b	-0.07573434
124	0x3d90e038	0.07074016
125	0xbca16145	-0.019699702
126	0xbd91603a	-0.07098432
127	0xbd40cef0	-0.04707235

attention.in_proj_weight f4 [96, 32]
0	0xbd9d6101	-0.07684518
1	0xbd85bbb5	-0.06529943
2	0x3d06480a	0.032783546
3	0xbe592a40	-0.21207523
4	0xbcfcdbd6	-0.030866545
5	0xbe2b3c97	-0.16722332
6	0x3d614282	0.054995067
7	0xbd775298	-0.060381502
8	0x3ba937b5	0.0051641115
9	0xbe46e113	-0.19421797
10	0x3e1695e4	0.14705616
11	0xbd6a5a31	-0.05721492
12	0x3d52aec3	0.051436197
13	0xbe416c8c	-0.18889064
14	0xbd446241	-0.047945265
15	0x3db0a749	0.08625657
16	0x3e4e77a4	0.20162827
17	0xbe44d389	-0.1922132
18	0x3cf50199	0.029907988
19	0xbe10767d	-0.141077
20	0xbe4896ac	-0.19588727
21	0xbe3a477e	-0.18191335
22	0x3e18cb48	0.14921296
23	0x3d9eb7e2	0.077499166
24	0x3c8589ad	0.016301
25	0xbe59c576	-0.21266732
26	0x3d4d1ab6	0.0500743
27	0x3e1b6b8d	0.15177746
28	0x3e181946	0.14853391
29	0x3e0402ee	0.12891743
30	0xbd252319	-0.040316675
31	0x3e225fe2	0.15856889
32	0xbe19edb6	-0.15032086
33	0xbd166666	-0.03671875
34	0x3e337822	0.17526296
35	0x3de67f9a	0.11254807
36	0x3db5f976	0.088854715
37	0xbdaab41b	-0.08335134
38	0xbde20eb1	-0.110379584
39	0x3e2f48bf	0.17117594
40	0x3e31a262	0.173471
41	0x3d2c6c81	0.042095665
42	0x3e5c5eaa	0.21520486
43	0xbdb740b4	-0.08947888
44	0x3c35cb8f	0.011095895
45	0xbe0f4114	-0.13989669
46	0xbe1f8956	-0.15579733
47	0x3e4b17c5	0.19833286
48	0x3ca14334	0.019685365
49	0xbdea2a67	-0.11433869
50	0x3e216914	0.1576274
51	0xbde747a9	-0.11292965
52	0x3da5b6bd	0.08091495
53	0xbe108d6a	-0.14116445
54	0x3cf2da15	0.029645005
55	0xbd8f35cf	-0.06992685
56	0x3d26fc47	0.040767934
57	0x3de134a3	0.10996368
58	0x3da9c4c9	0.08289487
59	0xbcec0aff	-0.028813837
60	0x3e4889ac	0.19583768
61	0xbe1e8399	-0.15479888
62	0xbdbb6c16	-0.09151475
63	0xbe4bc9cd	-0.199012
64	0xbde0db3a	-0.10979314
65	0x3cc4cc39	0.024023162
66	0xbe5e2ddd	-0.21697183
67	0xbddc8f29	-0.10769493
68	0x3e2e445a	0.17018262
69	0x3dc1f297	0.094700985
70	0x3e49625a	0.19666424
71	0x3caf0ee1	0.0213694
72	0xbde9f62d	-0.114239074
73	0x3e082709	0.1329614
74	0xbe3e19ae	-0.18564484
75	0xbde78e98	-0.113064945
76	0xbe2225e0	-0.1583476
77	0xbe0e8af3	-0.13920192
78	0x3e1ddc0e	0.15415975
79	0x3e40ff65	0.18847425
80	0xbe4b7fe0	-0.19872999
81	0xbd2b40ab	-0.04180972
82	0x3c185298	0.009297036
83	0x3e4c3665	0.19942625
84	0x3deec9fb	0.116596185
85	0x3da914ef	0.08255946
86	0xbe3ec420	-0.18629503
87	0x3e4d1fa6	0.20031604
88	0xbe422f84	-0.18963438
89	0x3cf35137	0.029701812
90	0x3e178d48	0.14799988
91	0x3e296822	0.1654363
92	0xbdbdb91c	-0.092638224
93	0x3c1bb60f	0.009503855
94	0x3dde6e2a	0.10860856
95	0x3db8796e	0.09007536
96	0x3db04e81	0.086087234
97	0xbe4aea8c	-0.19816035
98	0xbe20edf7	-0.15715776
99	0xbd628793	-0.055305075
100	0x3d8538af	0.06504952
101	0x3d85fcdb	0.06542369
102	0xbde7c552	-0.11316933
103	0x3d51d548	0.05122879
104	0x3e37f3e5	0.17964132
105	0x3e0049d7	0.12528168
106	0xbe0fbc38	-0.14036644
107	0x3e0fe6e1	0.14052917
108	0xbe4582d8	-0.19288194
109	0x3d666ba0	0.056254983
110	0x3e0cf71d	0.13766141
111	0x3dd95251	0.10611404
112	0x3e347776	0.17623696
113	0x3e2216ef	0.15829061
114	0x3e02da53	0.12778597
115	0xbc8b3583	-0.01699329
116	0xbe155eb3	-0.14586906
117	0x3b12ed66	0.0022419333
118	0x3928609e	0.00016057721
119	0xbd3c2284	-0.045931354
120	0x3da5232c	0.08063349
121	0x3e1580a0	0.14599848
122	0x3e205552	0.15657547
123	0xbe204e02	-0.15654758
124	0x3b27defc	0.0025615087
125	0xbe59a803	-0.21255498
126	0xbd04955d	-0.032369006
127	0x3e43607a	0.19079772
128	0x3e41c91f	0.18924378
129	0xbc0c5cb5	-0.008567025
130	0x3c9bbea3	0.019011801
131	0xbd4d04ae	-0.05005329
132	0x3d95447f	0.07288455
133	0x3b35f2f5	0.0027763222
134	0xbcebc9fe	-0.02878284
135	0xbe59733d	-0.21235366
136	0x3cf15d75	0.02946351
137	0xbd9f7632	-0.07786216
138	0xbdd04ff9	-0.101715036
139	0x3d36a902	0.044594772
140	0xbd9b2053	-0.07574525
141	0xbd7bb36c	-0.061450407
142	0xbe5c7874	-0.21530324
143	0xbd875a9b	-0.066090785
144	0x3db979ca	0.090564325
145	0xbe4969db	-0.19669287
146	0x3dbc7dbf	0.09203672
147	0xbe002b65	-0.12516554
148	0x3e389c64	0.18028408
149	0xbcbc4287	-0.022980941
150	0xbe335711	-0.17513682
151	0x3c85241f	0.016252575
152	0x3df5b05a	0.11996527
153	0x3dedfa18	0.11619967
154	0xbd5c6f66	-0.053817175
155	0x3df0b8ec	0.11754021
156	0x3e58aa83	0.21158795
157	0xbd86e45a	-0.06586523
158	0x3d5ced4d	0.053937245
159	0xbe3409f8	-0.17581928
160	0x3dd220ae	0.102601394
161	0xbdb57836	-0.08860819
162	0x3dba0963	0.090838216
163	0xbe2538c1	-0.16134931
164	0x3e309a47	0.17246352
165	0x3e49fe96	0.19726023
166	0x3e2eed16	0.17082629
167	0x3e1dc516	0.15407214
168	0x3ce8816b	0.028382024
169	0x3dda4fab	0.10659727
170	0xbd9f034d	-0.077643014
171	0xbe3433f9	-0.17597951
172	0x3d67b928	0.056573063
173	0x3e11cc67	0.1423813
174	0x3dae42ca	0.08508833
175	0x3e06aa9e	0.13151023
176	0xbda5022a	-0.080570534
177	0x3d65ba1f	0.056085702
178	0x3d2d55ca	0.042318143
179	0xbc306fdd	-0.010768858
180	0xbd7efdf0	-0.062253892
181	0x3ceb8d1a	0.028753806
182	0xbd79e81f	-0.061012384
183	0x3dddec6a	0.10836108
184	0xbd8745e9	-0.06605131
185	0x3e507f0d	0.20360966
186	0x3e513fff	0.20434569
187	0xbe0450a6	-0.1292139
188	0x3daa03eb	0.083015285
189	0x3e283917	0.16428028
190	0xbe2ca4b0	-0.16859698
191	0x3d045a1f	0.03231251
192	0x3e2a4113	0.16626386
193	0xbe530a27	-0.20609342
194	0x3e2d2ca9	0.16911568
195	0x3e529477	0.20564447
196	0x3e3f83b8	0.1870259
197	0x3e534a72	0.20633867
198	0x3da94331	0.08264769
199	0x3e06f664	0.13179928
200	0x3c0f8c0f	0.00876142
201	0xbac644db	-0.0015126722
202	0xbe48db09	-0.19614805
203	0xbd44d224	-0.04805197
204	0xbe3c5658	-0.18392313
205	0x3e465ad7	0.1937059
206	0x3e20ad9f	0.15691231
207	0xbe251ac0	-0.16123486
208	0x3db074ef	0.08616053
209	0xbd8637a2	-0.0655358
210	0xbd8b362b	-0.06797441
211	0x3dd45931	0.103685744
212	0x3cf0d2e6	0.02939744
213	0x3d85ce33	0.0653347
214	0xbd61cd0a	-0.05512718
215	0x3ddd077a	0.10792442
216	0xbe2c6c46	-0.16838178
217	0xbdd31616	-0.10306947
218	0x3e0f8020	0.1401372
219	0x3e590c8e	0.21196195
220	0xbe0131c8	-0.12616646
221	0xbc83f234	-0.016106702
222	0xbd1a3c96	-0.037655436
223	0x3e07e1e0	0.13269758
224	0x3e17c2a1	0.14820339
225	0xbdaac2e1	-0.083379515
226	0x3e3bb5a8	0.18331015
227	0xbe0ec506	-0.13942346
228	0xbdd6d150	-0.10489142
229	0x3c05c034	0.008163501
230	0xbe3d920d	-0.18512745
231	0xbda4694a	-0.08027895
232	0xbe4db49a	-0.20088425
233	0xbd7087b5	-0.05872317
234	0x3e4ccf85	0.20001037
235	0x3c60b32e	0.013714595
236	0xbe1dee07	-0.15422831
237	0x3d80369f	0.06260418
238	0x3dc02358	0.09381741
239	0xbce6dd8c	-0.028181814
240	0x3d9e6a12	0.07735075
241	0x3ced400d	0.028961206
242	0xbc4d8bd6	-0.0125455465
243	0x3d8562af	0.06512963
244	0xbe0efedb	-0.13964407
245	0x3e008255	0.12549718
246	0x3dec8f9d	0.115508296
247	0x3e3fcdaf	0.18730806
248	0x3d532dea	0.05155746
249	0x3d33135b	0.04371963
250	0xbde1cc1b	-0.11025258
251	0xbdf91c8a	-0.121636465
252	0xbdffcab1	-0.12489832
253	0x3e293db7	0.16527449
254	0x3a2ebc13	0.00066655985
255	0xbe0c0682	-0.13674358
