embeddings/models/7c9e82eaea3c6b518af8982da6f1a061bc4546ec/embedding_model.pt (torch_old, 36958 bytes, 12 tensors)

gcn_1.weight f4 [8, 32]
000000 d5 61 4b 3c cd 6e 01 3e 24 06 0f bd 8c 29 03 3e
       0.012413462 0.12639923 -0.034917966 0.12808818
000010 df bd f1 3d 55 58 c8 bd a6 64 c5 bc d3 35 3a 3d
       0.11803793 -0.09782473 -0.024095844 0.045461487
000020 03 2e 45 be c6 68 7f 3c 99 ec b8 bd 27 ca 16 3e
       -0.19255833 0.015588945 -0.090295024 0.14725552
000030 da 19 b6 bc 73 d3 0e 3e 25 36 3f bd 21 84 d9 bd
       -0.022229124 0.13947849 -0.046682496 -0.10620905
000040 25 07 be bd 32 00 f6 3c 98 4b 34 be 27 ec 7d bd
       -0.092787065 0.03002939 -0.17606962 -0.06199279
000050 61 48 ab 3d 7e a4 de 3c b1 7c 09 be 83 57 d0 3d
       0.083634146 0.027178045 -0.13426472 0.101729415
000060 06 f3 fe bd cf ca c4 3d a3 fe 28 3e 7e b4 28 3e
       -0.12448697 0.09608995 0.16503386 0.16475102
000070 0a 17 9d bd 4a 53 93 bd 95 4f ea 3d 7c c3 4a bc
       -0.0767041 -0.071936205 0.1144096 -0.012375709
000080 52 90 18 be bf c4 67 bb 3f b2 49 3d d1 3b c6 3d
       -0.14898804 -0.0035365073 0.049242254 0.09679378
000090 cb fa 3c bd df 95 f5 3d cd 21 bf bd 60 cd 7b bd
       -0.046137612 0.11991476 -0.09332619 -0.061475158
0000a0 01 87 c5 3d 9f 4e b1 bb aa 53 84 bd 6e 3c 40 3d
       0.096448906 -0.0054109837 -0.0646127 0.04693263
0000b0 8b 2c 19 3e ce 1e 12 be de e6 22 3d f4 5b 6f bc
       0.14958398 -0.14269564 0.039770953 -0.014609326
0000c0 26 ae bc 3d 5c e9 db bd 15 4a 37 bd f6 09 a5 bd
       0.09212904 -0.10737869 -0.044748385 -0.080585405
0000d0 4d 1f 1f 3e 26 d7 df 3c 17 3a fa 3d 54 8f bc bd
       0.15539284 0.02732427 0.12218111 -0.09207025
0000e0 71 12 19 3d 81 db a7 3c c7 48 f0 3b 25 62 57 bd
       0.037371103 0.02049041 0.0073328945 -0.052583832
0000f0 92 77 1b be f7 34 dc 3d 11 60 13 bd 36 1e 97 bd
       -0.15182331 0.1075229 -0.035980288 -0.07378809
000100 4a 69 99 bd fb df 2f 3c e1 32 58 bd 74 d5 1a 3e
       -0.074907854 0.010734553 -0.052782897 0.15120488
000110 8d 64 2b be 83 1c 2c be 3f cd d7 3d 40 52 0e bd
       -0.16737576 -0.16807751 0.105371945 -0.03474641
000120 c8 c4 21 be 7c b4 1e be 54 7a 1f bc ca b2 22 3d
       -0.15797722 -0.15498537 -0.009733755 0.039721288
000130 d6 59 8b 3d 43 7b 27 3e 43 4d af 3d 4d 09 b6 bd
       0.06804244 0.16355614 0.085596584 -0.08888493
000140 2b 6c 9f 3d 35 dc 20 3e 89 52 2a 3d 50 4e 26 3e
       0.07784303 0.15709002 0.041582618 0.16240811
000150 54 00 68 3d c1 d0 2b 3e 89 6b 38 3d af 21 42 bd
       0.056640938 0.16778852 0.04502443 -0.047395404
000160 85 1f 5e 3d 7a e8 1a 3d 08 51 f6 3d b5 d8 a5 bd
       0.054229278 0.037819363 0.12027174 -0.08097974
000170 11 0f d4 3d 31 db 3a bd ed 3e 03 bd 53 fb 97 bd
       0.10354436 -0.045619193 -0.032042433 -0.07420983
000180 f7 39 77 bc 15 6b 0a bc 45 19 15 3e 77 51 2a bd
       -0.0150895035 -0.008448382 0.14560421 -0.041581597
000190 67 f9 2b 3e 8d f9 0a 3e cd 70 85 bd a1 bd 0b 3e
       0.16794358 0.13571759 -0.06515656 0.13646556
0001a0 89 08 22 3e f3 16 96 bc 0c 37 ed 3d 1d e6 a1 bd
       0.15823568 -0.01832149 0.11582765 -0.07905219
0001b0 6c 9e ce bc 59 9a f2 bc 18 e9 62 3d 8f 3d ca 3d
       -0.025222026 -0.029614614 0.055398077 0.098750226
0001c0 e3 6a a5 3d 4f 4e bb bc 75 77 03 be 44 22 90 3d
       0.08077028 -0.022864489 -0.12838538 0.07037786
0001d0 33 96 f3 3d a9 73 bb bd 93 04 90 bc f4 5d 11 be
       0.118938826 -0.0915292 -0.017580306 -0.14195997
0001e0 ad 53 5f bd ab 9e af 3c 2c e8 14 be 03 83 a7 bc
       -0.05452316 0.021437963 -0.14541692 -0.020448213
0001f0 c9 80 0b be 0c fa 1c 3e 31 be c1 3d 67 25 32 3c
       -0.13623346 0.1532976 0.09460104 0.010873175
000200 7b c8 a2 3d a9 c6 07 3e 7a b5 e7 3d d8 fc 18 3e
       0.07948395 0.13259377 0.11313911 0.14940202
000210 82 8c ad bd 29 a8 2f be 88 0f e8 3d 4b f8 f9 bb
       -0.08474065 -0.17153992 0.11331087 -0.007628476
000220 c4 30 00 be 35 fd b2 bd 5b 21 05 3d 2f d2 04 be
       -0.12518603 -0.08739702 0.032502513 -0.12970804
000230 ba 78 7e 3d a9 69 18 3e 26 cb 10 be 3b 69 ce 3d
       0.062126853 0.14884056 -0.14139995 0.10078665
000240 c8 23 a0 3d 4b 4a bd 3d 74 79 93 3c a3 58 0b be
       0.07819325 0.09242686 0.01800225 -0.13608031
000250 de b2 d9 3d 59 14 be 3d d7 22 a6 bd 87 ad 1a be
       0.10629819 0.09281225 -0.08112114 -0.15105258
000260 9b 18 8e bd 32 3e df 3c c1 02 16 be c7 aa b6 3d
       -0.06938287 0.027251337 -0.14649488 0.08919292
000270 bd 4d b5 bc bc 49 36 bc 9f d8 1a 3e c0 6f 24 3c
       -0.022131795 -0.011125978 0.15121697 0.010036409
000280 c9 30 61 bd 21 3a 60 bc 4a fc 84 3d 6f 35 f2 bd
       -0.054978166 -0.013685734 0.06493433 -0.11826598
000290 14 d3 ab bd 9a 79 cf ba fd 0e 98 bc 55 9f a6 3d
       -0.08389869 -0.0015829087 -0.018561834 0.08135859
0002a0 46 20 f2 bc 24 21 c9 bd 1e d6 10 be b2 e0 31 3e
       -0.029556405 -0.09820774 -0.14144179 0.1737087
0002b0 e4 34 27 bd ba a8 37 3e 98 8f d6 3c 7d c8 54 3c
       -0.040821925 0.17935458 0.026191518 0.012987253
0002c0 bc 54 88 3d 78 3d f9 3d bd 23 62 3d d2 ad 0a 3e
       0.06656787 0.12169927 0.055209864 0.1354287
0002d0 59 18 8f bc fe a3 4f bd 2e 54 82 bd 23 f9 25 3e
       -0.017467665 -0.050693505 -0.06363712 0.1620832
0002e0 51 58 18 be 5c 02 9c bc 53 86 53 bd 0d 98 11 3e
       -0.1487744 -0.019044094 -0.051641773 0.14218159
0002f0 c9 11 29 3d 9c 9d ee 3d 5e 5a 33 3e 81 9a f2 3d
       0.041276727 0.11651155 0.17514941 0.118458755
000300 5d ef 8f bc 7d 10 38 3d 26 e7 93 3d a7 e0 0d 3e
       -0.017570192 0.0449376 0.072218224 0.1385523
000310 22 c3 95 3c 52 0b 23 3e e4 58 0d 3e dc 58 9c 3d
       0.018281523 0.15922287 0.1380344 0.07634136
000320 e7 a1 01 3e a5 b8 92 3d a8 2b ed 3d aa 28 80 3d
       0.12659417 0.071641244 0.115805924 0.06257756
000330 ec 02 49 3c a7 01 c6 bd 65 9f 13 3e cd 7d 18 bd
       0.012268763 -0.09668284 0.14416273 -0.037229348
000340 35 68 84 bd 31 6f 14 3d a8 64 82 bd 11 d6 dc bc
       -0.064651884 0.036238853 -0.06366855 -0.026957544
000350 88 20 05 be 55 96 d4 bd ab 4f e5 3d 37 b8 29 bd
       -0.13000691 -0.10380236 0.11196836 -0.041435447
000360 a3 7f 39 3c fd 1b 29 bd 8f 41 a9 3d dd f4 07 3c
       0.011321935 -0.041286457 0.082644574 0.008298126
000370 f5 87 03 3e b5 e9 dd 3d af 8c 61 3d 00 5f 27 be
       0.12844832 0.10835592 0.055065807 -0.16344833
000380 fa c5 bc 3d 98 a1 12 be 0c 72 ba bd e1 69 fd 3c
       0.092174485 -0.14319456 -0.09103784 0.030934276
000390 24 6f 02 3d c9 7f 86 3d e7 5e 23 be 4c 40 34 be
       0.031844273 0.06567342 -0.15954171 -0.17602652
0003a0 77 da 8c bd 29 39 a5 3d 20 8e bf 3d 0e 79 cb 3c
       -0.06877606 0.08067543 0.0935328 0.024837997
0003b0 ba 99 19 3e dd 88 ad bd 06 ed 04 be cf f6 19 3e
       0.15000048 -0.0847337 -0.12981042 0.15035556
0003c0 c7 c1 c6 3d 1d 0a a6 bd ba c0 ff 3c d3 97 31 3e
       0.09704929 -0.08107398 0.031219829 0.17343073
0003d0 71 07 1e bd 23 64 6d bd 4f 0f c5 bd 1b 80 47 bd
       -0.038581315 -0.057956826 -0.096220605 -0.048706155
0003e0 1f 26 29 be b1 cb bc bd b2 89 0b bd a5 4a 2a bd
       -0.16518448 -0.092185386 -0.034066863 -0.041575093
0003f0 48 de 01 3d 1e d2 e2 3c ad 23 1f 3e 9e de 1c 3e
       0.031706125 0.027688082 0.15540953 0.15319297

gcn_1.bias f4 [32]
000000 3f 6a 1a 3e c6 75 d3 bd fd 24 ee bd 1c 9a 4a bd
       0.15079592 -0.10325198 -0.11628149 -0.049463376
000010 10 f1 ed bc b1 c3 8f bd a4 7e 7b 3d 98 a9 b6 3c
       -0.029045612 -0.07019747 0.06140007 0.022297665
000020 b6 25 8d 3d dd 4c 17 3e b2 bb 1a be 60 3f 3e bc
       0.068919584 0.14775415 -0.15110663 -0.011611789
000030 dc 31 76 bd 80 83 13 3c 34 c7 19 bd 07 48 95 bd
       -0.060106143 0.00900352 -0.03754349 -0.07289129
000040 76 d0 12 be 29 b1 9a bd 20 d6 12 3c e6 65 90 3d
       -0.14337334 -0.07553322 0.008962184 0.070506856
000050 94 49 02 3d 02 e1 c7 3d 68 17 31 bd b7 c4 02 3e
       0.03180845 0.09759714 -0.043235213 0.12770353
000060 3c df 21 be a7 b6 1c 3e 73 be 19 3e 33 2d 23 3e
       -0.15807813 0.15304051 0.15014057 0.15935211
000070 61 cc 1b be 19 bb 2e be 80 ec df ba 95 47 96 bd
       -0.15214683 -0.1706356 -0.0017084032 -0.07337872

norm_1.weight f4 [32]
000000 18 75 7f 3f 76 75 80 3f 3f 23 80 3f 91 50 7f 3f
       0.99788046 1.0035846 1.0010756 0.9973231
000010 74 41 80 3f f5 20 80 3f f0 42 80 3f 25 65 7f 3f
       1.0019975 1.0010058 1.0020428 0.9976371
000020 0a a1 80 3f 31 c2 7d 3f 90 ba 7f 3f 50 86 80 3f
       1.0049145 0.9912444 0.99894047 1.0040989
000030 94 5a 80 3f 3e 53 7f 3f 8f 1f 80 3f 94 0d 80 3f
       1.0027642 0.9973639 1.0009631 1.0004144
000040 34 03 80 3f ba d5 7f 3f 94 1c 7f 3f 2a 6a 80 3f
       1.0000978 0.99935496 0.9965298 1.0032399
000050 1f 10 7f 3f f1 43 80 3f 1c 6a 7f 3f 58 5b 7f 3f
       0.99633974 1.0020734 0.99771285 0.99748755
000060 1a e0 7f 3f 89 56 80 3f 42 51 7e 3f f0 0d 80 3f
       0.99951327 1.0026408 0.9934274 1.0004253
000070 94 17 80 3f e3 e8 7f 3f 92 00 80 3f d6 8d 7e 3f
       1.0007195 0.9996473 1.0000174 0.99435174

norm_1.bias f4 [32]
000000 be de 6b ba 5b 77 6a 3b 02 bb ce b9 f1 2b 1c bb
       -0.000899773 0.0035776708 -0.00039430714 -0.0023829902
000010 13 e1 5c 3b 3c 96 1d 3b 56 d8 64 ba 7d b6 d0 3a
       0.003370349 0.0024045845 -0.00087297463 0.0015923526
000020 60 a9 6e 3b c2 51 66 3a f6 d0 2d 3a 5b 28 61 3b
       0.0036416873 0.00087859866 0.0006630564 0.003435633
000030 98 5c a7 bb 18 27 b8 3a ce 44 bb bb 9d b7 a5 3a
       -0.0051074736 0.0014049737 -0.0057149893 0.0012643222
000040 9e e3 aa ba 14 3c 76 3b 4b 76 74 3a 67 a0 b0 ba
       -0.0013037806 0.003757243 0.00093254884 -0.0013475538
000050 2d 0f 2e ba 58 98 7b 3b f5 90 ef ba 9e f2 13 bb
       -0.00066398346 0.0038390364 -0.0018277453 -0.002257503
000060 18 0d 1c 3b 31 f7 07 3c 96 42 8f 3b db 8c 73 3b
       0.0023811515 0.008298681 0.0043719513 0.0037162814
000070 24 36 bc 3b a1 3b dd 3b c5 7f 51 3a 8e 3a ab 3a
       0.0057437588 0.006751493 0.00079917564 0.0013063715

gcn_2.weight f4 [64, 64]
000000 15 f4 f1 3c be 37 cb bd ce 7c a5 3d 0b 3a d6 3d
       0.029535333 -0.09922741 0.08080445 0.104602896
000010 ad f6 2c bc e2 40 9f bd 9b a1 bf 3d 66 da d1 3d
       -0.010556859 -0.07776047 0.09356996 0.10246734
000020 ec 07 bd bc 0b be 41 3d 7b 4c a5 3d 94 ef ca 3d
       -0.023075067 0.04730038 0.08071228 0.09908977
000030 8b fc 5a 3d e2 7e 2c 3a 9d 15 1c bc ea 80 39 3d
       0.0534635 0.00065801863 -0.009526637 0.045288958
000040 b0 c1 f5 bd c3 65 89 3c 36 66 81 bd 24 f4 71 3c
       -0.119998336 0.016772157 -0.06318323 0.01476768
000050 f8 04 ee 3b 00 ac ee bd 79 eb af 3d 0b 33 d8 3c
       0.007263776 -0.116539 0.08589835 0.026391527
000060 fa 5e a3 bd c8 7d c3 bc 8f 7e 93 bc a5 51 84 3d
       -0.079771 -0.023863688 -0.018004684 0.06460885
000070 d8 ae a2 3d 7c 77 b0 bd c2 f2 d9 3d 1a 77 fd bd
       0.07943505 -0.0861654 0.106420055 -0.123762324
000080 39 e6 97 3c 1f eb d6 3d 92 9c bd 3d af 98 f0 3d
       0.018542396 0.104940645 0.09258379 0.11747872
000090 e7 a6 a1 bd ee 91 87 bd 32 1b 78 bd 61 ef fc bc
       -0.07893162 -0.06619631 -0.06057281 -0.030875864
0000a0 99 56 95 bd ac 67 0f 3b 79 f9 68 bd e2 93 0d 3d
       -0.07291908 0.0021881862 -0.05687854 0.03456486
0000b0 f6 66 54 3d 54 3c b0 3c a4 b8 e1 bd a8 7b 42 3d
       0.051856004 0.021513142 -0.110215455 0.04748121
0000c0 40 a8 b9 bd 00 12 29 bc 6d ab 02 3c 16 28 d9 bc
       -0.09065294 -0.010319233 0.007975441 -0.026508372
0000d0 99 b0 ab 3d 4b dd 47 bb 73 a3 5e 3d fc c3 e5 bd
       0.08383293 -0.003049689 0.054355096 -0.11219022
0000e0 0e a1 ab bd c6 fc 01 3d e1 60 d8 3d 87 18 3e 3b
       -0.08380328 0.031735204 0.10565353 0.0029006319
0000f0 20 ce 89 3d 76 49 a9 3d b4 07 11 bd be f4 54 3d
       0.06728768 0.08265965 -0.035407737 0.051991217
000100 e3 ed d5 bd 9c fb 2f 3d 56 e9 f6 3d 41 9a c4 3c
       -0.10445764 0.042964563 0.12056224 0.023999335
000110 6a d9 ec bd 7b 7b 29 3c df b5 d1 bd 9f e3 8e 3d
       -0.11564906 0.010344381 -0.10239767 0.06977009
000120 6a 59 c0 3c 40 f4 a9 3c b2 10 0b 3d 2d 93 0f 3d
       0.023480136 0.02074635 0.03395147 0.035052467
000130 6e fc d4 bd c2 06 3d 3d 7c 5a 2a 3d 34 67 05 be
       -0.1039971 0.046149023 0.0415902 -0.1302765
000140 e2 a6 f6 3d 0b a2 67 bd 32 bf c3 bd dd ba 27 3b
       0.12043549 -0.05655102 -0.09557952 0.0025593557
000150 43 70 8d 3d a2 d8 01 bd fa 6a c4 bd 6e e0 de 3c
       0.06906178 -0.031700738 -0.09590717 0.027206626
000160 af bb 99 3d e8 d1 15 3d 8e 94 c5 bd 66 52 a6 3c
       0.07506501 0.036577135 -0.09647475 0.020302963
000170 2e e5 b4 bd cd b7 2d bd 3c 1a 0d 3d a4 58 89 3d
       -0.08832775 -0.042411614 0.034448847 0.0670636
000180 f6 d4 f1 bc 35 13 4c bd 44 c0 59 bc 45 fc 8c 3d
       -0.029520493 -0.049823005 -0.013290469 0.06884054
000190 f1 46 9d 3d ad 3d 8b 3d 8a d6 28 3d b7 dc 7a 3d
       0.076795466 0.06798873 0.041220225 0.061245646
0001a0 2d b5 fb 3d aa f2 2a 3d 08 a5 b5 bd 89 50 1c bc
       0.12290416 0.04173533 -0.08869368 -0.009540685
0001b0 2e b1 64 3d d5 7e e2 3d d4 ca 77 3d 1f c8 7e 3d
       0.055833034 0.110593475 0.060496166 0.06220257
0001c0 a0 61 00 3d 54 83 e5 bd 46 43 83 bc 7a 31 92 3d
       0.031343102 -0.112066895 -0.01602329 0.07138343
0001d0 09 e1 b4 3b 8c 99 a1 3b 75 15 dd 3d b3 00 f9 bd
       0.0055199903 0.0049316343 0.10795108 -0.121583365
0001e0 eb 39 b5 3d 69 74 7d bd 46 55 34 bd f6 f6 bb bd
       0.088489376 -0.061878596 -0.044026636 -0.091779634
0001f0 b8 03 b5 bd 5d 2c 04 be a0 89 df 3d 08 0a a3 3d
       -0.088386 -0.12907548 0.10914922 0.07960898
000200 9f 5f c1 3b 08 b9 81 3c a4 00 63 bd 84 56 aa bd
       0.0059012915 0.0158353 -0.055420533 -0.08317283
000210 83 44 05 3c 92 15 f4 3d 61 f3 24 3d 44 00 ea 3d
       0.00813401 0.11918177 0.040271167 0.11425832
000220 a2 51 b6 bd eb 68 89 3d 46 82 0c bd 2b ed 23 3a
       -0.08902289 0.06709465 -0.034303926 0.00062532973
000230 69 ed 7f bd 24 8e 88 3c 00 86 f8 3d 81 c9 3b bd
       -0.06248227 0.01666934 0.121349335 -0.045846466
000240 e7 f6 4c bd 3e 31 39 3d ea 69 a0 3d 33 f5 9f bd
       -0.050040152 0.045212977 0.078327015 -0.0781044
000250 61 3d 33 3c c3 6a 06 bd 63 32 fc 3b 83 bd 20 bd
       0.010939927 -0.03281666 0.0076964363 -0.039243232
000260 1f 50 9d bd de 3a be bd e4 0c 4c bd 89 d6 bf bc
       -0.076812975 -0.09288572 -0.04981698 -0.023417728
000270 06 9d d9 3d d7 cf ed bd cf df d3 3c b8 30 68 3d
       0.10625653 -0.11611908 0.025863556 0.056687087
000280 d8 85 a1 bb 5a 7a 95 bc 27 e1 65 3d 2c 25 ea 3d
       -0.0049292855 -0.018246818 0.056122925 0.11432871
000290 e8 65 8a bd 76 28 90 3d e8 da 81 3d 0d d5 d8 bd
       -0.06757718 0.07038967 0.06340581 -0.10587511
0002a0 16 00 6f 3d c4 b5 73 bd a2 db de bd d3 a4 bc bd
       0.05834969 -0.059499517 -0.108817354 -0.09211125
0002b0 16 b9 29 bd 16 11 cd bd 67 40 d5 bd 68 2e 6d bc
       -0.041436277 -0.100130245 -0.104126744 -0.014476396
0002c0 b1 2a a1 bc 4c 8b ba 3d e3 2f db bd c6 2c 79 bc
       -0.019673677 0.091086 -0.10702493 -0.015208429
0002d0 c5 b9 67 3d 15 28 aa 3d 99 d9 d0 bb d5 fb 8e bd
       0.056573648 0.08308426 -0.006373596 -0.06981627
0002e0 0b 0c 11 bb e1 b3 39 bd 7b 28 fb 3d 76 c4 f1 3d
       -0.0022132422 -0.04533756 0.122635804 0.1180505
0002f0 09 48 01 bd b0 90 cc bd 74 34 7d 3c a4 63 c6 3d
       -0.03156284 -0.099885345 0.0154544 0.09686974
000300 39 53 30 3d 94 47 06 bb c6 c4 ea bd 56 d2 a9 bd
       0.043048117 -0.0020489441 -0.11463313 -0.082920715
000310 ae f9 df 3d 04 38 be bd a5 99 e7 bc 9c e1 be bd
       0.109362945 -0.09288028 -0.028271506 -0.09320375
000320 b1 f6 7d bd 5e c8 ec bd 86 a4 a0 bd a7 30 53 bb
       -0.06200284 -0.115616545 -0.0784388 -0.0032225044
000330 88 03 ea 3b 12 47 f8 3d e8 f0 e6 bd 14 77 75 bc
       0.0071415342 0.121229306 -0.11276418 -0.014982004
000340 a2 71 2f 3d 80 2f 3a 3d 9f b2 d7 3d 34 8c 97 3c
       0.042832978 0.045455456 0.10532116 0.018499471
000350 f8 e4 ad bc 9e 6b 9c bc c7 d9 e8 bd 29 1a e5 3d
       -0.021227345 -0.019094285 -0.11369663 0.1118663
000360 0d 34 d3 bd ad 3c e5 bd f8 17 95 3d 8b 7d 98 bc
       -0.10312662 -0.111932136 0.07279962 -0.018614551
000370 75 73 f5 bd 2c 3a dd bc 6b 77 c3 bd 92 44 e3 bd
       -0.11984912 -0.027005278 -0.095442615 -0.11097063
000380 72 08 5c 3d 9c 24 07 3d 5b 5b 6e 3d e6 76 ab bd
       0.05371899 0.032993898 0.058192592 -0.083722875
000390 55 b0 bb 3c 2f c7 d6 3d 55 15 78 bb 45 db 70 bc
       0.02291123 0.1048721 -0.0037854512 -0.014700715
0003a0 7c 88 d7 3c 33 b9 cb bb ab 2b 03 3e fc 2c 03 3e
       0.026310198 -0.006217146 0.12809627 0.12810129
0003b0 5f f0 1f 3d 33 6e 5c 3d 4c 3c b2 bd 31 be ce 3d
       0.039047595 0.05381603 -0.08702907 0.1009487
0003c0 be d1 7f 3c 2c cd ef 3d 4c cc 86 bb 6d 0f 1b 3d
       0.015613971 0.11709055 -0.0041137096 0.037856508
0003d0 e4 f1 e8 bd 62 5e 52 bd 99 6e b0 bc 42 5c 51 3c
       -0.11374262 -0.05135954 -0.021537112 0.012778344
0003e0 32 7a af 3d 9e 72 47 3d 07 30 b8 bd 54 d4 ca 3d
       0.08568229 0.04869329 -0.089935355 0.099037796
0003f0 9e eb fc 3d cf e4 fd bd 6a 1d 05 3d 93 3e 7d bd
       0.12349628 -0.123971574 0.032498755 -0.061827254

gcn_2.bias f4 [64]
000000 c0 75 47 3c de 92 e0 bd 8e 5f c1 bd 4a fc da 3d
       0.01217407 -0.10965513 -0.09442054 0.106926516
000010 04 ed 07 3d 50 82 8b 3d e4 6c 02 3d 10 8e 6d bd
       0.03318502 0.068119645 0.031842127 -0.05799681
000020 20 f6 f8 bd 40 3a c9 bb c0 cf 01 bc 28 1b fa bc
       -0.121563196 -0.006140977 -0.007923067 -0.030530527
000030 ce df e8 bd f4 d0 1d bd 54 8c 98 bd 00 5b fb bd
       -0.11370812 -0.03852935 -0.074486405 -0.12273216
000040 9c 15 bb 3d 76 09 b4 bd 80 73 14 bb 42 df c7 3d
       0.09134981 -0.08790867 -0.0022651851 0.0975938
000050 00 c0 93 bd 18 e4 34 3d 50 f7 6c bc f8 e7 77 3d
       -0.072143555 0.04416284 -0.014463261 0.060523957
000060 00 e7 19 bc a8 00 19 3d 6a e4 f6 bd ec 18 a5 3d
       -0.009393454 0.03735414 -0.12055285 0.08061394
000070 36 b9 99 3d d0 17 1b 3d f6 cf f3 3d cc 24 07 3d
       0.07506029 0.037864506 0.119049 0.032994077
000080 7a f3 9c 3d 00 28 d8 3c 6a 85 be 3d 80 d5 6f 3b
       0.07663627 0.026386261 0.093027905 0.0036595762
000090 f4 64 b0 bd e4 fd 37 bd 38 b8 5e bd b4 82 b6 bd
       -0.08613005 -0.044919863 -0.054374903 -0.089116484
0000a0 80 fa 65 bd da 7a fd bd 44 00 d1 3d 76 c8 d0 bd
       -0.0561471 -0.12376948 0.10205129 -0.10194485
0000b0 36 4b de 3d 38 83 b8 bc c0 83 6c bb b6 54 c9 bd
       0.10854189 -0.022523507 -0.0036089271 -0.098306105
0000c0 30 38 b2 3c 88 68 f0 3d b4 5e 6d bd 44 d0 07 3d
       0.021755308 0.11738688 -0.057951644 0.033157602
0000d0 3c d4 f6 bd 00 df 0b 3b 50 24 4a bc ce 8d c9 bd
       -0.12052199 0.0021342635 -0.012337759 -0.098415
0000e0 60 70 2d bc 40 b1 18 bc 62 e1 c6 3d 02 29 9d 3d
       -0.010585874 -0.009319603 0.09710957 0.07673837
0000f0 ce 31 90 3d 12 48 8c 3d 94 49 74 bd 7a a8 b8 3d
       0.070407495 0.06849684 -0.059640482 0.09016509

norm_2.weight f4 [64]
000000 33 ae 7f 3f 90 68 7d 3f 2c 24 80 3f 8b 04 80 3f
       0.9987518 0.98987675 1.0011039 1.0001386
000010 bb c8 80 3f 25 78 80 3f 04 f4 7f 3f 69 06 7f 3f
       1.0061258 1.0036665 0.99981713 0.99619156
000020 f5 e7 7f 3f c1 4a 80 3f 1a 07 7f 3f d0 d7 7e 3f
       0.99963313 1.0022813 0.9962021 0.99548054
000030 0d bb 80 3f f0 6b 80 3f cf 44 7f 3f 2b c9 7f 3f
       1.0057083 1.003294 0.9971437 0.9991633
000040 29 67 80 3f f1 fd 7e 3f b1 b4 7e 3f 6f f7 7e 3f
       1.0031482 0.99606234 0.99494463 0.99596304
000050 ae c1 7f 3f b3 4a 80 3f cf 67 80 3f da 46 7f 3f
       0.99904907 1.0022796 1.003168 0.99717486
000060 70 31 80 3f e0 62 7f 3f f1 d7 7e 3f 73 37 7e 3f
       1.0015087 0.99760246 0.9954825 0.9930336
000070 a0 59 7f 3f 7a d6 7f 3f 33 64 81 3f 02 df 7e 3f
       0.9974613 0.9993664 1.0108703 0.9955903
000080 a7 21 7f 3f e7 11 7f 3f 2d 63 80 3f 71 16 80 3f
       0.99660724 0.9963669 1.0030266 1.0006849
000090 83 e2 7f 3f e4 0e 7f 3f 55 73 7f 3f 0c 8a 7e 3f
       0.99955004 0.99632096 0.9978536 0.9942939
0000a0 00 37 7f 3f 21 81 7e 3f 64 2b 80 3f 9e 68 7f 3f
       0.996933 0.99415785 1.0013242 0.9976901
0000b0 e5 ee 80 3f 5a 1b 7f 3f ed 43 80 3f a0 42 80 3f
       1.0072905 0.9965111 1.0020729 1.0020332
0000c0 71 63 7f 3f 8e 1c 80 3f c3 76 7e 3f 27 8c 7f 3f
       0.9976111 1.0008714 0.99399966 0.9982323
0000d0 d7 9d 7f 3f 7b 10 80 3f f5 b8 80 3f a5 ae 81 3f
       0.9985022 1.000503 1.0056444 1.0131422
0000e0 18 4a 7f 3f 52 93 81 3f 3c 0b 80 3f af 4c 80 3f
       0.99722433 1.0123084 1.0003428 1.0023402
0000f0 f0 cd 7f 3f 90 ba 81 3f 02 a9 7f 3f ef da 7f 3f
       0.9992361 1.0135059 0.9986726 0.9994344

norm_2.bias f4 [64]
000000 97 16 a6 3b 0b e6 7c 3a b3 8d 31 3c 6c ac da bb
       0.005068611 0.0009647316 0.010837006 -0.0066733863
000010 d2 7d 5c bb 07 1c ac 37 1c 4a a4 bb 22 2a 1a bb
       -0.003364433 2.0517049e-05 -0.0050137173 -0.0023523648
000020 76 b0 c3 3b 06 80 b9 bb 3c e8 9d 3a b9 40 a0 bb
       0.0059719635 -0.0056610135 0.0012047361 -0.004890528
000030 08 d2 82 3b b4 45 03 3c b3 d8 c5 bb 0c 19 47 bb
       0.003992323 0.008012224 -0.0060377955 -0.003037992
000040 cc 2e 8f 3b 8c 70 f6 bb 54 cd 13 bc e7 a1 6e bb
       0.0043695923 -0.007520741 -0.009021122 -0.003641242
000050 f1 bc fb bb ce 5b cc b9 8b d7 c9 3b 44 cc 52 bb
       -0.0076824357 -0.00038978312 0.006159728 -0.0032165209
000060 02 f8 94 3b a6 91 0e bc 1c 60 41 bb 63 66 5f ba
       0.0045461664 -0.0087017175 -0.0029506749 -0.0008522032
000070 e8 1a 6c 3a 1d c4 02 bc 68 cb 09 3c 63 4a eb ba
       0.0009006695 -0.007981327 0.008410312 -0.0017951246
000080 50 6a c8 bb 02 10 a9 ba 90 e1 74 b9 7b 88 a9 ba
       -0.006116189 -0.0012898447 -0.00023353682 -0.0012934351
000090 91 cf 5b bb b4 98 bd bb f0 cc c9 bb 30 7a ee ba
       -0.0033540467 -0.005786026 -0.0061584637 -0.0018194374
0000a0 2c 36 14 bc 4a ca 8f bb a8 d8 3b 3c 3a e5 d3 ba
       -0.009046119 -0.0043881284 0.011465229 -0.0016166337
0000b0 6b 9f d0 3b a0 00 f1 3a 94 c0 30 3c 5c 3a 8e 3b
       0.0063666604 0.0018387027 0.010788102 0.004340453
0000c0 17 dd 06 3a 79 14 cf 3b 41 b3 18 bb d7 b0 5d bb
       0.0005144639 0.006319579 -0.0023300203 -0.0033827329
0000d0 55 be 81 3b f7 0d 3e 3a 64 c9 63 3b 15 79 8d 3b
       0.003959457 0.0007250006 0.003475749 0.0043174126
0000e0 e6 2a fe 3b e3 d1 ad ba ab 47 20 bc 2e 6a cd 3b
       0.0077565787 -0.0013261404 -0.009782712 0.006268761
0000f0 8b 02 85 3b 1f bf ed 3b 5e b3 4a 3a 3e e8 9e 3b
       0.004059141 0.0072554494 0.0007732416 0.004849463

gcn_3.weight f4 [128, 32]
000000 d2 b9 07 be b0 80 87 bd 45 92 19 be bf 57 ea 3c
       -0.13254479 -0.06616342 -0.14997204 0.028606294
000010 af ab 13 be 01 0e 4d bd 0e 29 68 bc a2 dd ca bc
       -0.14420961 -0.050062183 -0.014169944 -0.024763886
000020 26 f5 d9 3d 21 8c f7 bd 6a e9 f1 bd 6b 41 9c 3d
       0.106424615 -0.12087274 -0.11812098 0.07629665
000030 b4 3d 96 3c 2e 28 ba bd 0a e1 45 bd b7 6a b0 3d
       0.01833997 -0.09089695 -0.048310317 0.08614104
000040 45 80 05 3e a4 19 39 bd e0 04 c0 3c a8 ef e6 bd
       0.13037212 -0.04519047 0.023439825 -0.112761796
000050 5e 48 80 3d 3e fb 60 bd 71 cc c6 bd 07 d4 1d 3e
       0.06263803 -0.054927103 -0.09706963 0.15412913
000060 47 54 96 bd da 00 c4 3d b5 b4 c6 3c f0 ba da bd
       -0.073402934 0.09570475 0.02425609 -0.10680187
000070 e7 18 ef 3b eb ba 8d 3d 8d e3 2f bc 46 63 11 bd
       0.0072966698 0.069204174 -0.010735405 -0.035495065
000080 f3 e5 7f bd d6 50 ab 3d 0f f2 03 3e fe d6 a4 bc
       -0.062475156 0.083650276 0.12885307 -0.020122048
000090 52 f5 0a be e5 95 d8 3d 57 5e 1c 3b bc 93 21 3e
       -0.13570145 0.10575465 0.0023859942 0.15779012
0000a0 5c d6 81 3d 46 26 bb bd 75 2d 00 bd ab ed 1c be
       0.06339714 -0.091381595 -0.03129335 -0.15325038
0000b0 c8 4a 24 be 9e b6 7c bd 6c 69 8a bc 6e c2 f1 bd
       -0.16044152 -0.061697595 -0.016895972 -0.11804663
0000c0 e7 0b 9f bd 69 43 71 bd 8f 00 9a bd 3d 82 4f 3d
       -0.07765942 -0.058902178 -0.07519638 0.050661314
0000d0 e7 96 23 3e 83 e8 a5 bd d6 d8 1b be 83 bd db bd
       0.15975533 -0.08100989 -0.15219435 -0.10729506
0000e0 5e 1e 19 bc 80 00 1a 3e 72 fb a0 bd b5 75 4f 3d
       -0.009345619 0.15039253 -0.078604594 0.050649364
0000f0 59 df 7e 3d 5d cd e4 bc 13 92 f3 3d 32 97 2a be
       0.06222472 -0.027929956 0.11893096 -0.16659239
000100 6f 6c 3d 3c 6a dd 04 3e 9b 88 b8 bd 0c c5 20 3e
       0.011561497 0.12975088 -0.090104304 0.15700167
000110 e7 b1 11 3e 7f 54 d1 3c 0a 7d b8 3d aa 2c d8 bd
       0.1422802 0.025552986 0.09008224 -0.10555394
000120 15 2e 31 3e ab 7f 64 bd d6 e2 fa bd 9c 04 dc 3d
       0.17302735 -0.055785816 -0.12250297 0.10743067
000130 62 6e d2 bc 26 97 fb bd c8 e9 07 be 8c 75 b3 bd
       -0.0256874 -0.12284689 -0.13272774 -0.08762655
000140 e7 cc 57 bd 18 7f f1 bd 9e 63 c3 bb bf 8e 32 3e
       -0.052685644 -0.11791819 -0.005962803 0.17437266
000150 84 da d6 3d f3 94 bd bd 93 f0 32 bc 9d 6d e1 bd
       0.10490897 -0.092569254 -0.010921615 -0.11007235
000160 84 8e 8e bd 0e b1 84 3b 35 ca 8c 3d 14 d4 11 3e
       -0.069607764 0.004049427 0.068745054 0.14241058
000170 50 bd 01 3e 38 31 de bd f1 85 c5 3d 0c 6e d9 3c
       0.12669873 -0.108492315 0.09644688 0.026541732
000180 a3 53 11 3c 2b 29 54 3d 72 52 d3 bd 05 b7 b5 bd
       0.008870038 0.051797073 -0.103184596 -0.08872799
000190 21 4f 3b be b9 d6 cf bd d1 05 1d 3e b0 7c 40 3d
       -0.18291904 -0.10148377 0.1533425 0.04699391
0001a0 a1 7e 2a 3e 50 ae f6 bc 83 02 f0 bd f0 90 b0 3d
       0.16649868 -0.030112416 -0.11719229 0.08621395
0001b0 7e 93 fb 3d ff 3d 8f bd 95 6b 17 3e 48 d1 07 3e
       0.12283991 -0.06994247 0.14787133 0.13263428
0001c0 b5 f5 b4 3d df 27 1f 3e 43 34 8b bd 52 55 a6 bd
       0.088359274 0.15542553 -0.067970775 -0.08121742
0001d0 ef f1 0a 3d fe 57 75 bd b4 f2 1d 3c 9a 3a ab bd
       0.033922132 -0.05989837 0.009640384 -0.08360787
0001e0 77 87 26 3e db 7a 02 bd f0 bc 0c be 01 a8 0c be
       0.16262613 -0.031855445 -0.13743949 -0.13735963
0001f0 cd c1 f6 bc 42 dd 29 3d 2b d1 0d be 6a 8e 22 3d
       -0.030121708 0.041470774 -0.13849322 0.039686598
000200 ad 83 3e bc b5 30 58 3d cc ae 9c bd 3a c9 8a 3d
       -0.011628074 0.052780826 -0.07650527 0.06776662
000210 c1 a5 d0 3d 50 7a 1a 3e 95 2f 02 be ab c9 f9 3d
       0.10187865 0.15085721 -0.12713464 0.12196668
000220 9f c3 0f be 2a a4 91 3d f9 53 82 3d 1b 75 04 3e
       -0.14039467 0.0711139 0.06363673 0.12935297
000230 82 09 11 3b 43 34 26 be 3c be 1a bd d5 43 a2 bc
       0.0022130911 -0.16230874 -0.037779078 -0.019807735
000240 5c c7 c2 3d 13 65 0b 3e 28 2d 09 3e 7f 82 4c 3d
       0.09510681 0.13612776 0.13396132 0.04992914
000250 86 b1 2d 3c 05 99 b5 3b d5 8c ba bd df 80 aa 3d
       0.010601407 0.005541923 -0.09108893 0.083253615
000260 53 fb 25 3c 5e f9 2f be 89 de a8 3a be c3 31 3e
       0.010130721 -0.1718497 0.0012883703 0.17359826
000270 b7 fc 4f 3c 60 dc 03 3e 4b 46 64 3d a1 a8 12 be
       0.012694529 0.12877035 0.0557311 -0.1432214
000280 21 0c 8c bc 58 3f d8 3d 4f 79 ef bd af 9e c2 bc
       -0.017095627 0.10558957 -0.1169306 -0.023757307
000290 59 1b ff 3d c2 b1 14 be 45 bf 18 be d7 a5 44 bd
       0.12456388 -0.14520934 -0.14916714 -0.04800972
0002a0 f1 7c de bd 75 9e 04 bd 4f f5 25 bd bd b7 0e be
       -0.108636744 -0.03237768 -0.040517148 -0.13937278
0002b0 a3 61 af 3d c1 83 16 3e f0 df b9 3d f5 d6 3d 3e
       0.085635446 0.14698698 0.09075916 0.18539031
0002c0 cf 82 97 bd 95 0c 06 bd 58 f4 ee 3d 00 66 6e bd
       -0.07397997 -0.032726843 0.116676986 -0.058202744
0002d0 a6 fb fc bd 30 07 8c bc 99 de 63 3c d7 93 1d bd
       -0.12352686 -0.017093271 0.013908052 -0.03847107
0002e0 79 59 1f 3e 4c c7 42 3d 03 2a 39 3d 25 f4 92 3d
       0.15561475 0.047553346 0.04520608 0.07175473
0002f0 ab 54 0c be da a3 30 3d d9 6f 37 3d d2 c1 92 bd
       -0.13704173 0.04312501 0.0447844 -0.071658745
000300 5d 92 26 be 94 bc 7d 3d 24 1d 0b 3e f6 11 00 3e
       -0.1626677 0.06194742 0.13585335 0.12506852
000310 b0 fc a1 bd bc 2c 81 3d 41 55 23 3e 64 ec 61 3d
       -0.079095244 0.063073605 0.1595049 0.05515708
000320 a9 aa 11 3e 22 f5 04 3e 59 60 30 be 6c 4e 12 3e
       0.14225258 0.12984136 -0.17224254 0.14287728
000330 c9 b4 ae bc d4 0e c1 3a 9d a2 11 bd 21 c8 c7 3d
       -0.02132644 0.001472915 -0.03555547 0.097549684
000340 5c 27 0b 3e 34 a1 95 bd d8 7c de 3d 58 0f 1a bd
       0.13589233 -0.07306138 0.10863656 -0.03761229
000350 16 0a a9 3d 20 76 51 3d a9 9d e7 bd 42 a2 02 be
       0.08253877 0.051138043 -0.11309368 -0.12757209
000360 42 83 82 3d ec 32 49 3d 10 21 14 be eb 6d 3f bd
       0.06372692 0.04912083 -0.14465737 -0.046735685
000370 d1 b9 1b be 4e b3 1c 3e 17 5f b6 bd 87 96 a1 bd
       -0.15207602 0.15302774 -0.08904856 -0.07890039
000380 ab 24 54 3d 62 4d 8a bd 7a a1 02 be de eb bc bd
       0.05179278 -0.06753041 -0.12756911 -0.092246756
000390 db 2f 57 bc 73 10 a5 3d 10 72 2f 3d ad 6a 1c be
       -0.013133968 0.08059778 0.042833388 -0.15275069
0003a0 db 75 08 bc 28 e5 01 bd 1a b8 a8 3d 80 24 93 3d
       -0.00832888 -0.03171268 0.082382396 0.07184696
0003b0 33 c6 90 bd 94 ea a3 bc 24 f0 83 bd f9 39 d5 bd
       -0.070690535 -0.020009317 -0.064422876 -0.10411448
0003c0 c9 33 af bd b8 61 c2 3d 0e 6b e3 bd 85 8d c4 bd
       -0.08554799 0.094912946 -0.111044034 -0.09597305
0003d0 67 48 30 be 05 ed 81 bd 66 c0 bc bd 71 68 06 3e
       -0.1721512 -0.06344036 -0.092163846 0.13125779
0003e0 b3 19 8f 3d b4 6d 8c 3c 23 de 7e bd e9 9b 1f be
       0.069873236 0.017142154 -0.062223565 -0.15586819
0003f0 a9 e7 a5 bd cb f9 ea bc 9a f4 e7 bd ac 35 e4 bd
       -0.08100826 -0.028683564 -0.11325951 -0.111430496

gcn_3.bias f4 [32]
000000 09 38 a9 bd 8e dc e5 3d a4 85 65 3d e2 45 11 be
       -0.08262641 0.11223708 0.056035653 -0.14186814
000010 e0 d7 62 3c 60 9e 12 3d 80 a7 0e bb 58 9a 24 bd
       0.013845414 0.03579557 -0.0021767318 -0.040186256
000020 e0 d6 1a be dc 9d 13 bd 36 a9 97 bd e3 c3 2c 3e
       -0.15121031 -0.03603922 -0.07405321 0.168716
000030 b2 b7 f0 3d e4 7d 2d 3d 34 59 03 be 37 b7 02 3e
       0.11753787 0.042356387 -0.12826997 0.12765203
000040 b3 68 09 be 80 5a 8d bd 48 38 21 bd b1 88 25 3e
       -0.13418846 -0.06902027 -0.039360315 0.16165425
000050 3c b2 38 bd 8c 40 86 3d c0 f3 e8 bc 16 28 b6 3d
       -0.045091853 0.0655528 -0.028436542 0.088943645
000060 c2 53 c2 bd 4f 97 03 3e d6 05 fc bd 40 6d ef bd
       -0.09488632 0.12850688 -0.123058006 -0.1169076
000070 26 ca ef 3d 98 22 aa 3c 1b 03 20 be b7 a0 1c be
       0.11708479 0.020768449 -0.15626185 -0.15295683

norm_3.weight f4 [32]
000000 cc 10 80 3f a3 f5 7f 3f 01 f6 7f 3f ca c3 7f 3f
       1.0005126 0.99984187 0.9998475 0.99908125
000010 c8 39 7e 3f 9f 93 7d 3f ec b3 7f 3f 0d d9 7f 3f
       0.9930692 0.99053377 0.99883914 0.9994057
000020 64 35 7f 3f 50 9e 7f 3f 12 02 81 3f 98 aa 7e 3f
       0.9969084 0.9985094 1.0078757 0.99479055
000030 04 10 7e 3f da 55 7e 3f d9 19 7f 3f 6b dc 81 3f
       0.9924319 0.9934975 0.99648815 1.0145391
000040 df b4 80 3f 75 09 80 3f 4f e5 81 3f 42 78 80 3f
       1.0055197 1.0002886 1.0148104 1.00367
000050 f2 2b 80 3f 15 12 80 3f c2 d3 80 3f c5 a4 7e 3f
       1.0013411 1.0005518 1.0064623 0.9947017
000060 0a 4f 7e 3f f2 19 80 3f 09 cd 7d 3f 44 9d 7f 3f
       0.99339354 1.0007918 0.99140984 0.99849343
000070 fe 1a 7f 3f 07 21 81 3f 3f 6d 80 3f 56 18 80 3f
       0.9965056 1.0088204 1.0033339 1.0007427

norm_3.bias f4 [32]
000000 aa 71 1c bb e6 f8 1d 3b fb e4 1e 3b 7d 7b 5c bb
       -0.002387146 0.0024104654 0.002424537 -0.003364294
000010 7b 21 3d bb 62 b8 30 bb 47 fa 09 3b 4e 6b 1e 3b
       -0.0028859067 -0.002696537 0.0021053718 0.0024172845
000020 67 e5 87 bb 09 e2 cb 39 d2 df 92 3a 82 d7 a1 bb
       -0.00414722 0.00038887587 0.001120562 -0.0049390206
000030 c1 41 bb bb 49 9d 11 bc bd f7 79 ba b9 94 c5 3a
       -0.0057146256 -0.008887597 -0.0009535512 0.001507423
000040 55 8f 9d 3b d7 47 44 ba a7 6c 66 3b bd de 8d 3b
       0.0048083463 -0.00074875116 0.0035159977 0.004329531
000050 f9 cc 9a 3a 5d 34 9e bb 92 40 37 3b 95 71 87 bb
       0.0011810354 -0.0048280195 0.002796207 -0.004133413
000060 41 e0 de bb 13 0a 1b 3b 84 16 51 ba 6d c3 1d bb
       -0.0068016355 0.0023657128 -0.00079760724 -0.0024072782
000070 f3 31 e6 b7 ce b1 08 3c f6 8c 05 3c ec b1 ae 3b
       -2.7441396e-05 0.008343173 0.0081512835 0.0053312685
