embeddings/models/7c9e82eaea3c6b518af8982da6f1a061bc4546ec/global_graph_model.pt (torch_old, 208161 bytes, 16 tensors)

query_gen.0.linear.weight f4 [128, 38]
00000000: a4c6 db3d 13e3 77bd 15b8 e1bd caa1 abbd
00000010: 9b4d 1dbe a70f c63b f8e4 75bd 6d88 06be
00000020: 1127 0fbe 130c e03d 87dd 20be e349 a8bd
00000030: b9cf 183e 10b3 423c 57f4 d23d f8ab e43d
00000040: ca73 f8bd 12f1 cb3d 9c9c c43c 7b9c 713c
00000050: 8209 e33d da82 213e e567 b63a 6a90 0ebe
00000060: 5597 543d b704 e03d fe60 953c 8cf1 0bbe
00000070: f281 eb3c fc54 7f3d 41b8 ecbb ef94 c6bc
00000080: 378b 193e db6a 06be d8cf 1e3c ccd9 ebbd
00000090: 1f71 ed3d 89b2 f9bb 42bf da3d 24fc 313d
000000a0: 59a8 d43d bf16 b7bc 5def ca3d 02e1 033e
000000b0: a318 42bd 4d6c 24be 60ec 11be bad8 bebd
000000c0: 6d2b 1abe 4b64 8d3d d2dc 8dbd bab1 053d
000000d0: 3676 9c3b ce58 fa3d 802c b7bd ccb8 0bbc
000000e0: c49c 22be d63b 083e 1b55 f03d 8643 12be
000000f0: 9efe 8c3d 0c81 093e 8b86 273d 444c c6bc
00000100: f93e 87bd d297 0ebe 2470 153e 7a04 d33d
00000110: 33b7 06be 2cb5 033d 2774 d6bd 3dc6 1f3d
00000120: e3f4 233e 35ed 97bd 40cf 73bd 81ba e0bd
00000130: b8a4 24be 2169 23be 4f87 50bd fa32 01be
00000140: c5d9 f8bd c290 bcbc 5edf b9bd c27c 1fbc
00000150: 285a 72bd 4aab c8bd 797d 3ebd f2d8 9e3d
00000160: 6ddc 843c e828 da3c 6a9b c5bc 1e25 89bd
00000170: 875b 5d3d 6df6 0cbe 2a16 9bbd 7a30 dd3d
00000180: 20b9 16be dba2 313d 6744 863c 7544 35bd
00000190: 4b39 00be cc29 f5bd c278 0f3e 2b04 04bd
000001a0: 011a aabd 0df9 d43d 75a4 0ebe 4b55 093e
000001b0: a341 c3bd 89ac d0bd 1971 3abd 5983 b13d
000001c0: fd07 bcbd bea5 ae3d bf40 e93d 91df 1abd
000001d0: 6a6c 963d 5884 e13d 39df 02bd a3bf be3d
000001e0: da06 b53b 36ac d3bd e0b2 123e 0da0 0fbe
000001f0: 641c 9fbd 61b4 88bd 821b 53bc 785a 7c3d
00000200: ec7b 943d 187d 5dbb 276f 103e 144b 1cbb
00000210: 6d4f 14be 53e1 e83d 4ec1 d43c 3a6d bcbd
00000220: 6152 c53d 424e 12be a8b8 c2bd 3b58 05be
00000230: 7085 f9bc 1223 3fbd a523 393c e33d 443c
00000240: c378 363d 1f05 d63d 1048 c53d 43d3 a33d
00000250: 16d5 98bd 0c31 bf3d 5187 053d 7e1f 95bd
00000260: 7c8e ffbd 6a6c 783d 40e0 5d3d 4b8e d33d
00000270: d5ba 0dbe 8d33 07be 52ac acbc 1193 0abe
00000280: bf58 223e c36d c23d 762b 3fbd 3818 d53c
00000290: 8829 2cbd 4d90 04be af76 5ab9 3685 25be
000002a0: 5095 1e3d 3f92 08bd df7e 20be 68bb 07be
000002b0: f3c3 1b3e f8f8 87bd 9a4a 103e 594c a2bd
000002c0: 245b 873d 3b51 a53d 1471 fdbc fc63 663d
000002d0: 9554 3f3c 69af af3b 66fc 45bb 6392 33bd
000002e0: 465f 0cbe 4fc4 4d3b 2936 48bd 174a 663c
000002f0: 073e 2f3d 610a 14be 0c60 0c3e 840a aebd
00000300: cd7c d2bd 0f6f 99b8 bc53 d63d 84d7 513c
00000310: 6904 00be aeeb b33d d51c 15bd 38cb 00be
00000320: 5b24 e0bb ed5b 9dbc 53e4 233e 6bbb e9bc
00000330: 7b7e c1bd e1f3 eabd 2422 a53c a1ed b7bd
00000340: 1ab0 bcbd 8180 15be ca63 ec3d 35fa c13d
00000350: 6952 673d e55a 17be fd94 b4bd 05cc e2bd
00000360: c373 853d 432b acbd 7dee 09bd acaf fc3c
00000370: 8e24 fc3d 4592 a2bd dc2e ea3d 0003 0fbc
00000380: e8a1 04be 6b89 06bd 36e6 e2bd b924 01be
00000390: ebfd 30bc c6f2 143e 7640 903d d3df 01be
000003a0: acdd 6c3c 0f15 8cbd df74 193d f5e9 b53d
000003b0: 96d2 ed3d 8e64 da3d 47a5 fdbd 791b f0bb
000003c0: 1cd9 a13d 29ba c43d 6f00 9fbb e4b8 5cbd
000003d0: 5ebf 13be cdb9 15be 854c cf3d a2d5 2ebd
000003e0: cab8 f0bc 0a2c f6bd 07a2 35bd 90c5 c7bd
000003f0: 0c1b a43d 4f45 07be 710b 033b cae9 16be
0.10731247 -0.06051929 -0.11021439 -0.08380468 -0.15361635 0.0060443464 -0.060032815 -0.1313798
-0.13979746 0.10939803 -0.15709506 -0.08217218 0.1492299 0.011883512 0.103005104 0.11165613
-0.1213146 0.0995809 0.024000458 0.0147467805 0.11085798 0.15772572 0.0013916461 -0.13922277
0.051902134 0.10938399 0.018234726 -0.13666362 0.028748486 0.062336907 -0.007224113 -0.024240939
0.14994512 -0.131267 0.0096931085 -0.11516151 0.11593842 -0.00762016 0.10681011 0.04345335
0.10383672 -0.022349713 0.09908936 0.12878802 -0.047386777 -0.16056938 -0.14250326 -0.09318681
-0.15055628 0.06903895 -0.06926884 0.032640196 0.004774834 0.122239694 -0.089440346 -0.008527946
-0.15880114 0.13304076 0.117349826 -0.1428357 0.06884502 0.13428134 0.040899795 -0.024206288
-0.06603808 -0.13925102 0.1459356 0.10303588 -0.13155822 0.0321552 -0.10471373 0.039007414
0.16011386 -0.074182905 -0.05952382 -0.10973073 -0.1607846 -0.15958072 -0.05091029 -0.12617102
-0.12150911 -0.023018245 -0.09075807 -0.009734334 -0.05916801 -0.09798296 -0.04650638 0.07756223
0.016218388 0.026630834 -0.024121959 -0.06696533 0.054042365 -0.13765879 -0.07572587 0.10800262
-0.14719057 0.0433682 0.016390039 -0.04425474 -0.12521856 -0.11970863 0.14010909 -0.032230537
-0.08305741 0.10399065 -0.13929923 0.13411443 -0.095340036 -0.101891585 -0.045518015 0.08667631
-0.09181211 0.085277066 0.113893025 -0.037810866 0.07344897 0.11011571 -0.031951163 0.093138956
0.0055244984 -0.10335581 0.14326048 -0.14025898 -0.07769087 -0.066750295 -0.012884976 0.061609715
0.07250199 -0.0033796486 0.14104901 -0.002384846 -0.14483424 0.11371102 0.025971081 -0.09200521
0.09634853 -0.14287665 -0.09507877 -0.13021939 -0.030459136 -0.046664305 0.011300002 0.011977646
0.04454876 0.104501955 0.096328855 0.07999279 -0.07462518 0.09335527 0.03259975 -0.07281397
-0.124783486 0.060650267 0.05416894 0.103298746 -0.13840802 -0.13203259 -0.021078262 -0.13532664
0.15854166 0.09493592 -0.046672307 0.026012525 -0.042031795 -0.12945671 -0.00020834313 -0.16164097
0.038716614 -0.033342596 -0.15673397 -0.13255084 0.15211467 -0.06639284 0.14090958 -0.079247184
0.066091806 0.08072134 -0.030937709 0.056247696 0.011677881 0.0053614867 -0.0030210256 -0.043840777
-0.13708219 0.0031397527 -0.048879776 0.01405575 0.042783763 -0.14457084 0.13708514 -0.084980994
-0.1027771 -7.316295e-05 0.1046519 0.012807731 -0.12501682 0.08785187 -0.03640445 -0.12577522
-0.0068402714 -0.019208873 0.16005068 -0.02853175 -0.09447952 -0.114722975 0.020157881 -0.08980871
-0.09213276 -0.14599802 0.11542471 0.09471551 0.056475077 -0.14780767 -0.0881748 -0.1107407
0.065162204 -0.08406689 -0.033674706 0.030845486 0.1231166 -0.07938055 0.11434719 -0.008728743
-0.12952387 -0.032845896 -0.110790655 -0.12611665 -0.010802726 0.14545736 0.07043545 -0.12683038
0.014457148 -0.06839954 0.037464973 0.088825144 0.11612432 0.106637105 -0.1238504 -0.0073274937
0.079027385 0.0960582 -0.0048523466 -0.053887263 -0.1442847 -0.14621659 0.10122017 -0.042684205
-0.02938499 -0.120201185 -0.044343974 -0.09754479 0.08012971 -0.13210033 0.0019995833 -0.14737621

query_gen.0.linear.bias f4 [128]
00000000: 6e0f 243e 761f cd3d 7f25 50bd cab2 08be
00000010: c8db 06be d541 0a3e 421e 193e 52aa 1e3e
00000020: bdcc db3d e32b bf3c 4806 b9bd ecdf 823d
00000030: a739 07be 4932 a63d 1493 09be 66f6 e8ba
00000040: 679f c53d 2e34 173c f227 78bd 4ff4 ad3d
00000050: 73a0 a7bd 4f3d e9bc 6e6d 0dbd b79c 9f3d
00000060: bf91 5e3d 3b6f 11bd 7b08 1ebe 6e19 ba3d
00000070: 4b79 f33d 583c f23d 5427 8a3d a86c b7bd
00000080: eb39 fe3c 5688 1f3e 1eba ccbd 0aa3 c4bd
00000090: 78e9 e83d 6b3b 8e3a f8c6 753d 66a5 d23d
000000a0: e3aa fe3d e5b2 14be 4222 b8bd 82f4 d7bd
000000b0: b640 d73d 4ee5 0ebe ab29 edbd 48ff 0cbd
000000c0: 7ebe 1fba 8714 113e de43 5e3c b0c0 e53d
000000d0: b428 bc3d 754b f3bd 9408 853d 74f1 3bbc
000000e0: 6fa4 163d 84d1 51bd 1eea 1abe dd62 ec3c
000000f0: 5ccf 9ebd 9166 75bd 155f 06bb bd05 cd3c
00000100: 3ccf 2bbd 6024 9b3b f80e ee3c 7e0e 0fbe
00000110: 874d 1e3e d4b0 ffbd e128 12bb 2056 e3bc
00000120: c34a fd3d ef56 d93d 7023 10be 66cf c13c
00000130: 7a6d 75ba e651 103e 9689 ff3d bba5 013e
00000140: 8edc e5bd 290e d43d 4512 84bd 49f6 1f3e
00000150: 45fb cabc 6c89 ee3d 7111 99bd 3263 89bd
00000160: b63a 99bd 38e7 133e a793 223d 2ac7 cfbd
00000170: 6801 06bc 52f6 6ebd 5bbc 993d d8a1 a93d
00000180: 8150 07be 4038 20be c3fa ba3d e8de 6cbd
00000190: 8d87 163e 14f8 58bd d6b4 a1bd fc3e f63d
000001a0: 61aa ecbd 0160 c73b ed7f 5d3d 95a1 c33d
000001b0: 29de 853d 174f dc3d 3a0a 683d c948 bdbd
000001c0: e59b c63d ca3e c8bd 2ccd a9bb 8462 71bd
000001d0: 413f 0abc e50b 4b3d 9e8d 7c3c 2f18 fabd
000001e0: 4fa9 22be 8fe5 0fbd f7df 0bbd 5338 fd3d
000001f0: 16a6 f4bd 9e03 083e 8179 ebbd 4c8b a7bd
0.16021511 0.10015766 -0.05081701 -0.13349453 -0.13169777 0.13501675 0.14952949 0.1549466
0.1073241 0.023336357 -0.09034401 0.06390366 -0.13205586 0.0811506 -0.13435012 -0.0017773628
0.09649544 0.009228749 -0.06058497 0.08493864 -0.081849 -0.028471617 -0.03452819 0.07793563
0.054338213 -0.03550647 -0.15432923 0.090868816 0.11888369 0.11827916 0.067457825 -0.089562714
0.031033477 0.15579352 -0.099964365 -0.0960141 0.11372656 0.0010851448 0.060004205 0.102854535
0.12434938 -0.14521368 -0.08990909 -0.10544683 0.105103895 -0.1395466 -0.11580213 -0.034423143
-0.0006093754 0.14167987 0.0135659855 0.11218393 0.09187451 -0.11879627 0.06495777 -0.011471141
0.03677791 -0.0512252 -0.15128371 0.028855735 -0.077543944 -0.059912268 -0.002050345 0.02502715
-0.04194568 0.004734561 0.029059872 -0.13970372 0.15459262 -0.12484899 -0.0022302198 -0.027751029
0.12367775 0.106122844 -0.14076018 0.023658466 -0.00093623216 0.14093742 0.12477414 0.12660877
-0.11223708 0.10354263 -0.06448797 0.15621294 -0.024778018 0.11647305 -0.0747403 -0.06708373
-0.07481901 0.14443672 0.039691593 -0.101454094 -0.008179046 -0.058340378 0.07506629 0.08282822
-0.13214304 -0.15646458 0.0912986 -0.057829767 0.14700146 -0.05297096 -0.0789582 0.12023732
-0.11555935 0.0060844426 0.054077078 0.09552304 0.06536514 0.10757273 0.056650378 -0.09242398
0.09697703 -0.09777601 -0.005181929 -0.058931842 -0.0084379325 0.04957189 0.015414624 -0.12211644
-0.15884899 -0.035131034 -0.034149136 0.123642586 -0.11945741 0.1328263 -0.114977844 -0.08180866

query_gen.0.norm.weight f4 [128]
00000000: fa04 803f 2219 803f 0000 803f de00 803f
00000010: 34c0 7f3f 260e 803f 0000 803f 0000 803f
00000020: 0000 803f 2dcc 7f3f 0000 803f 1ee3 7f3f
00000030: 84d5 7f3f cbb6 7f3f 0000 803f 0000 803f
00000040: 0000 803f 5719 803f 2dd1 7f3f ab0b 803f
00000050: 8707 803f 251a 803f 3b47 803f 0000 803f
00000060: 0000 803f 282e 803f b90c 803f 8ca9 7f3f
00000070: 8738 803f 21ff 7f3f 2bbc 7f3f 0000 803f
00000080: 9e13 803f 0000 803f 0000 803f 0400 803f
00000090: a50c 803f 19d3 7f3f cf1b 803f 0000 803f
000000a0: d714 803f a3f5 7f3f 0000 803f b0c2 7f3f
000000b0: 833b 803f 7dd0 7f3f 1cdd 7f3f c20a 803f
000000c0: 36cf 7f3f e1ed 7f3f 0000 803f 80c8 7f3f
000000d0: 0000 803f 400c 803f 8d01 803f dca2 7f3f
000000e0: ab01 803f 0000 803f 0000 803f 5f1b 803f
000000f0: 0000 803f a3f0 7f3f 1ee8 7f3f a466 7f3f
00000100: 0000 803f 000e 803f f723 803f 0000 803f
00000110: 0000 803f be23 803f 6110 803f cce5 7f3f
00000120: bdb2 7f3f 370d 803f 0000 803f 0000 803f
00000130: ba3d 803f 3e24 803f 3ee0 7f3f 37f5 7f3f
00000140: 0000 803f 972c 803f 9bc6 7f3f 64a6 7f3f
00000150: 0000 803f 5504 803f 7ae0 7f3f 37c9 7f3f
00000160: ff9f 7f3f 0000 803f 65e4 7f3f 611a 803f
00000170: ccf4 7f3f 0000 803f 41d1 7f3f db1f 803f
00000180: 0000 803f aef9 7f3f 0000 803f 29b9 7f3f
00000190: 31b0 7f3f 53df 7f3f 0000 803f 0000 803f
000001a0: 0000 803f 0000 803f 0000 803f 17fa 7f3f
000001b0: 0000 803f fdb8 7f3f 8fe7 7f3f 320c 803f
000001c0: 28ec 7f3f 0000 803f 4f07 803f 4b0c 803f
000001d0: c307 803f dd30 803f f830 803f c91a 803f
000001e0: 0000 803f ee97 7f3f df10 803f d938 803f
000001f0: 0c05 803f b9d0 7f3f cdd3 7f3f c5f8 7f3f
1.0001519 1.000767 1.0 1.0000265 0.99902654 1.0004318 1.0 1.0
1.0 0.9992092 1.0 0.9995593 0.99935174 0.99888295 1.0 1.0
1.0 1.0007733 0.9992855 1.0003561 1.0002297 1.0007979 1.0021738 1.0
1.0 1.0014086 1.0003883 0.99868083 1.0017251 0.9999867 0.99896497 1.0
1.0005987 1.0 1.0 1.0000005 1.0003859 0.99931484 1.0008487 1.0
1.000636 0.99984187 1.0 0.99906445 1.0018162 0.999275 0.9994676 1.0003283
0.99925554 0.9997235 1.0 0.99915314 1.0 1.0003738 1.0000473 0.9985788
1.0000509 1.0 1.0 1.0008353 1.0 0.9997656 0.9996356 0.9976599
1.0 1.0004272 1.0010976 1.0 1.0 1.0010908 1.0004998 0.9996002
0.9988211 1.0004033 1.0 1.0 1.0018837 1.001106 0.9995154 0.99983543
1.0 1.0013608 0.9991242 0.99863267 1.0 1.0001322 0.999519 0.99916404
0.9985351 1.0 0.9995788 1.000805 0.99982905 1.0 0.9992867 1.0009722
1.0 0.99990356 1.0 0.99891907 0.9987822 0.9995014 1.0 1.0
1.0 1.0 1.0 0.9999098 1.0 0.99891645 0.99962705 1.0003722
0.9996972 1.0 1.000223 1.0003752 1.0002369 1.0014912 1.0014944 1.0008174
1.0 0.998412 1.0005149 1.0017349 1.000154 0.9992786 0.9993256 0.9998897

query_gen.0.norm.bias f4 [128]
00000000: 1475 a739 bdff 513a 0000 0000 fa4d 8a37
00000010: bd8e 9cba 416c 833a 44e3 e335 0000 0000
00000020: 0000 0000 580b 56ba 0000 0000 c504 e9b9
00000030: 069b 37ba 5aee 92ba 0000 0000 0000 0000
00000040: 0000 0000 38bf 643a 7366 8bba e4bf ee39
00000050: a8a3 813a 98ed 533a 8e16 0d3b 0000 0000
00000060: 0000 0000 5c80 bd3a c824 c939 976c aeba
00000070: 94b9 ef3a e85f 0836 a204 8dba 0000 0000
00000080: 00ea 403a c95c 88b5 0000 0000 b08d ecb7
00000090: 954a ff3a ebde 06ba ea34 603a 0000 0000
000000a0: 01a9 3b3a 5c1f 19b9 0000 0000 711f 76ba
000000b0: a772 ec3a ada8 36ba 9ead 08ba f880 9839
000000c0: 6f6f 45ba 16f4 90b9 0000 0000 4923 9aba
000000d0: 0000 0000 1f62 623a 06c5 1538 a6fb baba
000000e0: 8a1a d237 0000 0000 0000 0000 1dae 583a
000000f0: 0000 0000 457a feb9 caab c2b9 3caa 1abb
00000100: 0000 0000 9de0 e339 cc47 953a 0000 0000
00000110: 0000 0000 4dfc 8d3a 7f3e 0b3a 5885 0eba
00000120: 17c0 97ba aeee 083a 0000 0000 0000 0000
00000130: 465b f73a 14fc 9f3a 7d5d 01ba 7aae 28b9
00000140: 0000 0000 3590 b03a fb9f 68ba 750e b1ba
00000150: 0000 0000 301d 0039 3e25 08ba 51cb 5eba
00000160: 417e d4ba 0000 0000 0c13 cfb8 2311 5f3a
00000170: 1801 00ba 0000 0000 6175 3bba 5a1a 7d3a
00000180: 0000 0000 d89e c9b8 0000 0000 fae2 aaba
00000190: 9ebb a0ba 0e9c f1b9 0000 0000 0000 0000
000001a0: 0000 0000 0000 0000 0000 0000 87d2 2aba
000001b0: 1dae 5037 f2b4 86ba a4d5 c2b9 9d12 8939
000001c0: 6e21 2fba 0000 0000 f916 6a39 dfaa c839
000001d0: 99c5 ae39 06b2 c23a 5d09 c43a 4793 4e3a
000001e0: 0000 0000 3efd d1ba 4f07 ff39 7af1 e43a
000001f0: f95b ff39 46cd 40ba d731 35ba 0035 18b9
0.00031939952 0.0008010825 0.0 1.6487193e-05 -0.0011944395 0.0010026769 1.6978961e-06 0.0
0.0 -0.00081651425 0.0 -0.00044444777 -0.0007003996 -0.001120995 0.0 0.0
0.0 0.00087260036 -0.0010635391 0.00045537867 0.0009890692 0.00080844155 0.0021528336 0.0
0.0 0.001445781 0.00038365112 -0.0013307509 0.001828956 2.0321404e-06 -0.0010758827 0.0
0.00073590875 -1.0159794e-06 0.0 -2.819937e-05 0.0019477183 -0.00051449117 0.00085528067 0.0
0.00071586674 -0.000146029 0.0 -0.00093888404 0.001803954 -0.00069678837 -0.0005213859 0.00029087788
-0.00075315585 -0.00027647679 0.0 -0.0011759783 0.0 0.0008635837 3.570786e-05 -0.0014265671
2.5046309e-05 0.0 0.0 0.0008265691 0.0 -0.00048537753 -0.00037130556 -0.0023600003
0.0 0.00043464164 0.0011389195 0.0 0.0 0.0010832638 0.0005311742 -0.000543674
-0.0011577633 0.00052235543 0.0 0.0 0.0018871806 0.0012205862 -0.00049348903 -0.00016086726
0.0 0.0013470711 -0.00088739366 -0.0013508337 0.0 0.00012217904 -0.0005193538 -0.00084989244
-0.0016211943 0.0 -9.874077e-05 0.00085093285 -0.00048829755 0.0 -0.00071509747 0.0009655111
0.0 -9.614014e-05 0.0 -0.0013037615 -0.0012262946 -0.00046083372 0.0 0.0
0.0 0.0 0.0 -0.00065163564 1.2438305e-05 -0.0010277315 -0.00037161738 0.00026144544
-0.00066807016 0.0 0.00022324537 0.00038274282 0.00033335088 0.001485408 0.0014956404 0.00078802224
0.0 -0.0016020907 0.00048642835 0.0017466985 0.00048705915 -0.0007354807 -0.0006912029 -0.00014515594

query_gen.1.linear.weight f4 [128, 128]
00000000: 3a3d 12bd df7f 023d d7fb 63bd fd92 0cbd
00000010: 58da 90bd 65f5 ab3c bb7d 833d ed79 0abd
00000020: de7e 3c3d b2d1 a1bd 914f 94bd 2b19 25bd
00000030: 76ba 4c3c 44ad 683d fa1a 51bd d09b b2bd
00000040: a234 173d 91fa 1f3c 5840 153d f0c4 813c
00000050: cd8c 49bc d6d5 ad3d b253 6dbd 203e 40bb
00000060: 7381 883d 37a4 723c 1b1e a93c bacd 3ebc
00000070: 3126 9ebd e9f5 5cbc 31ff 9f3d 8d1c 80bd
00000080: 8bfa 75bd 0d22 b63b 2705 47bd 086f 33bd
00000090: 7aaf 94bd ea0f ce3c 908c b0bb 58ee d6bc
000000a0: ff7a 133d 5153 9bbd 829c 71bd 12af 6cbd
000000b0: ca51 ca3c 9ae8 5c3c de1b a13d e79f c1bc
000000c0: 7d91 abbc 64a1 cb3c 43d7 56bd 0cbb 273d
000000d0: baef 1e3d 76eb ae3d 4076 79bd dba5 1d3d
000000e0: 1cc3 f23a 5e66 9bbd c0fb 8abb e510 7e3d
000000f0: 03ed 03bd 115a 9a3d 12ed 06bc 4f77 5b3d
00000100: 1266 9dbd 06c4 c9bc 1a02 0c3d e2af 073d
00000110: 1171 a7bd 7f27 843b fc70 99bd a909 a73c
00000120: 969b 063d a519 613d aa4a 20bd 96ab 713d
00000130: 70e6 483d f95f de3c e9ad c53b 5f1e 89bd
00000140: 7447 ea3c 0b7a aa3c 211c 27bd ea2d 8dbd
00000150: f8d0 0fbc f1d5 2bbd 24f5 9abd 81fe ae3d
00000160: f488 5abd b3d0 9e3d 75f9 0c3d 918e 24bd
00000170: 6bf6 84bc d8b3 363c cd75 a73d 1a00 a93c
00000180: 14d4 f6bc a019 24bc 4ebf 6b3d 84f6 88bd
00000190: 22fe b33c 0500 3bbb c058 62bc b268 6abd
000001a0: e8db 01bd 40f0 c5bb e48d 81bc 304f 0a3d
000001b0: 4fce ce3c f777 6f3c 4ad6 5dbd dbfe aa3d
000001c0: c3c5 82bc 5b42 963d c200 003d e1d1 683d
000001d0: 1083 50bd e643 c2bb 17a1 ad3d 2132 52bc
000001e0: 800b 2e3c 1a52 a1bd 3b2c adbd 62e4 243d
000001f0: 9088 cf3c 7840 513c be44 8abd d3f9 833d
00000200: a98b f83c 592c b23d 7030 ba3c bd7c 5d3d
00000210: 67fc 703d 8e52 d2bc 3066 73bd be12 86bd
00000220: aba7 8dbd d1d0 23bd 5d3e 89bd 6d47 e039
00000230: c7e7 373c dd2f 2f3c f7db 833d 86b4 623d
00000240: 62c2 16bd c750 ab3d d3af 3f3c 9eef c63c
00000250: 72d3 02bb 2006 12bd b0c5 bb3b 10f1 ca3c
00000260: 47fe 993d 2c40 38bc bc92 403d a9a4 563c
00000270: c75d 6e3c d68c d93c eb01 16bd 9c3f cf3c
00000280: 63b2 b0bb efe6 1f3d 5bb9 8abd a1de 3b3c
00000290: 6af9 77bd 2f6e 003b f84d 5a3d 24c9 86bd
000002a0: f72d 18bd 244c 8d3b dbf0 b03d 5bfd ab3d
000002b0: ff7c 7dbb d979 76bc 90b6 47ba e25d a4bd
000002c0: 90bb f73c 1177 42bd 4ab1 4dbd f55b 9abd
000002d0: eabc 97bd 9b1c 13bd ba30 273c 1c10 c2bc
000002e0: 17a0 8b3d fc8a 7bbd 7e00 68bd 4523 643a
000002f0: 78a8 4abc 650d 16bc 3b18 bd3c 51c0 59bd
00000300: e030 d0bc bacc fcbc 5fab 6f3d f2e0 f0bc
00000310: 0035 9e3c 1c2e ac3d b1b0 5abd 1424 87bd
00000320: b7cb 0dbc 8a48 723c bae7 063d 4e24 35bd
00000330: b52f 69bb dbb9 b23d b0d2 88bd 4c6b c13a
00000340: dd40 2fbd 1d9b a0bd 0cde 3abd 5324 97bd
00000350: 8bb1 943d 7679 363c c7e8 d4bc e3a8 3ebd
00000360: bf3b 0bbc a443 2abd 0b03 543d d632 62bd
00000370: ef69 12bd 213c a73d a02d d4bb 6634 8e3d
00000380: 6ee0 633d 6645 4c3d 1c25 9f3c e7b5 89bd
00000390: 310b ddbc 2cb8 35bc 09db 6cbd 204f 593b
000003a0: 7ce3 ed3c daf6 4d3d fcb8 57bd 50f3 b93b
000003b0: 8444 0abd 58fc 5b3c 83aa 20bd ca8c 983d
000003c0: ff3d 72bd e0bf a03c 32ea 9b3d fa08 953d
000003d0: bf96 173d 51d7 51bc f874 6bbc ccb3 f63c
000003e0: 17dc 98bd b0a5 88bb 9c33 5a3c 512c 773d
000003f0: 1dd7 1e3b d4e7 503d 4e83 ae3d a479 713c
-0.03570292 0.03186023 -0.055660095 -0.034319866 -0.07072896 0.020991037 0.064204656 -0.033807684
0.046019427 -0.07901324 -0.072417386 -0.040307205 0.012495628 0.056805864 -0.051051117 -0.08721125
0.03691543 0.0097643295 0.036438316 0.015840977 -0.012301636 0.084880516 -0.057941146 -0.0029333904
0.066653155 0.01480966 0.020644238 -0.011645729 -0.07722128 -0.013486364 0.07812346 -0.06255446
-0.06005339 0.0055582584 -0.048588898 -0.04380706 -0.07260032 0.025154073 -0.00538785 -0.026236698
0.03600597 -0.07584251 -0.058987148 -0.057784148 0.024697203 0.013483191 0.07866643 -0.023635818
-0.020943398 0.02485723 -0.052451383 0.040949866 0.03880284 0.08541004 -0.060903788 0.03848825
0.0018521282 -0.07587884 -0.0042414367 0.06202783 -0.032208454 0.0753671 -0.008235233 0.05358058
-0.07685484 -0.024629604 0.03418169 0.03312672 -0.081758626 0.0040330286 -0.07492253 0.020390349
0.032863222 0.054956097 -0.039133705 0.059001528 0.049047887 0.027145373 0.0060326946 -0.06695246
0.028598525 0.020810148 -0.04079831 -0.06893523 -0.008777849 -0.041952077 -0.07566288 0.085446365
-0.053353265 0.0775465 0.03441759 -0.040175024 -0.016230782 0.0111512765 0.081767656 0.020629931
-0.030130424 -0.010015875 0.05755549 -0.06687644 0.021971766 -0.0028533947 -0.013815105 -0.05722875
-0.03170386 -0.006040603 -0.015814729 0.033766925 0.02524486 0.014616004 -0.05415944 0.08349391
-0.01596344 0.07336875 0.031250723 0.05684078 -0.05090624 -0.0059285043 0.08477991 -0.0128293345
0.010622859 -0.07876988 -0.08455702 0.040256865 0.025333673 0.012771718 -0.06751393 0.064441346
0.030340033 0.08699865 0.022728175 0.054074038 0.05883446 -0.02567413 -0.059423625 -0.065465435
-0.06916746 -0.039994065 -0.06701348 0.00042777826 0.011224694 0.010692564 0.06438439 0.05534794
-0.03680647 0.083650164 0.011699635 0.02428418 -0.0019962457 -0.035650373 0.0057303533 0.02477315
0.07519203 -0.0112457685 0.047014937 0.0131007815 0.014548725 0.026556414 -0.036622923 0.025298886
-0.005392359 0.039038595 -0.06773635 0.011466653 -0.060540594 0.0019596925 0.053297013 -0.06581333
-0.03715321 0.004312055 0.086396895 0.08397933 -0.003867924 -0.015043699 -0.00076184515 -0.08025719
0.030240804 -0.04747683 -0.050217904 -0.07537071 -0.074090794 -0.035915952 0.010204488 -0.023689322
0.06817644 -0.061411843 -0.056641094 0.00087027653 -0.012369268 -0.009158467 0.023082843 -0.053161923
-0.02541393 -0.03085934 0.05851304 -0.029404137 0.019312382 0.08407232 -0.053391162 -0.06598678
-0.008654526 0.0147878025 0.032935835 -0.044224076 -0.0035581414 0.08726855 -0.066808105 0.0014756708
-0.042786468 -0.078420855 -0.045621917 -0.07379975 0.07260426 0.011137357 -0.025989903 -0.04654778
-0.008498131 -0.041568413 0.051760715 -0.055224262 -0.035745557 0.081657656 -0.0064751655 0.06943588
0.055633955 0.04987087 0.019426875 -0.06724148 -0.026982876 -0.011091273 -0.057826076 0.0033158734
0.029039137 0.050284244 -0.05266665 0.005674757 -0.033756748 0.013426863 -0.039225113 0.074487284
-0.059141155 0.019622743 0.076130286 0.07277103 0.037008997 -0.012807683 -0.014371149 0.03011503
-0.07463854 -0.004170142 0.013317969 0.060344998 0.0024237104 0.05100234 0.08521138 0.014738474

query_gen.1.linear.bias f4 [128]
00000000: ad2c 7d3d 4b2c 8b3d 37a8 abbc 5b37 8eba
00000010: 649f 1ebd 0fb8 2cbd 17f8 ee3c fb5f 37bd
00000020: b0b4 0b3d 5c87 aa3d 802e 0e3d b4ce 88bd
00000030: 453e 9c3d 0d34 b63c 7982 803d d153 bcbc
00000040: 98c4 02bc fd45 433d e439 033c 1491 cdbc
00000050: c51a 25bc 16a8 2c3c a326 6c3c c6d5 983c
00000060: c5d9 06bd a444 f6bb 24db 9abd d0b5 b0bd
00000070: 9e93 83bd 993d b13d 712e b53d 6522 823d
00000080: 9ec2 9e3d b8d8 1ebd d526 9cbc 5e8c 8cbd
00000090: 4189 e53c c200 8f3c 4ce1 46bd e47a a33d
000000a0: a82f 9abd ad49 853d d815 aabc b8b2 e93b
000000b0: c43f b1bd 427c 69bd 1fe0 8b3d 7b20 6b3d
000000c0: 07ef 843d fd7d ce3c e80d 2abc 5be2 f13c
000000d0: 2583 8ebd 4957 a93d cb82 143c 6334 a4bc
000000e0: 55a7 373d edca 2ebd 2ab2 593d 8c13 c4bc
000000f0: 26b0 3b3d a383 bb3c 1138 943d c0a1 843c
00000100: f542 a9bd a62f 13bd 4ca4 143d 265c 1fbd
00000110: 8d61 adbd 8ec9 233d 0281 cabc 2796 31bd
00000120: c626 953d ed9d e9bc 1a98 a53d 86ed 033d
00000130: 2df4 343d 7215 86bb 95fc f63c 2dc6 bc3c
00000140: 62e0 9fbc e398 16bd 9b45 69bb 97ee 193d
00000150: cb30 5e3c 186e bb3c b730 c2ba 514d 763d
00000160: 549c 313d e6ae 87bd fd76 aa3d 15ea 37bc
00000170: bc45 17ba 8fb7 f4bc 0413 3dbd cd4b e23c
00000180: 6f3a 923c e90f 5dbd 726a a23c 7ece 9fbd
00000190: ccb5 fd3c 9485 6f3c 5f1c 9e3d 7068 aabc
000001a0: b57e dbb9 885b 803d 3a35 e1bc 318b 8a3d
000001b0: facf 6f3d d8d4 4dbd 994f b2bd c296 363d
000001c0: 856f 5abc 2cac 543d bad1 a03c 17d4 9ebd
000001d0: 1995 1e3c ff90 963c b3f8 8d3c 9ff7 743c
000001e0: dd50 82bd 21a8 a6bd 83be e53b 8596 f3ba
000001f0: 6ea5 a9bd e6c9 273d 18de 713c aad3 e53c
0.061810184 0.067955576 -0.020954235 -0.0010850237 -0.038726225 -0.04216772 0.029171033 -0.04476927
0.034107864 0.08326599 0.034712315 -0.066800505 0.076290645 0.022241617 0.06274886 -0.022989186
-0.007981442 0.047674168 0.008009408 -0.025093593 -0.010077183 0.010538122 0.014413509 0.018656623
-0.032922525 -0.007515507 -0.07561329 -0.08628428 -0.0642464 0.08654327 0.088467486 0.063542165
0.07751964 -0.038780898 -0.019061485 -0.068627104 0.02801955 0.017456416 -0.048554704 0.07982424
-0.07528621 0.06508193 -0.020762369 0.0071319006 -0.086547405 -0.057003267 0.06829857 0.057404023
0.06490903 0.02520656 -0.010379292 0.02952688 -0.069586076 0.082686014 0.009064387 -0.020044511
0.044837315 -0.042673994 0.053148426 -0.023935102 0.045822285 0.022889918 0.07237256 0.01619041
-0.08264724 -0.035934113 0.0362895 -0.03890624 -0.08465872 0.03998714 -0.024719719 -0.043356087
0.07282786 -0.028517688 0.08085652 0.032208942 0.044178177 -0.004091912 0.030149737 0.023043716
-0.019516174 -0.036766898 -0.0035594467 0.037581053 0.013561438 0.022879645 -0.0014815544 0.06013233
0.043361977 -0.06625156 0.083234765 -0.011225243 -0.0005770584 -0.029872684 -0.046160713 0.027624035
0.017850129 -0.05397025 0.019826148 -0.07803057 0.030970477 0.01461925 0.07720255 -0.020801753
-0.0004186534 0.06267458 -0.0274912 0.0676483 0.05854795 -0.05025181 -0.08706588 0.044577368
-0.013332252 0.05192201 0.019631255 -0.07755297 0.009679102 0.018379686 0.017330503 0.014951616
-0.0636308 -0.08137537 0.007011236 -0.0018584287 -0.08283506 0.04096403 0.014762424 0.02805503

query_gen.1.norm.weight f4 [128]
00000000: 33c7 7f3f e83b 803f 1df5 7f3f 58d0 7f3f
00000010: 2fa5 7f3f 0000 803f 0000 803f eb0f 803f
00000020: 4d46 803f 0000 803f 0000 803f d801 803f
00000030: 661f 803f 232c 803f 0a22 803f 9f23 803f
00000040: 6030 803f b330 803f 9ffd 7f3f 69f2 7f3f
00000050: 0000 803f 0000 803f 0000 803f 58eb 7f3f
00000060: f1a6 7f3f 5404 803f 433c 803f 0000 803f
00000070: d312 803f 0000 803f 9ee0 7f3f f6e2 7f3f
00000080: dad8 7f3f a321 803f 0000 803f 2399 7f3f
00000090: ee19 803f 0000 803f e179 7f3f e002 803f
000000a0: e403 803f ba0f 803f e681 7f3f 0000 803f
000000b0: 0000 803f ff0f 803f ef13 803f 0000 803f
000000c0: 5bd1 7f3f 0000 803f 6826 803f 0000 803f
000000d0: 0000 803f 0000 803f 0000 803f 0000 803f
000000e0: 3b30 803f 0000 803f 2d2a 803f 0606 803f
000000f0: b5e9 7f3f f51b 803f 3c01 803f a920 803f
00000100: 32e6 7f3f c2c1 7f3f 0000 803f f3c6 7f3f
00000110: 0000 803f d6e0 7f3f 0000 803f f010 803f
00000120: dcd7 7f3f 0000 803f b8fe 7f3f c910 803f
00000130: 0000 803f c201 803f e1be 7f3f 4406 803f
00000140: deea 7f3f 0fcb 7f3f f20e 803f e59b 7f3f
00000150: 5606 803f 0000 803f 0000 803f fdd7 7f3f
00000160: 0000 803f 0000 803f 0000 803f 0000 803f
00000170: 0000 803f a810 803f 8c01 803f 0000 803f
00000180: 8ccf 7f3f 0000 803f 29f9 7f3f b827 803f
00000190: 0510 803f 6d0e 803f 3dfc 7f3f 821a 803f
000001a0: c51f 803f f6ee 7f3f 0000 803f 22fe 7f3f
000001b0: 3018 803f 3808 803f 0000 803f 6427 803f
000001c0: 26d2 7f3f 6fee 7f3f 8989 7f3f 0000 803f
000001d0: 042e 803f 0000 803f aaaa 7f3f 0000 803f
000001e0: a008 803f f3ac 7f3f 0000 803f 0000 803f
000001f0: 0000 803f 0000 803f 610a 803f 0000 803f
0.9991333 1.0018282 0.9998339 0.9992728 0.99861425 1.0 1.0 1.0004858
1.0021454 1.0 1.0 1.0000563 1.0009582 1.001347 1.0010388 1.0010871
1.0014763 1.0014862 0.9999637 0.99979264 1.0 1.0 1.0 0.9996848
0.9986411 1.0001321 1.001839 1.0 1.0005745 1.0 0.99952114 0.9995569
0.99940264 1.0010265 1.0 0.99843043 1.0007913 1.0 0.9979535 1.0000877
1.0001187 1.0004799 0.99807584 1.0 1.0 1.0004882 1.0006083 1.0
0.99928826 1.0 1.0011721 1.0 1.0 1.0 1.0 1.0
1.0014719 1.0 1.0012871 1.0001838 0.99965984 1.0008532 1.0000377 1.0009967
0.99960625 0.99905026 1.0 0.9991295 1.0 0.9995245 1.0 1.0005169
0.9993875 1.0 0.99998045 1.0005122 1.0 1.0000536 0.99900633 1.0001912
0.99967754 0.9991922 1.0004561 0.9984725 1.0001934 1.0 1.0 0.99938947
1.0 1.0 1.0 1.0 1.0 1.0005083 1.0000472 1.0
0.99926066 1.0 0.99989563 1.0012121 1.0004889 1.0004402 0.9999426 1.000809
1.0009695 0.99974 1.0 0.9999715 1.0007381 1.0002508 1.0 1.0012021
0.99930036 0.99973196 0.99819237 1.0 1.0014043 1.0 0.9986979 1.0
1.0002632 0.99873275 1.0 1.0 1.0 1.0 1.0003167 1.0

query_gen.1.norm.bias f4 [128]
00000000: bb20 5fba b0e1 e83a 17b7 89b9 0084 1bba
00000010: a231 b9ba 0000 0000 0000 0000 4977 b739
00000020: 05a2 0b3b 0000 0000 0000 0000 88ba b238
00000030: 1070 813a f9ba a83a 0d47 893a cadf 8f3a
00000040: cfe7 cb3a b27b bf3a 9fea 9db9 95aa 5fb9
00000050: 0000 0000 0000 0000 0000 0000 8576 9bb9
00000060: b932 b2ba 38c9 1638 2ce3 ea3a 0000 0000
00000070: 55ad 1f3a 0000 0000 bf27 ab39 6a0e 15ba
00000080: 2a21 18ba 547f 8b3a 0000 0000 7553 e0ba
00000090: 629f 4e3a 0000 0000 abe9 05bb d562 c938
000000a0: 99e5 a938 68f2 113a 332c fcba 0000 0000
000000b0: 0000 0000 f5a0 e639 c645 1c3a 0000 0000
000000c0: 81f7 41ba 0000 0000 4cfc 973a 0000 0000
000000d0: 0000 0000 0000 0000 0000 0000 0000 0000
000000e0: 3410 d43a 0000 0000 04f7 a53a 2295 3339
000000f0: 8fbc 29b9 4b6c 7e3a 3e47 4ab9 6e1e 873a
00000100: 1101 2bb9 b0f0 95ba 0000 0000 7d16 70ba
00000110: 0000 0000 9582 1dba 0000 0000 21cd 073a
00000120: 738a 1fb9 0000 0000 7ad1 7b36 d394 f139
00000130: 0000 0000 b435 9339 d275 81ba 3cce d839
00000140: af88 dab9 ee80 5eba 04c5 c039 3621 cfba
00000150: f683 4039 0000 0000 0000 0000 2ca0 96b9
00000160: 0000 0000 0000 0000 0000 0000 0000 0000
00000170: 0000 0000 fb4b 033a 6c43 a138 0000 0000
00000180: 1c4a 3bba 0000 0000 20d9 c8b8 9080 a73a
00000190: b785 053a e9a7 eb39 c22d 3aba 43fc 443a
000001a0: 15ae 7f3a 61df a3b9 0000 0000 4879 b4b8
000001b0: 1ece 0f3a d9ed 8939 0000 0000 d627 9f3a
000001c0: f99c 3eba 6e8e 2ab9 ae25 faba 0000 0000
000001d0: d9ee af3a 0000 0000 da24 adba fd72 6838
000001e0: 9658 cf39 a5a6 b3ba 0000 0000 0000 0000
000001f0: 0000 0000 0000 0000 a402 2b38 0000 0000
-0.0008511652 0.0017767455 -0.0002626709 -0.00059324503 -0.0014129172 0.0 0.0 0.00034993354
0.0021306288 0.0 0.0 8.5224456e-05 0.0009875316 0.0012873105 0.0010473445 0.0010976729
0.0015556755 0.0014609008 -0.0003012018 -0.00021330484 0.0 0.0 0.0 -0.00029652208
-0.0013595439 3.5950186e-05 0.0017920486 0.0 0.0006091197 0.0 0.00032645275 -0.0005686047
-0.00058032817 0.0010642805 0.0 -0.0017114716 0.0007882026 0.0 -0.0020433466 9.602836e-05
8.101314e-05 0.00055674324 -0.0019239247 0.0 0.0 0.0004398894 0.0005961325 0.0
-0.00073992467 0.0 0.0011595576 0.0 0.0 0.0 0.0 0.0
0.0016179145 0.0 0.0012662117 0.00017126327 -0.0001618734 0.0009705468 -0.00019290761 0.0010308751
-0.00016308228 -0.0011439528 0.0 -0.00091586245 0.0 -0.0006008533 0.0 0.0005180408
-0.00015214998 0.0 3.7523846e-06 0.00046077985 0.0 0.00028078037 -0.0009877032 0.00041352387
-0.00041682037 -0.000848784 0.00036767882 -0.0015802744 0.00018359706 0.0 0.0 -0.00028729567
0.0 0.0 0.0 0.0 0.0 0.00050085754 7.6896365e-05 0.0
-0.0007144527 0.0 -9.577186e-05 0.0012779403 0.00050934724 0.00044947796 -0.00071021554 0.00075143966
0.0009753418 -0.00031256213 0.0 -8.605659e-05 0.0005485731 0.00026307887 0.0 0.0012142609
-0.00072713156 -0.00016265523 -0.0019084716 0.0 0.0013422623 0.0 -0.0013209835 5.54202e-05
0.00039548118 -0.001370628 0.0 0.0 0.0 0.0 4.0772036e-05 0.0

query_gen.3.weight f4 [128, 128]
00000000: 2307 1dbd 1758 9d3d 44e8 703d 35ea e43c
00000010: 967d b2bd e861 b1bd fba5 83bd c525 80bd
00000020: 2321 5a3d 384c d23c 00a8 823a 5a92 b0bd
00000030: 4eae f6bb 6678 39bc ff73 093d fa6f 11bd
00000040: 7213 d3bb 3a9f a23c 5209 7ebc 069e aebc
00000050: 383f f93c 90d7 eb3c 1c49 c73c 7aea 9a3d
00000060: 7d5a 0b3d 1290 3cbc de85 32bd c00d a4bc
00000070: 67f9 523d d21f 2c3d 911d 31bd 250b 85bc
00000080: 15eb d83c e2e2 9a3c f0ef ebbb e26e ad3d
00000090: b45c 263d 1fb9 b1bd 5b35 94bc d6cb 0fbd
000000a0: a992 60bc b144 97bd 7cb9 a73d 80d5 84bb
000000b0: 3777 95bd 73d5 a73d 3764 ddbc 58a0 8ebd
000000c0: 3624 9ebd 88b4 093c 6940 21bd 209f f2bb
000000d0: 179f 8f3d efe4 b23d b9e7 833d 030e 8a3d
000000e0: d98b c4bc afad 80bd d153 443c 75dc 1f3c
000000f0: 3818 c63a bb48 193d cdfb aa3d 2175 80bd
00000100: c306 24bd dbb5 0a3d ebe7 b23d 7235 0f3d
00000110: 6224 93bd e430 adbd 233e 9a3d 1f1e 783d
00000120: 313f fcbc 1230 133d ca74 023d 932f c2bb
00000130: e86e 65bc 7a1d 3dbd 35af 1bbc d355 a0bd
00000140: a958 18ba 193e e8bc 3f04 733d b317 183c
00000150: 4e93 b0bc 9c67 b13c 00fc a0bd 9494 ed3b
00000160: b01a dd3c 2016 cb3b b0ed 783c 4066 76bc
00000170: f604 243d 52e2 a23d 25c9 9e3d 081b 55bd
00000180: 2585 113d 1cc8 f33c 4bb2 b1bd e485 85bd
00000190: 5d12 a73c f119 823d 9d6d 8a3d e30e 263d
000001a0: 8106 83bc 5ca7 a33d 65d9 82bd 2f69 88bd
000001b0: fd74 d7bc 6b29 3dbd 5838 54bc e532 bf3c
000001c0: 8a26 063d ecd0 0fbd b5f6 4b3d f982 913d
000001d0: 7b4e 713d 904f 8d3c 0e80 4d3d c3ad 5d3d
000001e0: c3c8 183d e9e4 2bbd 3711 b43d 9410 b1bd
000001f0: 4059 0a3b 6fbf 18bd 7d58 18bd d3f5 71bd
00000200: 8a67 9bbd 2e55 b1bd 1882 62bc 57f0 20bc
00000210: 6410 313d 548e 02bd 0e48 a9bd 7d46 ed3c
00000220: 5dc5 003b 4e3a 2b3d 85ac 1cbd bbf7 12b9
00000230: d1f0 0abd b3ef 61bd 9323 9e3d 2c56 a73c
00000240: 3848 733d d098 10bd f58b a83d d9ab 123d
00000250: efe2 2dbd a73c a03d e014 873c f6a4 203d
00000260: 7d56 eabc d99e 383d 2175 783d 0a13 3d3d
00000270: e918 d5bc fe0f a2bd f491 353c 19e3 5d3d
00000280: a478 35bd edff 50bd 007b f8ba 94fc 7d3d
00000290: 48cd bcb9 50b7 453c 84e8 693c 8c2a aebd
000002a0: a3b4 93bd 1e51 513d 3d56 4d3b 1045 e03b
000002b0: 983e 2c3c 3eaa 98bd 35f8 b0bd dabf 10bd
000002c0: 8066 9cbd 64b9 073d cb50 88bd 4b5e 963d
000002d0: 2036 9e3c a0ab 483c b48c aabc ed30 a63d
000002e0: 52b7 56bd 201b 04bb 6c38 3e3d 3cd8 13bd
000002f0: 09cd 693d 398f 7bbd 926a 1d3d 9aff f93c
00000300: b287 7ebd 0644 b53d 6995 b03d 1808 fbbb
00000310: fda3 ac3d b02f 9d3b 62a1 1b3d a886 913c
00000320: a2fe a33d f357 8b3d 080a ab3c 54cd 80bd
00000330: bd91 85bd 7ded fcbc e2a4 16bd dd24 1f3d
00000340: edc0 81bd c3f5 04bb df98 2ebd 1e23 1b3c
00000350: a802 0cbd 7cab b2bc b27b 493d 0d94 24bd
00000360: 9e19 84bd 7dba af3d cafc 5c3d 708f bb3b
00000370: d805 cf3c 2ac6 20bd 67fc 3a3d 24bf 8abd
00000380: 1073 843d d201 6d3d 8834 43bd bcfd 69bc
00000390: ba7f 0e3d 1962 9cbc 7855 79bd 5739 ac3c
000003a0: aa62 b1bd bbd6 73bd 6047 89bb 57a9 9e3d
000003b0: 6904 f53c d68f 073c 76ec 423d aafb 4b3d
000003c0: c1b7 be3c 91e0 533d c4ed 8f3d 9bf5 68bd
000003d0: 0867 5fbc 0633 7b3d 1f33 a5bd 4aca 70bb
000003e0: 2ec0 afbd b220 f4bb 73df 803d 8073 83bc
000003f0: 1625 563d c474 87bd 768d 04bd 7835 b23c
-0.038336884 0.076828174 0.058815256 0.02794371 -0.0871536 -0.08661252 -0.06428143 -0.06257204
0.053254258 0.02567111 0.0009968281 -0.08621664 -0.007528103 -0.011320209 0.033557888 -0.03550718
-0.006441527 0.019851316 -0.015505152 -0.021315586 0.030425653 0.028789312 0.024326853 0.07564254
0.034021843 -0.011508958 -0.043584697 -0.020026088 0.05150738 0.042022534 -0.043241087 -0.016240666
0.026479283 0.018907014 -0.0072002336 0.08468415 0.040615752 -0.08677887 -0.018091848 -0.035106502
-0.0137068415 -0.07386149 0.08189675 -0.0040537715 -0.07298129 0.08195009 -0.027025325 -0.06964177
-0.077217504 0.008404858 -0.039368067 -0.007404223 0.07012766 0.08735072 0.06440682 0.06740954
-0.023992466 -0.062831275 0.011982874 0.009757151 0.0015113419 0.037422877 0.083488084 -0.062723406
-0.04004551 0.033864837 0.08735641 0.03496308 -0.07184674 -0.08456591 0.07531383 0.0605756
-0.03079185 0.035934515 0.03184966 -0.0059260814 -0.014003493 -0.04617069 -0.009502222 -0.0782887
-0.0005811551 -0.028349923 0.05933022 0.009282994 -0.021554615 0.02165585 -0.07860565 0.007250378
0.026990265 0.006197706 0.015193388 -0.015039027 0.040043794 0.079533234 0.07753209 -0.052027732
0.035527367 0.029758506 -0.08676585 -0.06519678 0.020394498 0.06352604 0.06759188 0.04054154
-0.015994312 0.07990906 -0.06389121 -0.06660687 -0.026300902 -0.046182077 -0.0129528865 0.023339698
0.032751597 -0.035111353 0.049795825 0.07105059 0.058912735 0.017249852 0.05017095 0.05412079
0.037300836 -0.041966353 0.08792346 -0.0864574 0.0021110326 -0.03729194 -0.037193764 -0.059072327
-0.07588108 -0.08658825 -0.013824962 -0.0098229265 0.043228522 -0.031874016 -0.082656965 0.028964275
0.0019648888 0.04180365 -0.038250465 -0.00014015932 -0.033921067 -0.055160236 0.07721629 0.020426832
0.059395045 -0.035301983 0.0822982 0.035808418 -0.04245275 0.078240685 0.016489446 0.03921982
-0.028605694 0.045073364 0.060658578 0.046160735 -0.026012855 -0.079132065 0.011082161 0.054171655
-0.044304505 -0.05102532 -0.0018957555 0.062008455 -0.000360111 0.012067631 0.014276627 -0.08504209
-0.07212188 0.05110275 0.003133192 0.0068441704 0.01051297 -0.07454346 -0.08641092 -0.035339214
-0.07636738 0.033135787 -0.06656035 0.07342204 0.019312918 0.01224795 -0.020819046 0.081148006
-0.05242092 -0.002015777 0.046440527 -0.03609489 0.057080302 -0.061415885 0.03843171 0.030517388
-0.062141128 0.08850865 0.08622248 -0.007660877 0.08429716 0.0047969446 0.037995704 0.017764404
0.08007552 0.06803884 0.020878807 -0.06289163 -0.06521938 -0.030874962 -0.03677834 0.038853515
-0.06335626 -0.0020288087 -0.042626258 0.009468822 -0.03418222 -0.021810286 0.04919023 -0.040180255
-0.064501986 0.08580492 0.053952016 0.005723886 0.025271341 -0.039251484 0.045650866 -0.067747384
0.06467259 0.057863064 -0.04765752 -0.014281686 0.03478978 -0.019089745 -0.060872525 0.021023436
-0.08661397 -0.059530955 -0.0041894168 0.07747143 0.02990933 0.008274039 0.047588788 0.049800552
0.02328098 0.051727835 0.07027772 -0.056874853 -0.013635404 0.061327957 -0.08066391 -0.0036741667
-0.08581577 -0.0074501866 0.062926196 -0.016046286 0.05228146 -0.06614068 -0.03236147 0.021754012

query_gen.3.bias f4 [128]
00000000: d863 b83c b5a1 39bd 0221 b7bd 8c69 033d
00000010: d9ef ad3d c1be 223d 16c1 b43d f2ce 1bbd
00000020: 8230 60bd 276e 843c dd62 953b 20c1 8d3c
00000030: 9cd7 a2bd acba 5f3d eb66 3c3d 0399 17bd
00000040: 958f 913d fd62 4cbd 2573 083d 7889 2dbd
00000050: b874 9abd 40fa 5cbd 9216 053d 4ccf 26bc
00000060: 7dbc 19bd ed43 95bc 4477 33bd 8464 70bd
00000070: 73b6 6f3d f336 0cbd 9f00 5fbd 7c1d f33c
00000080: 8220 953d 35b7 9f3b c806 1bbd ef29 713d
00000090: 52f2 99bc 302e 82bc 977d 89bd beef fc3c
000000a0: 7b0a bf3c 41a4 e63c c7ac 1b3d fe38 333d
000000b0: 8700 9dbd d29b 8c3d b6d7 96bd 5b35 32bb
000000c0: b25e 9d3d 1091 073d 9e1e a6bc 6e65 e33c
000000d0: e174 93bd da08 273c 266b 983d bef2 953d
000000e0: 9fde 18bd 5e05 5fbd 185c a5bc 0898 a33c
000000f0: d70e 143d 33c5 29bc d89c c6bc fa2d 7dbd
00000100: e07b 683d 5dac 2fbd 5dac 963d 4e27 6cbd
00000110: 7c11 96bc 5e44 3dbd 1fac 223d d5ad 5a3d
00000120: 1edc 953d eee9 49bd 9b04 7fbb 0f71 88bd
00000130: 64c7 863d 76a0 433d 96d7 853d a704 c1bc
00000140: 17ae 1ebd c0bd 0ebd 3320 acbd 94c0 9ebd
00000150: ad5e d63c ded2 08bc 0ec6 db3c 95fd 88bd
00000160: d75b 9cbd 6612 acbd 8ca3 0cbd 605a 7abd
00000170: dbd3 033d 5c2e 923d 0194 05bd 04dd aa3d
00000180: d27b 9ebd c8ef 9b3d 6443 c03c a3ab 23bc
00000190: e247 813d 9d8f 1c3b 61d5 c53c 397d cabc
000001a0: 2ec2 7abd 4331 3f3d 05ce 733d 1b0f 6ebd
000001b0: 1712 3bbd 6fe2 94bd fbd6 543d 368c 7ebd
000001c0: b66c debc 5f55 993d 488b 583c 1386 a1bd
000001d0: 13f7 b23d df13 a93b 32cc 91bd 407f e03b
000001e0: 7727 b13d 0f3f 933d a06f 82bd 4677 08bd
000001f0: 2f8d 173c 5e5b 4ebd a72a d13c 6c02 5dbd
0.022508547 -0.04532023 -0.089418426 0.03208308 0.08493013 0.0397327 0.08825891 -0.038039155
-0.05473376 0.016165806 0.0045589046 0.017304003 -0.079512805 0.054621384 0.045996588 -0.037011158
0.07107464 -0.04989909 0.033312935 -0.04236743 -0.075417936 -0.053949594 0.032492228 -0.010181259
-0.037533272 -0.018220866 -0.043814912 -0.05868961 0.058523607 -0.03423209 -0.05444395 0.029677145
0.07281591 0.004874135 -0.037848264 0.05887788 -0.018792305 -0.015891165 -0.067134075 0.030876037
0.023320427 0.028154494 0.03800657 0.043755524 -0.07666116 0.06865658 -0.07365362 -0.0027192447
0.07684077 0.033097327 -0.020278271 0.027758326 -0.07200027 0.0101949815 0.07442312 0.0732169
-0.037321683 -0.054448478 -0.020185515 0.019969955 0.036146965 -0.010361957 -0.02424471 -0.061811425
0.05675876 -0.042888988 0.073570944 -0.05765467 -0.018318884 -0.04620778 0.03971493 0.053388435
0.07317375 -0.04929536 -0.0038912657 -0.06662189 0.065809995 0.04776045 0.065352604 -0.023561789
-0.038740244 -0.03484893 -0.08404579 -0.07751575 0.026168192 -0.008351056 0.026827838 -0.06688992
-0.076347046 -0.08401947 -0.034335658 -0.061121345 0.032184463 0.071377486 -0.03261185 0.08342937
-0.077384606 0.07614094 0.023469634 -0.009989652 0.06312539 0.002388931 0.024149599 -0.024717914
-0.06122034 0.04667784 0.059522647 -0.058119874 -0.04567155 -0.07269751 0.051962834 -0.062145434
-0.027151447 0.07486986 0.013216801 -0.07886901 0.08738532 0.0051598395 -0.07119025 0.006851107
0.086501054 0.07189762 -0.06368947 -0.033316873 0.009249969 -0.050380103 0.025533034 -0.053957388

attention.in_proj_weight f4 [96, 32]
00000000: c7c9 5e3d c55a 45be 5c5b d13c 5722 aa3d
00000010: f832 03bd da29 4b3d 9118 213e 01ee d93d
00000020: cc57 85bd 6284 90bd a891 093e 94b0 583e
00000030: fb2d 8ebd 25cb 20be 9741 03bd 06a7 a2bd
00000040: df2b 5b3e dad3 69bd 595f 4bbe 418e 803d
00000050: e444 4fbe c789 00be 7753 113e ce1e 5abe
00000060: 97f2 19be 1442 1c3c 8a91 12be 1aeb 92bd
00000070: 99c5 d3bd 725a 543e d051 3cbe 57c6 ef3d
00000080: e442 63bd ca98 033e 5ee8 45be c72e 273e
00000090: acfe 4fbe 9199 3c3e 476a b0bd 95f8 ee3c
000000a0: a100 cb3d 5d79 0e3e 7e26 413e 5da1 093e
000000b0: 8c8a 9fbd 84e1 3d3e e07e 043e f905 1c3e
000000c0: 8a0c 573e d100 c8bd ed15 ba3c 47db c3bd
000000d0: cc61 8bbb 6f15 5a3e 1def 04be 9070 d0bd
000000e0: 9574 243e f890 6bbd d14c 393e 3ae2 80bd
000000f0: 4931 8bbd e086 3fbc e63d acbd 28d0 063d
00000100: 62bc dd3d 9214 303d 0d16 5c3e f234 5dbe
00000110: df95 27be b6df 9dbd d205 06be d51e a9bc
00000120: e2c9 fa3c 254e b6bd 6ac1 0f3e 5c0b 2ebe
00000130: d4bd 813d 4bcb 3ebe 32a0 44bd 0b97 15be
00000140: 158c 26be 3dd5 163e 6745 223e e98f 53be
00000150: 1272 573e cb20 8cbd 07de 35bd 97de 1a3e
00000160: a1c7 8f3c 1308 2c3e 285c 42be 6392 0d3e
00000170: d6d9 ea3d 3385 22be c2fd 1b3e 864c 54bd
00000180: fe66 cd3c 427a 0dbe d741 2c3e f6f2 86bb
00000190: 11a5 42be bad7 b63c 33b0 ffbd acb9 0e3e
000001a0: 52ed 0a3d 0358 37be c267 51be 1eba e1bd
000001b0: 874d 4abe 162a 823d 0dab 44bd 897a c03d
000001c0: 3443 08be cbc2 313e 1932 783c e41e c13d
000001d0: ded9 193d bfa2 3f3d 97af 8b3d 8a91 dabd
000001e0: e606 08be ed08 ed3d 9afe e1bd 573f d4bd
000001f0: 87e0 b83d f71f 953d 0ed4 4a3e 0671 8f3d
00000200: 2003 b93c 277d 2b3e f1a5 aebc 7e35 223e
00000210: 36f7 dfbb fb87 efba b394 41be c682 9cbd
00000220: 093e 3bbe 2b2d d13d a0ab 09be 555d 3d3e
00000230: 1601 8d3c b7da 933d 46e4 d0bd 6f6c 2e3e
00000240: 7b5a 2d3d 50c1 053e 512f 12be edb7 073e
00000250: e29f 3fbe 1b09 bf3d bba5 04bc 8c86 87bd
00000260: a2de 2b3e fe48 c03c cdfd 0ebe cab9 473e
00000270: fd5e 0abe 10e7 99bd d1de 9abc df7c 0b3e
00000280: 176c 45be 6636 bbbd 8cf3 103d 3cf7 573e
00000290: 7efc 653c a14c 583e d670 263e c5d7 3bbd
000002a0: ba65 37bd caf3 67bd 054a bebd dbb0 573e
000002b0: 1edc f13c a516 36be 7429 4bbe 34e9 6fbd
000002c0: b7b6 a4bd 726e 6d3d ed13 4c3e 0d9e 54be
000002d0: 9680 1d3e 790f d1bd d3b7 333e d715 5a3e
000002e0: 9056 69bc 9914 433e 1057 ce3d b391 bebc
000002f0: b106 edbb eb5a 20be bc5b 02bc cd92 b0bd
00000300: 2c22 e5bd cc6b c4bd 6335 423e 06ec f73b
00000310: c201 19be 870b c5bd ba5f 07be 0fdc 40be
00000320: b4e1 d43d aafc 5c3d 01b7 55be fb38 523c
00000330: 2df2 ce3d a08c 8a3c 9a28 243e b362 683d
00000340: bef2 efbd 0987 763d 4c35 863d 7183 ad3d
00000350: 2fc6 d03d 0ae2 29be 6acc 533e a5ac b7bd
00000360: 7683 97bb 0315 0c3e 96f2 523e 8bc0 eb3d
00000370: c041 b1bc a56e 46be 4a49 8c3b 7575 c5bd
00000380: a125 883d 68cc 413e 0948 0dbc 0382 9cbd
00000390: c968 f63d 8388 4cbe ca16 e0bc 9cb8 6ebb
000003a0: dfc6 42be 8249 86bd 00b3 f23d 9a47 233e
000003b0: eded 663d b078 fe3d 76c8 023b 485e 92bd
000003c0: 0c1f d33d a92b 373c 54a6 d13d f8fe 2b3e
000003d0: 5778 9a3c 3a93 573e 85ab 1e3c 79a7 1c3e
000003e0: 75fa 4ebe c713 31be 8423 42be 8e56 0abe
000003f0: 25d8 37be b589 35be 3f67 c43d e665 12be
0.05439165 -0.19272907 0.025556259 0.08307331 -0.03203103 0.04960046 0.15732028 0.10641099
-0.065108865 -0.070565 0.1343447 0.21161109 -0.06942364 -0.15702493 -0.032044973 -0.079420134
0.21403454 -0.057086803 -0.19860591 0.06277133 -0.20241123 -0.12552558 0.14191996 -0.21300814
-0.15033947 0.009537239 -0.14313331 -0.07173748 -0.10340423 0.20737627 -0.18390584 0.11707752
-0.055483714 0.12851253 -0.19326922 0.16326438 -0.20311993 0.18417956 -0.08614021 0.029171268
0.09912229 0.13913484 0.1886234 0.13440461 -0.077900976 0.18543059 0.12939024 0.15236653
0.21000877 -0.09765781 0.022715533 -0.09563308 -0.0042536017 0.21297239 -0.1298184 -0.101777196
0.16060098 -0.0575113 0.1809571 -0.06293149 -0.0679651 -0.011689872 -0.08410244 0.032913357
0.10826947 0.042988367 0.21492787 -0.21602228 -0.16365765 -0.07708685 -0.13088158 -0.020644585
0.030613843 -0.08901624 0.14038625 -0.16996521 0.06335035 -0.18632238 -0.048004337 -0.146084
-0.16264375 0.14729781 0.15846787 -0.20660366 0.21039608 -0.06842192 -0.044401195 0.15123974
0.017551245 0.16799955 -0.18980467 0.13825373 0.1146733 -0.15871124 0.1523352 -0.05183079
0.025073525 -0.13816169 0.16821991 -0.0041183187 -0.1900828 0.022319663 -0.12484779 0.13938016
0.033917733 -0.17904668 -0.20449737 -0.11021827 -0.19756137 0.063556835 -0.04801469 0.09398372
-0.13306886 0.17359464 0.015148663 0.0942972 0.03756129 0.046786066 0.068206005 -0.106722906
-0.13283882 0.11573968 -0.110348895 -0.103636436 0.090272 0.072814874 0.19807455 0.070039794
0.022584498 0.1674696 -0.021319361 0.15840718 -0.0068348898 -0.0018274778 -0.1890438 -0.076421306
-0.18285383 0.10213693 -0.13444376 0.18492635 0.017212432 0.07219451 -0.1019979 0.17033552
0.042322617 0.13062024 -0.14275862 0.13253756 -0.18713334 0.093279086 -0.008096154 -0.0661746
0.16784146 0.023472305 -0.13964005 0.19504467 -0.13512798 -0.07514775 -0.018905075 0.13621853
-0.19279514 -0.09141235 0.035388514 0.21090406 0.01403725 0.21122982 0.16253981 -0.04586007
-0.04477475 -0.05662898 -0.09291462 0.21063559 0.029523905 -0.17782076 -0.19840032 -0.05857201
-0.080426626 0.057966657 0.19929476 -0.20763417 0.15381083 -0.10208029 0.17550592 0.21297394
-0.0142418295 0.19050826 0.100751996 -0.023262834 -0.0072334637 -0.15659682 -0.0079564415 -0.0862175
-0.111881584 -0.09590873 0.18965678 0.007565978 -0.14942077 -0.09621339 -0.1322011 -0.18833946
0.10394612 0.053951897 -0.20870592 0.012830968 0.10104785 0.016912758 0.16031113 0.056734752
-0.11716221 0.060187373 0.06553134 0.08472336 0.101940505 -0.16590133 0.20683447 -0.08968476
-0.0046238257 0.1367989 0.20600352 0.11511334 -0.021637797 -0.19378145 0.0042811977 -0.09641544
0.06647802 0.18925631 -0.008623132 -0.07641985 0.12031705 -0.1997395 -0.027354617 -0.0036425954
-0.19021176 -0.06556989 0.11850548 0.15945283 0.056379247 0.12425363 0.001995591 -0.07146889
0.10308656 0.011179843 0.10236803 0.16796482 0.01885621 0.21052256 0.009684448 0.15298261
-0.2021273 -0.172927 -0.1895886 -0.1350958 -0.17953546 -0.17728312 0.09590005 -0.14296684

attention.in_proj_bias f4 [96]
00000000: 1354 8838 05ed f9b9 f47b 4739 7e64 5039
00000010: 6cf8 09ba 9c46 f939 2a4d 9fb9 84ae bc39
00000020: 9b6c c4b9 d25b b2b9 81b0 bc36 a119 053a
00000030: c68e 65b9 c4a6 df3a 75fa 6eba 208e 0fbb
00000040: fbf6 41bb bf2d 32bb 5aac d7ba f526 0fbb
00000050: 2723 caba e9d8 f939 7b08 e9ba 4cd0 263b
00000060: d55d 953a 2edf 01ba 03e9 5a39 b142 16ba
00000070: a023 af3a 0ec4 61b8 4df4 1e3a 8a7e b13a
00000080: 6d89 4fb3 9143 8b32 24e6 5933 ee59 f032
00000090: 3e36 d2b2 5d3d f732 acc0 1532 f685 3432
000000a0: 301a 4132 0d60 d5b1 e850 9c31 a0bf 63b2
000000b0: f134 16b1 4402 8032 d2cd eb32 c414 d1b1
000000c0: 6102 4fb3 4ec0 a2b2 9338 04b3 f8c0 1833
000000d0: 675f 23b2 4b1d 0c33 9149 fbb0 cbf9 0ab2
000000e0: 57cd 3931 0e11 f5b2 4f41 3533 8844 0633
000000f0: 2ad1 e3b1 5177 2e31 074c 8cb3 02b4 f232
00000100: 41b5 aeb9 d750 b6ba 21f7 9c39 d581 43ba
00000110: b692 a7b8 774c 403a d316 ed39 bbaa 28ba
00000120: 7a35 f0ba c144 17bb 1cb6 9eb9 70bf bfba
00000130: cb44 893a a2cc ff3a d6dc 5eba cb11 bb3a
00000140: b9d8 54b9 bcfb 53ba c56e e0ba c754 f2b9
00000150: 2c33 523a 3f32 463b 985e 213a 9bdc ecba
00000160: d8b5 b1b9 6ec3 aa36 4da5 25ba 4631 b3ba
00000170: 247e 12bb a099 00bb bdff 033b 621a 7439
6.5006454e-05 -0.00047669574 0.00019024295 0.00019873862 -0.0005263153 0.0004754559 -0.00030384335 0.0003598818
-0.0003746495 -0.00034019217 5.6233844e-06 0.00050773664 -0.00021892329 0.001706325 -0.00091163005 -0.0021904781
-0.0029596675 -0.0027187911 -0.0016454563 -0.0021843289 -0.0015421853 0.00047654592 -0.0017779017 0.0025453744
0.0011395762 -0.0004954216 0.00020876904 -0.00057319837 0.0013362058 -5.382677e-05 0.00060636253 0.001354174
-4.832093e-08 1.6212455e-08 5.073356e-08 2.7980573e-08 -2.4471884e-08 2.878249e-08 8.71675e-09 1.0507838e-08
1.1240033e-08 -6.2100356e-09 4.5493955e-09 -1.32567095e-08 -2.1857967e-09 1.4902191e-08 2.7451197e-08 -6.0850613e-09
-4.8198107e-08 -1.8946732e-08 -3.07851e-08 3.5565762e-08 -9.509541e-09 3.2622932e-08 -1.8283562e-09 -8.0894536e-09
2.7037765e-09 -2.852951e-08 4.2201744e-08 3.1261635e-08 -6.6303487e-09 2.5388156e-09 -6.533087e-08 2.8254366e-08
-0.0003332291 -0.001390959 0.00029938764 -0.0007458006 -7.9905076e-05 0.0007335613 0.00045221168 -0.0006434132
-0.0018326484 -0.0023081752 -0.0003027179 -0.0014629196 0.0010472772 0.0019515941 -0.0008501535 0.001427227
-0.00020298631 -0.00080865226 -0.0017122856 -0.00046221 0.00080184895 0.0030242351 0.0006155758 -0.0018071117
-0.00033895555 5.089146e-06 -0.0006318882 -0.0013671301 -0.0022353018 -0.0019622818 0.0020141446 0.00023279482
