embeddings/models/d02705ae15c73df10a399472d52e62fc85130d16/embedding_model.pt (torch_old, 37082 bytes, 12 tensors)

gcn_1.weight f4 [8, 32]
0	0x3d53f424	0.051746503
1	0x3e043fe1	0.12914993
2	0xbe1eb774	-0.1549967
3	0x3deb837e	0.114996895
4	0x3d34c610	0.0441342
5	0xbe0c7265	-0.13715513
6	0xbd570438	-0.052494258
7	0xbcf35878	-0.029705271
8	0xbe04f322	-0.12983373
9	0xbc273620	-0.0102057755
10	0xbc4eac50	-0.012614325
11	0xbde594cb	-0.11210021
12	0xbde48730	-0.111585975
13	0x3bfe1500	0.0077539682
14	0x3e1a0b73	0.1504343
15	0xbd038ca4	-0.032116547
16	0xbc3cb8b0	-0.011518642
17	0x3dd0ace6	0.10189228
18	0xbe2b8f9f	-0.16754006
19	0x3d176118	0.03695783
20	0x3dd42e86	0.10360436
21	0x3d371f84	0.04470779
22	0xbdfc015c	-0.12304947
23	0x3c6cc5a0	0.014451414
24	0x3d2c412c	0.04205434
25	0xbe1105a8	-0.14162314
26	0xbc289360	-0.010289043
27	0x3e09424b	0.13404195
28	0xbd57d62a	-0.052694477
29	0xbdbaf5a9	-0.09128887
30	0xbd69244c	-0.05691938
31	0xbb533000	-0.0032224655
32	0xbdae84be	-0.08521412
33	0xbe347c45	-0.1762553
34	0xbde7fe6b	-0.11327823
35	0x3e1342e7	0.1438099
36	0x3de797ae	0.113082275
37	0xbdf3ee1a	-0.11910649
38	0x3df573aa	0.11984952
39	0x3deaf612	0.114727154
40	0x3df0836a	0.11743815
41	0xbda0812e	-0.07837139
42	0xbdae9712	-0.08524908
43	0xbccb48c0	-0.024814963
44	0x3dfa58be	0.122239575
45	0x3d7c0470	0.06152767
46	0xbe32f956	-0.17477927
47	0x3e1a79a3	0.15085463
48	0x3e04424b	0.12915914
49	0xbd538cc0	-0.0516479
50	0x3d54f934	0.05199547
51	0x3deb88ba	0.11500688
52	0xbcf2f6c8	-0.02965869
53	0x3d9291b4	0.07156697
54	0xbd9c9094	-0.076447636
55	0xbdad4a4c	-0.08461437
56	0xbe299eea	-0.16564527
57	0xbd970fa6	-0.073760316
58	0xbe2b79a7	-0.16745625
59	0xbd62aa4e	-0.055338196
60	0x3db77d5a	0.08959456
61	0x3da456ce	0.08024369
62	0x3e233705	0.15938957
63	0x3c2d5850	0.010580137
64	0x3d11c798	0.035590738
65	0x3d7285b4	0.05920954
66	0x3d5bd400	0.053668976
67	0xbdc11173	-0.09427156
68	0xbe2a2ca8	-0.16618598
69	0xbd39b4c0	-0.045338392
70	0x3e034481	0.12819101
71	0x3db1d03a	0.08682294
72	0x3d86baa2	0.06578566
73	0xbda227e3	-0.07917764
74	0xbe312692	-0.1729987
75	0xbce82550	-0.028338104
76	0xbd8fb9a0	-0.07017827
77	0xbd5c0dea	-0.053724207
78	0x3e0358eb	0.12826888
79	0xbe2ee988	-0.17081273
80	0xbda4728d	-0.08029661
81	0xbdc847ce	-0.09779321
82	0x3d1bf8b0	0.038078964
83	0xbb945400	-0.004526615
84	0x3c28d6d0	0.010305122
85	0x3dfab7b6	0.12242071
86	0x3ce74428	0.028230742
87	0xbe30e51e	-0.17274901
88	0x3ddbd762	0.107344404
89	0x3dc250ba	0.094880536
90	0xbe06bdc6	-0.1315833
91	0xbe0b743c	-0.13618559
92	0x3b2e8580	0.0026629865
93	0x3d1a3494	0.0376478
94	0x3e13cb05	0.14432915
95	0xbdef8c99	-0.11696739
96	0xbe3143fc	-0.1731109
97	0x3e24769f	0.16060875
98	0x3dfc7042	0.12326099
99	0xbdfd754c	-0.12375888
100	0x3d9aca26	0.07558088
101	0xbcd2d468	-0.025736049
102	0xbdb1ecf8	-0.08687776
103	0xbdfd5c40	-0.12371111
104	0xbd922dbf	-0.071376316
105	0xbb29a480	-0.0025885403
106	0xbdf489c1	-0.11940337
107	0xbcbbc7b8	-0.022922382
108	0xbdad2fce	-0.08456384
109	0x3e34e97f	0.17667197
110	0xbc078100	-0.008270502
111	0x3e001fd1	0.12512137
112	0x3d33be44	0.043882623
113	0x3ddf8026	0.10913114
114	0x3e111939	0.14169778
115	0xbd9c056f	-0.07618224
116	0x3cf72bb8	0.030172214
117	0xbce5cb18	-0.028050944
118	0xbcc163b8	-0.02360712
119	0x3e0ca8d9	0.13736285
120	0x3e33c89b	0.17556994
121	0xbdb33615	-0.0875055
122	0xbd9e7fc1	-0.07739211
123	0x3e02e43f	0.12782381
124	0x3d55967c	0.052145466
125	0x3e12f2a1	0.14350368
126	0xbce36390	-0.027757436
127	0xbda3b57a	-0.07993598
128	0x3d4e1e14	0.050321653
129	0xbd0a826c	-0.033815786
130	0x3da93492	0.0826198
131	0xbd92d13c	-0.071688145
132	0x3d0b78fc	0.034050927
133	0x3d60d0e8	0.05488673
134	0x3e0e2fe3	0.13885455
135	0x3e1e1bb1	0.15440251
136	0xbe09e1c1	-0.13465025
137	0xbb4c5440	-0.0031178147
138	0x3d71905c	0.058975562
139	0x3ddb3bb6	0.10704748
140	0xbdea694d	-0.11445866
141	0xbcef7798	-0.029231831
142	0x3c02a5d0	0.007974103
143	0x3d8dff4c	0.0693346
144	0x3d104f30	0.03523177
145	0xbda21a16	-0.07915132
146	0xbdc3c902	-0.095598236
147	0xbdbf1e30	-0.0933193
148	0x3d9e858a	0.07740314
149	0xbc7ff610	-0.015622631
150	0x3df8ddaa	0.12151654
151	0xbdf72ca2	-0.1206906
152	0xbd5980ae	-0.053101234
153	0xbe2a30a0	-0.16620111
154	0x3e28e5eb	0.16493957
155	0xbd1177fc	-0.035514817
156	0xbd8f42ab	-0.06995138
157	0xbdb8fdc5	-0.09032778
158	0x3c2d1fa0	0.010566622
159	0x3de6261e	0.11237739
160	0x3c7d9d10	0.015479341
161	0xbda84341	-0.08215953
162	0xbcf116e0	-0.029429853
163	0x3d4d7464	0.050159827
164	0x3dc182ee	0.09448801
165	0xbdba9ea4	-0.091122895
166	0xbdba08ae	-0.09083687
167	0x3d481544	0.048848405
168	0xbd843378	-0.064551294
169	0xbd445264	-0.047930136
170	0x3dfdf25e	0.123997435
171	0x3c585e00	0.013206005
172	0x3dbd4a62	0.09242703
173	0x3e03daf9	0.128765
174	0xbdadf971	-0.08494843
175	0x3cd1db68	0.025617316
176	0x3dc2ea5e	0.09517358
177	0xbcb7ba70	-0.022427768
178	0x3e11700b	0.14202897
179	0x3d7b3a9c	0.06133519
180	0xbe231490	-0.15925813
181	0xbe05d109	-0.13068022
182	0xba95ac00	-0.0011419058
183	0xbe21db26	-0.15806255
184	0x3e157f4b	0.1459934
185	0xbe267467	-0.16255341
186	0x3e20589f	0.15658806
187	0x3dec9512	0.115518704
188	0xbd6ddcf6	-0.058072053
189	0xbdb9cdbf	-0.09072446
190	0x3d7dfb88	0.062007457
191	0x3d47038c	0.048587367
192	0xbd788a48	-0.06067875
193	0xbe18d9d7	-0.1492685
194	0xbe0cec03	-0.13761906
195	0xbcf24198	-0.029572293
196	0xbe25b197	-0.16181026
197	0xbdb6d6a2	-0.08927657
198	0x3ddf04e6	0.10889606
199	0xbe1d91fd	-0.15387721
200	0x3dd244a6	0.10267
201	0x3d841058	0.0644843
202	0x3dcaf31a	0.09909649
203	0xbd05c190	-0.0326553
204	0x3dd1bafa	0.10240741
205	0x3dfbadee	0.12289034
206	0xbe319072	-0.17340258
207	0x3d09e22c	0.03366296
208	0xbd2b5278	-0.041826695
209	0xbdb1a201	-0.08673478
210	0x3ca85fe8	0.020553544
211	0x3e34a163	0.17639689
212	0x3e207109	0.1566812
213	0xbdd7de68	-0.105404675
214	0xbdccac3f	-0.09993791
215	0x3d034194	0.032044962
216	0xbd3ddeb8	-0.04635498
217	0xbe1e0765	-0.15432508
218	0x3dceeaca	0.10103376
219	0x3e194949	0.14969362
220	0x3d16de64	0.036833182
221	0xbe28cf5e	-0.16485354
222	0xbd91cdbf	-0.07119321
223	0x3e24a027	0.16076718
224	0x3da95846	0.0826879
225	0x3df9bbf6	0.12194054
226	0xbdfc7439	-0.12326855
227	0x3ca88d78	0.02057527
228	0xbd0ac528	-0.03387943
229	0xbd5f705e	-0.05455052
230	0x3d1a5f68	0.037688643
231	0x3e216dc5	0.1576453
232	0x3dd6554a	0.10465486
233	0xbdec3cc6	-0.11535029
234	0x3da60e2a	0.0810817
235	0xbd87f552	-0.06638588
236	0xbd6d1cbe	-0.05788874
237	0x3e05ba7d	0.13059421
238	0x3e1d595b	0.15366118
239	0x3d59d108	0.053177863
240	0xbe13b163	-0.14423136
241	0xbda4accd	-0.08040772
242	0xbe323715	-0.17403825
243	0x3bfb5400	0.0076699257
244	0x3c0a8700	0.008455038
245	0x3d2eca38	0.04267332
246	0xbdc30499	-0.09522361
247	0xbd8412a4	-0.06448868
248	0x3dea817e	0.1145048
249	0x3dc152de	0.09439634
250	0xbdf71c44	-0.12065938
251	0x3e04010b	0.12891023
252	0x3dd70776	0.1049947
253	0xbe141bfe	-0.14463803
254	0x3dc6cb66	0.09706764
255	0x3dcf8dfa	0.10134502

gcn_1.bias f4 [32]
0	0xbe20da6b	-0.1570832
1	0x3e149393	0.1450942
2	0x3d6f6820	0.05844891
3	0x3d2cd6fc	0.042197213
4	0x3ce8f510	0.028437167
5	0xbc838ce0	-0.016058385
6	0xbdfce702	-0.12348749
7	0xbcc1f5d8	-0.023676798
8	0x3e04e5f9	0.12978353
9	0x3afc5a00	0.0019252896
10	0xbd93d962	-0.07219197
11	0x3ddbdf22	0.107359186
12	0x3dc1dc2e	0.09465824
13	0xbd2b7d5c	-0.0418676
14	0x3d977542	0.07395412
15	0x3dc7fcf2	0.09765042
16	0x3db9a232	0.090641394
17	0x3d0252f4	0.03181739
18	0xbcaafe30	-0.02087316
19	0xbd95e504	-0.07319072
20	0x3cdbcd00	0.02683115
21	0x3dba977a	0.09110923
22	0x3d08e184	0.033418193
23	0xbdd5fd9b	-0.10448762
24	0xbe335c00	-0.17515564
25	0xbde6ab6a	-0.112631634
26	0xbd823f91	-0.063597806
27	0x3ccd0250	0.025025517
28	0xbdf1f48b	-0.11814221
29	0x3deb9162	0.11502339
30	0x3e0dcacd	0.13846894
31	0xbd274bc0	-0.040843725

norm_1.weight f4 [32]
0	0x3f800000	1.0
1	0x3f800000	1.0
2	0x3f800000	1.0
3	0x3f800000	1.0
4	0x3f800000	1.0
5	0x3f800000	1.0
6	0x3f800000	1.0
7	0x3f800000	1.0
8	0x3f800000	1.0
9	0x3f800000	1.0
10	0x3f800000	1.0
11	0x3f800000	1.0
12	0x3f800000	1.0
13	0x3f800000	1.0
14	0x3f800000	1.0
15	0x3f800000	1.0
16	0x3f800000	1.0
17	0x3f800000	1.0
18	0x3f800000	1.0
19	0x3f800000	1.0
20	0x3f800000	1.0
21	0x3f800000	1.0
22	0x3f800000	1.0
23	0x3f800000	1.0
24	0x3f800000	1.0
25	0x3f800000	1.0
26	0x3f800000	1.0
27	0x3f800000	1.0
28	0x3f800000	1.0
29	0x3f800000	1.0
30	0x3f800000	1.0
31	0x3f800000	1.0

norm_1.bias f4 [32]
0	0x00000000	0.0
1	0x00000000	0.0
2	0x00000000	0.0
3	0x00000000	0.0
4	0x00000000	0.0
5	0x00000000	0.0
6	0x00000000	0.0
7	0x00000000	0.0
8	0x00000000	0.0
9	0x00000000	0.0
10	0x00000000	0.0
11	0x00000000	0.0
12	0x00000000	0.0
13	0x00000000	0.0
14	0x00000000	0.0
15	0x00000000	0.0
16	0x00000000	0.0
17	0x00000000	0.0
18	0x00000000	0.0
19	0x00000000	0.0
20	0x00000000	0.0
21	0x00000000	0.0
22	0x00000000	0.0
23	0x00000000	0.0
24	0x00000000	0.0
25	0x00000000	0.0
26	0x00000000	0.0
27	0x00000000	0.0
28	0x00000000	0.0
29	0x00000000	0.0
30	0x00000000	0.0
31	0x00000000	0.0

gcn_2.weight f4 [64, 64]
0	0xbb8d4180	-0.0043107867
1	0x3de66612	0.11249937
2	0x3d656f9c	0.056014642
3	0xbcfd2b58	-0.030904457
4	0x3d92b616	0.071636364
5	0xbd1238ec	-0.035698816
6	0xbd910e50	-0.07082808
7	0xbde49616	-0.11161439
8	0x3de6c506	0.11268048
9	0x3dddbabe	0.10826634
10	0xbd932ef6	-0.071866915
11	0x3d743794	0.059623316
12	0xbdac90f6	-0.084260866
13	0x3dd36c9e	0.103234515
14	0xbde16b3a	-0.1100678
15	0xbce39aa0	-0.027783692
16	0xbdf5706a	-0.11984332
17	0xbdde4a1c	-0.10853979
18	0x3d756734	0.059912875
19	0xbbf414a0	-0.0074487478
20	0x3d83725a	0.06418295
21	0xbd321da0	-0.043485284
22	0xbdc94298	-0.09827155
23	0x3ce158b8	0.027508125
24	0x3d010434	0.03149815
25	0xbdb596d0	-0.08866656
26	0xbd03ed80	-0.03220892
27	0x3de66d2e	0.11251293
28	0x3d8dbb0c	0.06920442
29	0x3ce0ee60	0.027457416
30	0x3dd85652	0.10563339
31	0xbdcf898e	-0.10133658
32	0x3d4ebfe8	0.050475985
33	0xbce0f810	-0.027462035
34	0xbcd44d18	-0.025915667
35	0xbd91f36a	-0.07126506
36	0xbdda49b8	-0.10658592
37	0xbd0a27a8	-0.033729225
38	0xbdf5680e	-0.119827375
39	0xbdb2f664	-0.087384015
40	0x3c2b6e40	0.010463297
41	0xbd83482e	-0.064102516
42	0x3df63d20	0.120233774
43	0xbba905a0	-0.0051581413
44	0xbdcf1052	-0.10110535
45	0xbdd468b4	-0.10371533
46	0xbd2e3180	-0.042527676
47	0x3d989450	0.07450163
48	0xbc034610	-0.00801231
49	0xbd90be26	-0.07067518
50	0xbd259290	-0.040422976
51	0xbdab92fa	-0.08377643
52	0xbd86de84	-0.0658541
53	0xbded3a9c	-0.115834445
54	0xbd51e718	-0.05124578
55	0x3d73af34	0.05949326
56	0x3de4143e	0.111366734
57	0xbcb2b318	-0.021813914
58	0xbdb76d86	-0.08956437
59	0x3d6c9e90	0.057768404
60	0x3ce340d0	0.027740866
61	0x3cce3818	0.025173232
62	0xbc582330	-0.013191983
63	0x3d4a4310	0.049380362
64	0x3de8f500	0.11374855
65	0x3da6daa4	0.08147171
66	0xbdd5e488	-0.104439795
67	0xbd1f79ec	-0.038934633
68	0x3d13a084	0.03604175
69	0x3bdcd200	0.006738901
70	0x3d6fc9d0	0.058542073
71	0xbd3c4814	-0.045967177
72	0xbcb8be28	-0.022551611
73	0x3db69af0	0.08916271
74	0x3dcc28ae	0.099686965
75	0x3c4a95a0	0.012364775
76	0x3d81aee4	0.06332186
77	0xbd6264e4	-0.055271998
78	0xbd5674a0	-0.052357316
79	0xbde5758a	-0.112040594
80	0x3c5faf40	0.013652623
81	0xbd0baa48	-0.03409794
82	0x3dd2bdd6	0.102901146
83	0x3dcf07d8	0.10108918
84	0xbdfe0f9c	-0.12405321
85	0xbd35d208	-0.044389755
86	0x3df95650	0.12174666
87	0x3ba1b400	0.0049347878
88	0x3d1e9e84	0.03872539
89	0xbdbd9daa	-0.09258588
90	0x3da6275a	0.081129745
91	0x3d46c02c	0.048523113
92	0xbdebb304	-0.11508754
93	0x3d9bf83e	0.07615708
94	0x3d8bd974	0.06828585
95	0x3dd34e8a	0.103177145
96	0x3da727dc	0.081618994
97	0x3d3a192c	0.045434162
98	0xbd168b48	-0.036753923
99	0xbd007980	-0.03136587
100	0x3dd08f0c	0.10183534
101	0xbbc0d5a0	-0.005884841
102	0xbc588870	-0.013216123
103	0x3d7991bc	0.06093
104	0x3d311780	0.043235302
105	0xbc79f3b0	-0.0152558535
106	0x3c2e98b0	0.010656521
107	0x3df30cb2	0.11867656
108	0x3d737df4	0.05944629
109	0x3d8bf204	0.0683327
110	0x3c9ad088	0.018898264
111	0xbbda1200	-0.006654978
112	0x3b69b940	0.0035663396
113	0xbd51c3c8	-0.051212102
114	0xbd94c226	-0.072635934
115	0x3dc0e106	0.0941792
116	0x3ddf59d8	0.10905808
117	0xbdf33f1a	-0.1187727
118	0xbc317a50	-0.010832384
119	0x3de5905a	0.112091735
120	0xbd378694	-0.044806078
121	0x3d4550a8	0.048172623
122	0x3dceec0c	0.10103616
123	0x3aa45b80	0.0012539476
124	0x3da597d2	0.08085598
125	0xbde53d08	-0.111932814
126	0x3d0187e4	0.031623736
127	0x3d80cd82	0.062891975
128	0xbd2b8690	-0.041876376
129	0xbdea0520	-0.11426759
130	0x3ddb34aa	0.10703404
131	0xbdf015d6	-0.11722915
132	0x3ccfbd70	0.025358886
133	0xbc9424e8	-0.018084005
134	0x3ca42da0	0.020041287
135	0x3c9b2098	0.01893644
136	0x3d5191a8	0.0511643
137	0x3dc70eaa	0.09719594
138	0x3c3a5b20	0.011374265
139	0x3d940ea4	0.07229355
140	0xbde3e912	-0.11128439
141	0xbb50f580	-0.003188461
142	0x3ceb0270	0.028687686
143	0x3de6c440	0.112679005
144	0xbc58eb80	-0.013239741
145	0x3d55d7d8	0.052207798
146	0x3de47754	0.111555725
147	0x3d570494	0.0524946
148	0x3d96fc36	0.07372324
149	0xbd2378b8	-0.03991005
150	0x3c5d93c0	0.013523996
151	0x3a335f00	0.0006842464
152	0x3d89ed2e	0.067346916
153	0xbdb1fa8c	-0.08690366
154	0xbd9ea0fc	-0.07745549
155	0xbd1ac674	-0.037786916
156	0xbdac76d8	-0.08421105
157	0x3dc253c2	0.09488632
158	0x3da50ed0	0.08059466
159	0xbdb80508	-0.08985335
160	0xbddfc2a2	-0.10925795
161	0x3dff77f0	0.12474048
162	0x3d790a14	0.060800627
163	0xbd9dc202	-0.0770302
164	0xbc959e88	-0.01826407
165	0xbd81a792	-0.063307896
166	0x3dd91a3e	0.106007084
167	0x3d776fd0	0.060409367
168	0x3d6dc178	0.058045834
169	0xbdb51bdc	-0.088432044
170	0x3d0a8920	0.03382218
171	0xbc94eee0	-0.01818031
172	0x3c9c2a50	0.019063145
173	0x3d50c23c	0.050966486
174	0x3d5ca318	0.053866476
175	0x3d6a4e54	0.057203606
176	0x3ca7ff90	0.020507604
177	0xbdd34a74	-0.10316935
178	0x3ca7ac70	0.020467967
179	0xbde5b6b4	-0.112164885
180	0x3db5de40	0.088802814
181	0xbd2d2b34	-0.04227753
182	0xbd2d56f0	-0.04231924
183	0xbdc7b1f0	-0.09750736
184	0x3bf6dc40	0.00753358
185	0x3d0a11dc	0.03370844
186	0x3dd30bd4	0.103049904
187	0xbdbcc72e	-0.09217678
188	0x3d8b996a	0.06816371
189	0xbc997ed0	-0.018737227
190	0xbd3f4ca4	-0.04670395
191	0x3db77708	0.0895825
192	0x3decddaa	0.115657166
193	0xbdf05506	-0.11734967
194	0x3de77eac	0.113034576
195	0xbcaf2dd0	-0.02138415
196	0x3de225b8	0.110423505
197	0xb9a78a00	-0.0003195554
198	0xbd84932a	-0.06473382
199	0xbde1fae0	-0.11034179
200	0x3decbeb6	0.11559813
201	0x3d3e1478	0.04640624
202	0xbd309d98	-0.043119043
203	0x3dd991ae	0.10623489
204	0x3d85de34	0.065365225
205	0x3b723780	0.003695935
206	0xbdb8cbf6	-0.090232775
207	0xbcb42ab8	-0.021993026
208	0xbc9259f0	-0.017865151
209	0xbbd26b20	-0.0064214617
210	0x3ce42378	0.027848944
211	0xbd4384fc	-0.047734246
212	0xbddc4942	-0.1075616
213	0x3cb64170	0.022248
214	0xbb97e7c0	-0.004635781
215	0x3dd21406	0.102577254
216	0xbdff4644	-0.12464574
217	0x3d8b5fb8	0.06805366
218	0x3d8303f6	0.0639724
219	0x3d555e5c	0.05209194
220	0x3d38d958	0.04512915
221	0x3cabcf78	0.020972952
222	0xbdb3c120	-0.0877707
223	0x3d5da934	0.054116443
224	0x3d688054	0.05676301
225	0xbcb425a8	-0.021990612
226	0x3d2c1e70	0.042021215
227	0xb79de000	-1.8820167e-05
228	0x3dc70c98	0.09719199
229	0x3dd17928	0.10228187
230	0xbd9137ae	-0.07090698
231	0x3deae2a6	0.11469011
232	0xbda6b294	-0.0813953
233	0xbdbcda04	-0.09221271
234	0x3df268ce	0.11836396
235	0x3dbb228e	0.0913745
236	0xbccbe6b8	-0.024890289
237	0xbdedf5e2	-0.11619164
238	0xbcae8b80	-0.021306753
239	0xbcd3a360	-0.02583474
240	0x3c15d620	0.00914529
241	0x3c98f1f8	0.018670067
242	0x3d1297f4	0.035789445
243	0x3d71801c	0.058960065
244	0xbd8f4dfc	-0.06997296
245	0x3d6d079c	0.057868585
246	0xbb98df80	-0.004665315
247	0x3db271fe	0.087131485
248	0xbd6d0210	-0.057863295
249	0x3dd18a16	0.10231416
250	0xbd8193f0	-0.06327045
251	0x3d6454dc	0.05574499
252	0xbd8644da	-0.06556101
253	0x3d539d08	0.05166343
254	0xbdd777c6	-0.10520892
255	0xbdaa4f0a	-0.08315857

gcn_2.bias f4 [64]
0	0xbc579180	-0.0131572485
1	0x3d818656	0.06324451
2	0xbdd2219c	-0.10260317
3	0x3c78fdb0	0.015197203
4	0xbd942b32	-0.07234801
5	0xbda6a834	-0.08137551
6	0xbd31d45c	-0.043415412
7	0x3dc5141e	0.09622978
8	0x3d7c310c	0.061570212
9	0xbdc158da	-0.09440775
10	0xbd3334c0	-0.04375148
11	0x3d89ec04	0.067344695
12	0xbd720a7c	-0.05909203
13	0xbd170670	-0.036871374
14	0xbd2a2938	-0.041543216
15	0x3d753d5c	0.05987297
16	0xbdc16be0	-0.09444404
17	0xbdd45d26	-0.10369329
18	0xbdf7a1b2	-0.12091388
19	0x3dbdfafc	0.09276387
20	0x3de302a2	0.110844865
21	0x3cd03680	0.025416613
22	0x3d508138	0.050904483
23	0xbcc2c3d8	-0.023775026
24	0x3dc24492	0.09485735
25	0x3de6fb04	0.11278346
26	0x3de7b86c	0.113144726
27	0xbd86583c	-0.06559798
28	0x3da3f8b4	0.08006421
29	0x3dc9f580	0.098612785
30	0xbcd51328	-0.026010111
31	0x3de0c76e	0.10975538
32	0xbd0485ec	-0.03235428
33	0x3bc2cb60	0.0059446543
34	0xbc41e740	-0.011834919
35	0x3dc17b1a	0.09447308
36	0x3d367748	0.04454735
37	0x3d1fbc80	0.038998127
38	0xbc3f7230	-0.011684939
39	0xbd496894	-0.049172
40	0x3dbbba3e	0.09166382
41	0x3dcfe6d4	0.10151449
42	0x3dc7a606	0.09748463
43	0xbd27a218	-0.04092607
44	0xbdf3ab32	-0.11897887
45	0x3dadd546	0.08487944
46	0x3d8c4342	0.06848766
47	0x3c212130	0.009834573
48	0x3d72235c	0.059115753
49	0x3c431400	0.011906624
50	0xbdb5c0f8	-0.088746965
51	0xbda8a640	-0.08234835
52	0xbd547774	-0.051871732
53	0xbd3797c8	-0.044822484
54	0x3daf6750	0.08564627
55	0xbd92e2b4	-0.071721464
56	0x3d6cfe88	0.057859927
57	0xbdf70f82	-0.12063505
58	0xbde24f34	-0.11050263
59	0xbc6b65b0	-0.014367506
60	0xbd3c667c	-0.045996174
61	0xbd1b6070	-0.037933767
62	0xbbe27920	-0.006911412
63	0x3d271fe8	0.040801913

norm_2.weight f4 [64]
0	0x3f800000	1.0
1	0x3f800000	1.0
2	0x3f800000	1.0
3	0x3f800000	1.0
4	0x3f800000	1.0
5	0x3f800000	1.0
6	0x3f800000	1.0
7	0x3f800000	1.0
8	0x3f800000	1.0
9	0x3f800000	1.0
10	0x3f800000	1.0
11	0x3f800000	1.0
12	0x3f800000	1.0
13	0x3f800000	1.0
14	0x3f800000	1.0
15	0x3f800000	1.0
16	0x3f800000	1.0
17	0x3f800000	1.0
18	0x3f800000	1.0
19	0x3f800000	1.0
20	0x3f800000	1.0
21	0x3f800000	1.0
22	0x3f800000	1.0
23	0x3f800000	1.0
24	0x3f800000	1.0
25	0x3f800000	1.0
26	0x3f800000	1.0
27	0x3f800000	1.0
28	0x3f800000	1.0
29	0x3f800000	1.0
30	0x3f800000	1.0
31	0x3f800000	1.0
32	0x3f800000	1.0
33	0x3f800000	1.0
34	0x3f800000	1.0
35	0x3f800000	1.0
36	0x3f800000	1.0
37	0x3f800000	1.0
38	0x3f800000	1.0
39	0x3f800000	1.0
40	0x3f800000	1.0
41	0x3f800000	1.0
42	0x3f800000	1.0
43	0x3f800000	1.0
44	0x3f800000	1.0
45	0x3f800000	1.0
46	0x3f800000	1.0
47	0x3f800000	1.0
48	0x3f800000	1.0
49	0x3f800000	1.0
50	0x3f800000	1.0
51	0x3f800000	1.0
52	0x3f800000	1.0
53	0x3f800000	1.0
54	0x3f800000	1.0
55	0x3f800000	1.0
56	0x3f800000	1.0
57	0x3f800000	1.0
58	0x3f800000	1.0
59	0x3f800000	1.0
60	0x3f800000	1.0
61	0x3f800000	1.0
62	0x3f800000	1.0
63	0x3f800000	1.0

norm_2.bias f4 [64]
0	0x00000000	0.0
1	0x00000000	0.0
2	0x00000000	0.0
3	0x00000000	0.0
4	0x00000000	0.0
5	0x00000000	0.0
6	0x00000000	0.0
7	0x00000000	0.0
8	0x00000000	0.0
9	0x00000000	0.0
10	0x00000000	0.0
11	0x00000000	0.0
12	0x00000000	0.0
13	0x00000000	0.0
14	0x00000000	0.0
15	0x00000000	0.0
16	0x00000000	0.0
17	0x00000000	0.0
18	0x00000000	0.0
19	0x00000000	0.0
20	0x00000000	0.0
21	0x00000000	0.0
22	0x00000000	0.0
23	0x00000000	0.0
24	0x00000000	0.0
25	0x00000000	0.0
26	0x00000000	0.0
27	0x00000000	0.0
28	0x00000000	0.0
29	0x00000000	0.0
30	0x00000000	0.0
31	0x00000000	0.0
32	0x00000000	0.0
33	0x00000000	0.0
34	0x00000000	0.0
35	0x00000000	0.0
36	0x00000000	0.0
37	0x00000000	0.0
38	0x00000000	0.0
39	0x00000000	0.0
40	0x00000000	0.0
41	0x00000000	0.0
42	0x00000000	0.0
43	0x00000000	0.0
44	0x00000000	0.0
45	0x00000000	0.0
46	0x00000000	0.0
47	0x00000000	0.0
48	0x00000000	0.0
49	0x00000000	0.0
50	0x00000000	0.0
51	0x00000000	0.0
52	0x00000000	0.0
53	0x00000000	0.0
54	0x00000000	0.0
55	0x00000000	0.0
56	0x00000000	0.0
57	0x00000000	0.0
58	0x00000000	0.0
59	0x00000000	0.0
60	0x00000000	0.0
61	0x00000000	0.0
62	0x00000000	0.0
63	0x00000000	0.0

gcn_3.weight f4 [128, 32]
0	0x3d076f20	0.03306496
1	0xba99a580	-0.0011722296
2	0x3dc67086	0.09689431
3	0x3ccffe98	0.025389954
4	0xbd0c94ec	-0.03432171
5	0x3e2ef8e3	0.1708713
6	0xbe2841d6	-0.16431364
7	0xbe337226	-0.17524013
8	0x3d11e9f0	0.03562349
9	0x3e13493d	0.14383407
10	0x3dae14ca	0.08500059
11	0xbda12858	-0.07869023
12	0xbdd512e1	-0.104039915
13	0x3d6adaf8	0.05733773
14	0x3c2370c0	0.009975612
15	0x3e136271	0.14393021
16	0x3e2c3151	0.16815688
17	0x3d850c54	0.06496492
18	0x3e142d33	0.14470367
19	0x3d8b571e	0.06803726
20	0xbe1e6b6f	-0.1547067
21	0xbda8f232	-0.0824932
22	0x3bfa8180	0.007644832
23	0xbd36d978	-0.044640988
24	0xbdd5ebac	-0.104453415
25	0xbd2e1c80	-0.04250765
26	0xbd7a597c	-0.061120495
27	0xbe038d86	-0.12846956
28	0xbd8ff6ac	-0.07029471
29	0xbe1bbe7a	-0.1520938
30	0xbe10e6a1	-0.14150478
31	0xbe2cedc6	-0.16887578
32	0x3b5d98c0	0.003381297
33	0x3ac90680	0.001533702
34	0x3d8487fa	0.06471248
35	0xbd060c10	-0.032726347
36	0xbe2f1257	-0.1709684
37	0xbdc7dd54	-0.09759012
38	0xbdcd95bf	-0.100383274
39	0xbdd046fa	-0.10169788
40	0xbe070cf5	-0.13188536
41	0x3e2e317f	0.17011069
42	0x3e0729cd	0.1319954
43	0xbe0ff488	-0.14058125
44	0xbdb8b16f	-0.09018218
45	0x3d9bd5ce	0.076091394
46	0xbe23c1b4	-0.1599186
47	0xbdf4d1f2	-0.119541064
48	0x3d664454	0.056217507
49	0xbd57d898	-0.052696794
50	0xbdfe3b9c	-0.12413713
51	0x3d75ebfc	0.060039505
52	0xbe225191	-0.15851428
53	0xbdde0470	-0.1084069
54	0x3d8cf59e	0.06882785
55	0x3db603ca	0.088874415
56	0xbd1afd64	-0.03783931
57	0xbd941672	-0.072308436
58	0xbe1ec629	-0.1550528
59	0x3e0b3bf5	0.1359709
60	0x3dde4632	0.108532324
61	0xbdb7b0e3	-0.08969285
62	0xbe127cac	-0.14305371
63	0xbd835c2d	-0.064140655
64	0x3d8bb226	0.068210885
65	0xbe100007	-0.1406251
66	0x3e0322fb	0.12806313
67	0x3dbb4846	0.091446444
68	0xbe02eb0f	-0.1278498
69	0xbdb2e6b0	-0.087354064
70	0x3e2b7da9	0.16747154
71	0xbd004e74	-0.03132482
72	0xbd849495	-0.06473652
73	0xbe0e0fe5	-0.13873251
74	0xbe075f4e	-0.1321995
75	0x3e0afe21	0.13573505
76	0xbe269afc	-0.1627006
77	0xbde7ab85	-0.11312012
78	0xbe27fc76	-0.164049
79	0x3ddfcb9e	0.10927509
80	0xbd8c683d	-0.068558194
81	0xbe07035b	-0.13184874
82	0xbde8c684	-0.11365989
83	0x3d5ceab4	0.053934768
84	0xbdcfa063	-0.10138013
85	0x3e00a059	0.12561168
86	0xbdade33c	-0.08490607
87	0x3c8a3250	0.016869694
88	0x3c091e20	0.008368999
89	0x3ddc3002	0.10751344
90	0xbde86b69	-0.11348612
91	0x3e25c85b	0.16189711
92	0x3ddd54ea	0.10807212
93	0xbd86f02a	-0.065887764
94	0x3c3af8c0	0.011411846
95	0x3d1ec348	0.038760453
96	0x3e070b93	0.13188009
97	0x3d1cfcd4	0.038327053
98	0xbe05f190	-0.1308043
99	0x3d940bb2	0.07228793
100	0x3e1f32c9	0.15546717
101	0x3dc34306	0.09534268
102	0x3d88769a	0.066632465
103	0xbd166cdc	-0.03672491
104	0x3db254d2	0.087075844
105	0x3dd6cc02	0.1048813
106	0xbd6f803c	-0.058471903
107	0x3e274e51	0.16338469
108	0x3dabe27a	0.08392806
109	0x3dd9d01e	0.10635398
110	0x3d708894	0.058724
111	0x3dfad156	0.12246959
112	0x3dc3d4b6	0.09562056
113	0xbd9f194e	-0.07768498
114	0xbb626600	-0.003454566
115	0xbe1899f5	-0.1490248
116	0x3cd4f958	0.025997803
117	0x3d20af18	0.039229482
118	0xbe34bb10	-0.17649484
119	0xbc9532c8	-0.018212691
120	0x3e2b2bd7	0.16715942
121	0xbda62251	-0.08112014
122	0x3d0dd128	0.034623295
123	0xbe100a29	-0.14066376
124	0x3d5002cc	0.050783917
125	0x3bfc9160	0.0077077597
126	0x3db0db46	0.08635573
127	0xbd9707f2	-0.07374562
128	0x3e0bc7c5	0.13650425
129	0xbda29d4c	-0.07940158
130	0x3e13b6cf	0.14425205
131	0xbd81c7d2	-0.06336941
132	0xbdc4a9c8	-0.09602696
133	0x3ddd30b2	0.108003035
134	0x3d9587d6	0.07301299
135	0xbd0d346c	-0.03447382
136	0xbc4c8ce0	-0.012484759
137	0x3e07b8bb	0.13254063
138	0xbdc07577	-0.09397405
139	0x3dbb2a52	0.09138931
140	0xbe1ec0fd	-0.15503307
141	0xbe2e39d6	-0.1701425
142	0x3caeffa0	0.021362126
143	0xbe2628f9	-0.16226567
144	0x3e19e5e3	0.15029101
145	0x3e292969	0.16519703
146	0x3d8e6004	0.06951907
147	0xbd99e099	-0.07513542
148	0xbcb9e008	-0.022689834
149	0xbe33362e	-0.17501137
150	0xbe11b54d	-0.14229317
151	0xbdb4b1ee	-0.08823
152	0xbc38a7e0	-0.011270493
153	0x3d2430b0	0.040085495
154	0xbd83a998	-0.06428832
155	0x3cb2fac0	0.021848083
156	0xbe3436ac	-0.1759898
157	0x3e0e3237	0.13886343
158	0x3d1683e8	0.03674689
159	0x3e0d5c37	0.13804708
160	0x3e2894c1	0.16462995
161	0x3d84189e	0.06450008
162	0xbe123a9e	-0.14280173
163	0xbdc11115	-0.09427086
164	0x3d217c50	0.039425194
165	0x3e1a8fbb	0.15093891
166	0xbd0322e8	-0.03201571
167	0xbe33dfd2	-0.1756585
168	0xbe34a8a3	-0.17642455
169	0x3d39cbac	0.045360252
170	0xbda68b97	-0.081320934
171	0xbda147fa	-0.078750566
172	0xbd5ae70e	-0.053443007
173	0x3d2f5634	0.04280682
174	0xbda4f4fb	-0.08054539
175	0x3e22d3e1	0.15901138
176	0x3e1e21c9	0.15442576
177	0xbd818765	-0.063246526
178	0x3d16c538	0.036809176
179	0x3e223111	0.1583903
180	0x3e24bedd	0.16088434
181	0x3de0e20e	0.109806165
182	0xbde2bf1a	-0.11071606
183	0xbd3091ac	-0.043107674
184	0xbd29d8e0	-0.041466594
185	0x3cf0a228	0.029374197
186	0x3cc57de8	0.024107888
187	0x3c05b260	0.008160204
188	0xbd9768fc	-0.07393071
189	0xbce9fb80	-0.028562307
190	0x3e22d40d	0.15901203
191	0xbdeadee4	-0.11468294
192	0x3cea5178	0.0286033
193	0xbd459dbc	-0.04824613
194	0x3d997a42	0.07494022
195	0xbdfcdb08	-0.123464644
196	0xbd9ee7b5	-0.07759038
197	0xbcf09268	-0.029366687
198	0xbe25127f	-0.16120337
199	0x3e1336ad	0.14376326
200	0xbcbd49d8	-0.0231065
201	0x3d8756a4	0.06608322
202	0xbe0ea764	-0.13931042
203	0xbda92d76	-0.08260624
204	0x3d77de64	0.060514823
205	0xbe023d99	-0.1271881
206	0x3e34c839	0.17654504
207	0x3df68d9e	0.1203873
208	0xbd696510	-0.056981146
209	0xbdc92c63	-0.09822919
210	0xbe318671	-0.17336442
211	0x3da0b51e	0.07847045
212	0xbde403b2	-0.11133517
213	0xbdddb94b	-0.108263575
214	0xbe01ed6c	-0.12688226
215	0x3df1bc5e	0.11803506
216	0xbdad895d	-0.084734656
217	0xbe2cee4b	-0.16887777
218	0x3d70a708	0.058753043
219	0x3b2e1880	0.0026564896
220	0xbdb8d1f9	-0.09024424
221	0xbe01770c	-0.12643069
222	0xbceae468	-0.028673366
223	0xbdaeef6d	-0.085417606
224	0x3d2a0190	0.041505396
225	0x3d85cdb4	0.065333754
226	0x3c2647d0	0.010148957
227	0x3be1d260	0.0068915337
228	0x3e22b9e1	0.1589122
229	0x3e0541b7	0.1301335
230	0x3c076580	0.008263946
231	0xbdc48555	-0.095957436
232	0x3e046bd1	0.12931754
233	0x3d42ac40	0.04752755
234	0x3dc7d086	0.097565696
235	0xbdef218a	-0.11676319
236	0xbd9f52b1	-0.07779444
237	0xbdbd6735	-0.09248201
238	0x3dc06f1e	0.09396194
239	0x3d43a1f8	0.047761887
240	0x3da776fa	0.0817699
241	0x3cb961c0	0.022629619
242	0xbe303c01	-0.1721039
243	0xbd038944	-0.03211333
244	0xbe1e292d	-0.15445395
245	0xbdb06289	-0.08612544
246	0xbdd8af06	-0.10580258
247	0x3d1fd120	0.039017797
248	0x3dafc59e	0.08582614
249	0x3cdd1398	0.026986882
250	0x3d1c37cc	0.03813915
251	0xbdcfe352	-0.1015078
252	0xbe0cddc8	-0.13756478
253	0x3e30417f	0.17212485
254	0x3dc15cd6	0.09441535
255	0x3dc9e12e	0.09857403

gcn_3.bias f4 [32]
0	0x3d199510	0.037495673
1	0x3dfe778e	0.12425147
2	0xbe04c3b6	-0.12965283
3	0xbde93aa9	-0.11388142
4	0x3dddae8e	0.10824309
5	0x3de14f8a	0.11001499
6	0xbd23b768	-0.03996983
7	0x3d5f97c8	0.05458811
8	0xbda49e4e	-0.08038007
9	0x3d43cc24	0.047802106
10	0xbd984c82	-0.07436468
11	0xbbcfbc40	-0.00633958
12	0xbe08b0e4	-0.13348728
13	0xbdabea15	-0.08394257
14	0xbd0a35d4	-0.03374274
15	0x3c812038	0.015762433
16	0xbd62e6f2	-0.055396028
17	0xbd4d6ba0	-0.050151467
18	0xbcaa2170	-0.020767897
19	0x3c5fb870	0.013654813
20	0xbe2fb329	-0.17158188
21	0xba0fa700	-0.0005479902
22	0x3ccc8858	0.024967358
23	0x3e26707d	0.16253848
24	0xbdb8e34f	-0.09027731
25	0xbc6bbc60	-0.014388174
26	0xbe2c6dfc	-0.1683883
27	0x3dee0cbe	0.11623524
28	0xbdebd80c	-0.11515817
29	0xbd1da3d8	-0.03848633
30	0x3d34aaa4	0.044108048
31	0x3d8b8c2e	0.068138465

norm_3.weight f4 [32]
0	0x3f800000	1.0
1	0x3f800000	1.0
2	0x3f800000	1.0
3	0x3f800000	1.0
4	0x3f800000	1.0
5	0x3f800000	1.0
6	0x3f800000	1.0
7	0x3f800000	1.0
8	0x3f800000	1.0
9	0x3f800000	1.0
10	0x3f800000	1.0
11	0x3f800000	1.0
12	0x3f800000	1.0
13	0x3f800000	1.0
14	0x3f800000	1.0
15	0x3f800000	1.0
16	0x3f800000	1.0
17	0x3f800000	1.0
18	0x3f800000	1.0
19	0x3f800000	1.0
20	0x3f800000	1.0
21	0x3f800000	1.0
22	0x3f800000	1.0
23	0x3f800000	1.0
24	0x3f800000	1.0
25	0x3f800000	1.0
26	0x3f800000	1.0
27	0x3f800000	1.0
28	0x3f800000	1.0
29	0x3f800000	1.0
30	0x3f800000	1.0
31	0x3f800000	1.0

norm_3.bias f4 [32]
0	0x00000000	0.0
1	0x00000000	0.0
2	0x00000000	0.0
3	0x00000000	0.0
4	0x00000000	0.0
5	0x00000000	0.0
6	0x00000000	0.0
7	0x00000000	0.0
8	0x00000000	0.0
9	0x00000000	0.0
10	0x00000000	0.0
11	0x00000000	0.0
12	0x00000000	0.0
13	0x00000000	0.0
14	0x00000000	0.0
15	0x00000000	0.0
16	0x00000000	0.0
17	0x00000000	0.0
18	0x00000000	0.0
19	0x00000000	0.0
20	0x00000000	0.0
21	0x00000000	0.0
22	0x00000000	0.0
23	0x00000000	0.0
24	0x00000000	0.0
25	0x00000000	0.0
26	0x00000000	0.0
27	0x00000000	0.0
28	0x00000000	0.0
29	0x00000000	0.0
30	0x00000000	0.0
31	0x00000000	0.0
