embeddings/models/d02705ae15c73df10a399472d52e62fc85130d16/global_graph_model.pt (torch_old, 208337 bytes, 16 tensors)

query_gen.0.linear.weight f4 [128, 38]
000000 70 d6 3d 3c ef fe 12 bd ec 19 20 3e 0b b0 fc bd
       0.01158677 -0.035887655 0.15634888 -0.12338265
000010 18 35 de 3b 18 d4 d4 bd 9d 58 22 be d0 d2 a3 3d
       0.0067812316 -0.10392016 -0.15854116 0.07999194
000020 e8 62 67 39 34 07 ab bb 84 a0 ff 3d 53 a3 a4 3c
       0.00022066722 -0.0052193645 0.12481788 0.02009741
000030 41 58 0f 3e a6 84 de bd ce 2b 65 bd e2 74 25 be
       0.1399851 -0.108651444 -0.05594998 -0.16157869
000040 1e 4e 9b bd d0 8a 2b 3d a2 ba 64 3d e5 00 08 bd
       -0.07583259 0.04188043 0.05584205 -0.033203978
000050 f8 83 15 be e2 d9 e6 bd a0 93 1f bc 2b 2f 4c 3c
       -0.14601123 -0.112720266 -0.009739786 0.012462418
000060 13 85 8d bd e0 85 0f 3e 7e a6 e0 3d d0 50 af bb
       -0.069101475 0.14015913 0.10969256 -0.00535021
000070 62 c1 bb bd bb 93 56 3a 1d a8 11 be 59 ad 56 3d
       -0.09167744 0.00081854657 -0.14224286 0.05241141
000080 e1 b7 cf bc 13 54 c6 3d 82 1a 92 3c 4d 5a 92 bd
       -0.025356235 0.09684005 0.017834906 -0.0714613
000090 bb b0 aa 3c fe 27 ef bd 95 16 cb 3d 60 2a 6d bc
       0.020836225 -0.1167755 0.099164166 -0.014475435
0000a0 ce 64 34 bd 30 7e c4 bd 2c ca ba bb 28 b1 a5 3d
       -0.044041447 -0.09594381 -0.0057003703 0.080904305
0000b0 38 db 86 3d 09 72 88 bb 1c 1b de bd 3b 25 4b bd
       0.065847814 -0.0041639847 -0.108450145 -0.049596053
0000c0 35 d4 77 bd 7e f8 82 bd ea 58 1a be 51 c1 f9 3d
       -0.06050511 -0.063950524 -0.1507298 0.12195075
0000d0 e9 ad c0 3c 3f 4a d6 bd 76 1f ac bb ba fa 13 be
       0.023520427 -0.1046338 -0.005252774 -0.14451113
0000e0 2e fc 83 3d a6 f0 87 bd 22 3b cb bd 2f 6e e8 bd
       0.06444584 -0.06637697 -0.09923388 -0.11349141
0000f0 24 0f dc 3d c1 0b b2 3c e1 9c 5c bd f5 7b ca 3d
       0.10745075 0.02173412 -0.05386055 0.09886924
000100 c7 dc eb bd d5 db e4 3c 53 5b 37 bd 1d 63 0d bd
       -0.11516719 0.027936855 -0.044764828 -0.03451835
000110 45 31 20 3e d5 c5 1d 3e 86 8b 1c be 5e 6a 52 3c
       0.15643795 0.15407498 -0.15287599 0.012842743
000120 04 1c 11 be 19 15 0e 3e 79 ac 6d bd 70 ae d6 3d
       -0.14170843 0.13875236 -0.05802581 0.1048249
000130 ea 8b 21 bd 3d 6c 15 3e b9 f1 0e bd 5e 2e 9e bb
       -0.039440073 0.14592071 -0.034898493 -0.0048273047
000140 ad 90 57 3b 9b 74 77 bd 7d 5d ad 3d 73 d1 22 be
       0.003289263 -0.060413938 0.08465097 -0.15900211
000150 dd 94 17 bc fe ff 2d 3c 4c 09 95 bd bc 59 11 3e
       -0.0092518 0.010620115 -0.07277164 0.14194387
000160 1b 0d d6 3d 3f b3 d0 3d 10 f6 db 3d 9d e9 ee 3c
       0.104517184 0.101904385 0.10740292 0.02916413
000170 b4 54 ed bd 5f ac 99 bd b4 ec 9b bd 54 f8 f3 bd
       -0.115884215 -0.0750358 -0.07613507 -0.11912599
000180 27 f1 58 3d c1 cd d9 bd ac 78 08 be 7b 55 bd bd
       0.052964356 -0.106349476 -0.13327283 -0.0924482
000190 22 76 15 3e d4 87 d3 bd 95 c0 0b 3e 5f f9 15 be
       0.14595845 -0.103286415 0.13647683 -0.14645909
0001a0 d1 e9 de 3d 10 de e5 bd 01 f9 1e 3c 53 f9 01 be
       0.10884441 -0.11223996 0.009702922 -0.12692766
0001b0 0d 98 3a bd b7 e0 47 3d 40 01 85 bd 13 9e f5 bd
       -0.045555163 0.04879829 -0.06494379 -0.11993041
0001c0 80 e7 cf 3c ad cb 4d bc 8a 18 13 3d f4 f6 80 bd
       0.025378942 -0.012560767 0.035912074 -0.062971026
0001d0 81 3f fc bd 5a 25 db 3d 29 fd 0f be 89 b6 44 bc
       -0.123168 0.107004836 -0.14061417 -0.01200641
0001e0 43 17 bf 3d 4c eb a6 bc 0e cd ce bd 98 79 06 be
       0.09330609 -0.02037587 -0.10097705 -0.13132322
0001f0 83 b5 c5 3d db ce 2e bd 14 88 78 3c 3e 09 3a bd
       0.09653761 -0.04267774 0.015169162 -0.04541897
000200 f2 7e 7c 3d db b1 05 3d ab a5 03 3e b3 af 99 bd
       0.061644502 0.03264032 0.12856166 -0.07504215
000210 02 79 22 3e b1 63 23 3e c4 58 ef 3d 36 42 ca 3d
       0.15866473 0.15955998 0.116868526 0.0987591
000220 cb 57 2f 3d 6d 41 e6 3d 49 1f 81 3c 3e 7f 1c 3e
       0.042808335 0.11242948 0.015761988 0.15282914
000230 60 da a5 bc 8a ce 16 be 8e 1e 9f bc 49 04 73 bc
       -0.02024573 -0.14727226 -0.01942375 -0.014832565
000240 59 91 63 3d 3b 94 21 bd e1 d9 94 3d 29 a2 19 3e
       0.055558536 -0.039448004 0.072681196 0.15003265
000250 24 5a d4 bd a5 1a eb bd 8a e2 f8 3d 4e 32 c7 3d
       -0.103687555 -0.114796914 0.12152584 0.09726392
000260 ff 2c aa bd 70 38 22 3d 4d 25 e9 3d aa 0d 54 bc
       -0.083093636 0.039604604 0.11384068 -0.012942711
000270 2a 39 ef 3d 86 ab 4d bd cd 68 25 be 05 82 01 3e
       0.11680825 -0.050212406 -0.1615326 0.12647255
000280 a0 57 c5 3d b9 72 b7 3d 63 25 ec bd ec ef 22 be
       0.09635854 0.089574285 -0.115305685 -0.15911835
000290 49 00 fc bd 42 47 a9 bd c7 f0 ed bc 05 29 78 bc
       -0.12304742 -0.082655445 -0.029045476 -0.015146499
0002a0 57 6b e9 3c ff 45 78 bd 2a 59 00 3e bc f9 ce 3c
       0.028493566 -0.06061363 0.12534013 0.025265567
0002b0 e5 46 0f 3e eb 2a b2 bd 5c 41 07 3d e5 91 ca 3d
       0.13991888 -0.08699592 0.033021316 0.098911084
0002c0 0b 7d fa 3d 2f 4a 22 3e 0d 46 f0 3d 57 a9 0e 3e
       0.12230881 0.15848611 0.11732111 0.13931786
0002d0 0a 47 c8 bd 26 4e a5 bd 9c 45 21 3d d0 f5 a8 3b
       -0.097791746 -0.08071546 0.039373025 0.0051562563
0002e0 d3 b8 cb bd 63 4b 9b 3d 28 be 9f bd c8 c9 b3 3c
       -0.09947362 0.07582738 -0.07799941 0.021946803
0002f0 c7 ef c6 bd 36 de 5f 3d 65 36 df bd 15 4e f8 3d
       -0.09713703 0.054655276 -0.10899047 0.12124268
000300 3f 27 0b 39 dc da 02 be d7 08 70 3d 8c 63 b1 3d
       0.00013270693 -0.127788 0.05860218 0.08661565
000310 59 a6 87 3d f5 58 b0 3d bd c4 07 be 15 f8 dd 3d
       0.06623525 0.08610717 -0.13258643 0.108383335
000320 37 04 18 be dc 5d ee 3c de 57 dd 3c ec b9 6c 3d
       -0.14845358 0.02909749 0.027019437 0.057794496
000330 cf 14 93 bd 1e e4 dd bd dd a2 24 be 2c e6 9c bd
       -0.07181703 -0.108345255 -0.16077752 -0.07661089
000340 db 45 65 3d 80 7d 99 39 58 13 8e 3d 46 96 1c be
       0.055974822 0.0002927594 0.06937283 -0.152917
000350 61 dc a3 bd 76 19 18 be f6 17 aa 3c 43 6b a2 bc
       -0.08001018 -0.14853463 0.020763379 -0.019826537
000360 c6 75 25 3e cd 69 ed 3d dc 35 11 be e7 08 47 bb
       0.16158208 0.115924455 -0.14180702 -0.0030370296
000370 5a 6b f8 bc cd d3 6a 3d a3 2f 49 3d ff f4 ea 3d
       -0.030324627 0.057330895 0.049117696 0.114725105
000380 29 5b 21 be 7f e0 3f bc b4 da bd bd 30 02 43 bd
       -0.15757431 -0.011711239 -0.0927023 -0.047609508
000390 92 b7 8d bd be a1 0a 3e 4a ef a0 3c 74 06 86 3d
       -0.06919779 0.13538262 0.019645352 0.065441996
0003a0 fb ef ac 3d c4 a0 1c bd 90 5e d9 3c c5 71 d1 bd
       0.0844421 -0.038239256 0.026534349 -0.10226778
0003b0 cf 83 7f bd 78 ef 59 bd c4 f5 a1 bd 1a f4 c1 bc
       -0.06238156 -0.05320689 -0.07908204 -0.023675967
0003c0 94 93 03 bd b5 aa 01 3e 0f 5f 99 bc 5b 10 26 be
       -0.032123163 0.12662776 -0.018722085 -0.16217177
0003d0 12 5b da bd 07 79 d8 3d bc 31 10 be bf ea fa bd
       -0.106619015 0.10569959 -0.14081472 -0.122518055
0003e0 0e 54 d2 bd df 2e b7 3d d1 e8 2f bd c2 45 f2 bd
       -0.102699384 0.08944487 -0.04294664 -0.118297115
0003f0 34 61 a4 bb 3f fd 15 3e d5 f0 8a bd 14 79 02 be
       -0.0050164703 0.14647387 -0.06784216 -0.127415

query_gen.0.linear.bias f4 [128]
000000 80 7d 16 be 8d f8 3e bd 39 74 df 3d 09 6d 19 be
       -0.14696312 -0.046623755 0.109108396 -0.14983
000010 0e 38 f1 3d 4a de ab bc 41 2f f6 bd 4b 3c f9 bd
       0.1177827 -0.02098002 -0.12020732 -0.12169703
000020 b7 7e c7 bd 5e c0 1a be d3 7b de bc f4 17 15 3e
       -0.09740966 -0.15112445 -0.027158653 0.14559919
000030 85 80 77 bc 57 03 e8 bc 80 08 cc 3d b3 7d c4 bd
       -0.015106325 -0.028321905 0.09962559 -0.09594288
000040 79 4f eb 3d 79 60 c4 3d 22 0f 04 3e 24 f5 b6 3c
       0.114897676 0.09588713 0.12896398 0.022333689
000050 fc 11 ef bd 66 c5 f7 3d 43 86 a4 3c 61 40 86 3c
       -0.11673352 0.12098198 0.020083552 0.01638812
000060 e4 33 eb bd 49 7d 89 bc 53 97 02 3c b5 d2 58 3d
       -0.11484507 -0.016783373 0.007970649 0.05293532
000070 3f e0 b5 bd 94 55 89 3d 07 2a a7 bd c1 ce ee bd
       -0.08880662 0.06705776 -0.08162313 -0.11660529
000080 26 db fa bd 93 19 9b bd e0 ed 94 3b a6 e4 c3 3d
       -0.122488305 -0.07573237 0.0045449585 0.095650956
000090 d3 d8 eb bd 50 2b b6 3c f3 23 df bc b3 5b 36 bd
       -0.11515965 0.02223745 -0.027238822 -0.044521045
0000a0 86 f6 11 3e e7 f6 86 3d fa 8e 9d bd 99 06 bf bd
       0.14254197 0.06590062 -0.07693286 -0.0932743
0000b0 5a 0e 23 3e ec ad f2 3d d3 98 87 bd 6b c7 1d 3d
       0.15923443 0.11849579 -0.06620946 0.038520258
0000c0 e2 74 b4 3d 93 31 9f 3c 1f 20 e8 3d bf 0c 21 3e
       0.08811356 0.019432819 0.113342516 0.15727518
0000d0 8c 9e 96 3d 2d d5 08 3e ab ff d6 bc 6d ce cc bd
       0.07354459 0.1336257 -0.026244959 -0.1000031
0000e0 f6 e0 07 be 2e 79 db 3d 30 30 3f bd 02 fa 09 be
       -0.1326941 0.107164726 -0.046676815 -0.13474277
0000f0 b6 32 bd bd 7f 3b 51 3d c3 ed e2 3d 16 df 21 3d
       -0.09238188 0.05108213 0.11080506 0.039519392
000100 4e 42 a3 3a 6a 0e 03 be 87 e8 95 3d 5a 64 bc bd
       0.0012455673 -0.12798467 0.07319742 -0.09198828
000110 70 3d 0c be 4c b9 05 3e fa 8b 12 3e 2f c6 aa bd
       -0.13695312 0.13058966 0.1431121 -0.08338582
000120 99 81 b0 3d 7a 0c 24 be 1c bd 7d 3d 28 77 c7 3d
       0.08618469 -0.16020384 0.061947927 0.09739524
000130 6c ad c4 3c 9f 27 02 be f1 9a 39 bd c5 b3 2c bc
       0.024008475 -0.12710427 -0.04531378 -0.010540907
000140 a7 e6 08 be f3 d7 49 bd e1 6f be 3d 32 78 26 3d
       -0.13369237 -0.04927821 0.09298683 0.04064197
000150 b7 f7 a9 3d c6 84 c0 3d de 79 1c 3e 52 8a 20 be
       0.08299201 0.094003245 0.15280864 -0.15677765
000160 a9 7b 97 3d 63 a4 a2 3d 7b 6c ba bc 4c d7 06 be
       0.07396633 0.079415105 -0.022756806 -0.13168067
000170 a0 d9 ef bd fd 53 18 be 20 dd f7 bd c2 f0 e9 bd
       -0.117114305 -0.14875789 -0.12102723 -0.11422874
000180 86 66 d8 3d d5 0f 8b bd 0b 8a b6 bd af cc 18 bd
       0.1056643 -0.06790129 -0.08913048 -0.037304576
000190 14 d1 7c 3d ad 04 43 3d 81 5a 61 3d 52 ce ad bb
       0.06172283 0.04761188 0.055017952 -0.0053041363
0001a0 54 d4 77 bb ff 6c a4 bd 81 11 2b 3c 32 e8 e5 bc
       -0.0037815766 -0.08028602 0.010441185 -0.02806482
0001b0 c6 90 d9 3d 21 c1 18 3d 87 0b bf 3d 7d 44 a5 3c
       0.106233165 0.037293557 0.093283705 0.02017426
0001c0 e9 69 03 be aa a9 0d be 77 63 94 bd 32 52 0e be
       -0.1283337 -0.13834253 -0.07245534 -0.13898543
0001d0 2b a8 1c be f6 2c 20 3e 70 aa 96 bb 3b 9d 21 3d
       -0.15298526 0.15642151 -0.0045979545 0.039456587
0001e0 64 dc de 3d 22 30 a6 bd c0 c1 ff ba f4 de c3 3c
       0.1088188 -0.08114649 -0.0019512698 0.023910023
0001f0 d6 7d d8 bd 52 78 49 3d 76 4c bf bd b3 0e 6a bd
       -0.10570876 0.049187012 -0.09340756 -0.057142925

query_gen.0.norm.weight f4 [128]
000000 24 a0 7f 3f 8e 15 80 3f 5c 04 80 3f c0 fe 7f 3f
       0.9985373 1.0006578 1.000133 0.9999809
000010 28 eb 7f 3f 3f 14 80 3f 22 e8 7f 3f 00 00 80 3f
       0.99968195 1.0006179 0.9996358 1.0
000020 00 00 80 3f 33 0f 80 3f 11 ed 7f 3f 00 00 80 3f
       1.0 1.0004638 0.9997111 1.0
000030 65 0c 80 3f 00 00 80 3f 3b 1e 80 3f e3 1c 80 3f
       1.0003783 1.0 1.0009226 1.0008816
000040 e4 23 80 3f e3 19 80 3f b4 1c 80 3f 0f dc 7f 3f
       1.0010953 1.00079 1.000876 0.9994516
000050 00 00 80 3f 00 00 80 3f c9 ff 7f 3f 77 c3 7f 3f
       1.0 1.0 0.9999967 0.9990763
000060 00 00 80 3f 5f 0c 80 3f 54 9e 7f 3f 00 00 80 3f
       1.0 1.0003775 0.99850965 1.0
000070 50 03 80 3f f2 00 80 3f 00 00 80 3f 54 d2 7f 3f
       1.0001011 1.0000288 1.0 0.9993031
000080 0e e0 7f 3f 6b ff 7f 3f 7f e9 7f 3f 2d 00 80 3f
       0.99951255 0.9999911 0.9996566 1.0000054
000090 00 00 80 3f 00 00 80 3f af 07 80 3f 1f 31 80 3f
       1.0 1.0 1.0002345 1.001499
0000a0 00 00 80 3f 65 7c 7f 3f 67 ff 7f 3f 00 00 80 3f
       1.0 0.99799186 0.9999909 1.0
0000b0 34 1d 80 3f b6 d9 7f 3f 00 00 80 3f 00 00 80 3f
       1.0008912 0.99941576 1.0 1.0
0000c0 00 00 80 3f 00 00 80 3f ee ba 7f 3f 00 00 80 3f
       1.0 1.0 0.9989461 1.0
0000d0 cb ad 7f 3f b5 f6 7f 3f 00 00 80 3f cf cf 7f 3f
       0.9987456 0.9998582 1.0 0.99926466
0000e0 ff b5 7f 3f ed 0a 80 3f 00 00 80 3f e1 f3 7f 3f
       0.9988708 1.0003334 1.0 0.99981505
0000f0 00 00 80 3f fe e7 7f 3f c9 34 80 3f d9 80 7f 3f
       1.0 0.99963367 1.0016109 0.9980598
000100 00 00 80 3f b8 ee 7f 3f 00 00 80 3f 57 2d 80 3f
       1.0 0.9997363 1.0 1.0013837
000110 69 2c 80 3f 00 00 80 3f 00 00 80 3f 3d d1 7f 3f
       1.0013553 1.0 1.0 0.9992865
000120 9a 0e 80 3f 65 14 80 3f 4d e1 7f 3f 59 2a 80 3f
       1.0004456 1.0006224 0.99953157 1.0012923
000130 00 00 80 3f f2 03 80 3f 34 2e 80 3f 00 00 80 3f
       1.0 1.0001204 1.00141 1.0
000140 fc 0a 80 3f c7 d1 7f 3f 8f fd 7f 3f d8 0e 80 3f
       1.0003352 0.9992947 0.99996275 1.000453
000150 70 11 80 3f 38 d9 7f 3f 00 00 80 3f f8 1a 80 3f
       1.0005322 0.99940825 1.0 1.000823
000160 00 00 80 3f bd ce 7f 3f 87 09 80 3f 90 26 80 3f
       1.0 0.9992483 1.0002908 1.0011768
000170 00 00 80 3f c7 dc 7f 3f 8d f2 7f 3f 00 00 80 3f
       1.0 0.99946254 0.9997948 1.0
000180 f0 21 80 3f 00 00 80 3f 86 d1 7f 3f 33 b1 7f 3f
       1.0010357 1.0 0.9992908 0.9987976
000190 35 b1 7f 3f af 26 80 3f 00 00 80 3f 6c eb 7f 3f
       0.9987977 1.0011805 1.0 0.999686
0001a0 0b c0 7f 3f c4 25 80 3f 3e 13 80 3f 00 00 80 3f
       0.9990241 1.0011525 1.0005872 1.0
0001b0 04 1a 80 3f 70 2f 80 3f 8a 0d 80 3f 00 00 80 3f
       1.0007939 1.0014477 1.0004132 1.0
0001c0 c4 ef 7f 3f 00 00 80 3f 00 00 80 3f 00 00 80 3f
       0.9997523 1.0 1.0 1.0
0001d0 00 00 80 3f 62 06 80 3f 66 17 80 3f 00 00 80 3f
       1.0 1.0001948 1.0007141 1.0
0001e0 e1 1d 80 3f c9 d9 7f 3f 00 00 80 3f 00 00 80 3f
       1.0009118 0.9994169 1.0 1.0
0001f0 17 e6 7f 3f 00 00 80 3f 00 00 80 3f 96 10 80 3f
       0.99960464 1.0 1.0 1.0005062

query_gen.0.norm.bias f4 [128]
000000 db e0 c2 ba aa 04 1f 3a 5e 88 24 39 d8 3f d3 b7
       -0.0014868038 0.00060660637 0.0001569106 -2.518289e-05
000010 c7 0d af b9 56 fd 21 3a e0 93 b7 b9 00 00 00 00
       -0.00033388866 0.00061794126 -0.00035014655 0.0
000020 00 00 00 00 cc f5 f9 39 b5 a1 98 b9 00 00 00 00
       0.0 0.00047676114 -0.0002911218 0.0
000030 f6 c5 ca 39 00 00 00 00 fe 44 7b 3a 31 eb 68 3a
       0.00038675935 0.0 0.0009585171 0.0008885144
000040 35 da 91 3a e9 9a 4e 3a 00 95 49 3a 88 c6 0a ba
       0.0011127653 0.000788136 0.0007689744 -0.00052938657
000050 00 00 00 00 00 00 00 00 67 5a 07 b8 0e 88 79 ba
       0.0 0.0 -3.2270702e-05 -0.000951887
000060 00 00 00 00 9b 5a ed 39 ac a1 c5 ba 00 00 00 00
       0.0 0.0004527167 -0.0015078089 0.0
000070 03 e8 f7 38 52 fa 40 b9 00 00 00 00 37 cf 36 ba
       0.00011821093 -0.00018403798 0.0 -0.00069736264
000080 e2 a0 aa b8 95 0a 73 37 70 71 ac b9 96 59 08 37
       -8.1361984e-05 1.44863925e-05 -0.00032890914 8.12709e-06
000090 00 00 00 00 00 00 00 00 ca 3c 7c 39 a5 8d c3 3a
       0.0 0.0 0.00024055238 0.0014919533
0000a0 00 00 00 00 7b 1e 04 bb 8a 2f b2 37 00 00 00 00
       0.0 -0.002015977 2.124139e-05 0.0
0000b0 5b 15 6a 3a 2f db 55 ba 00 00 00 00 00 00 00 00
       0.0008929574 -0.0008157966 0.0 0.0
0000c0 00 00 00 00 00 00 00 00 1b 46 8a ba 00 00 00 00
       0.0 0.0 -0.0010549458 0.0
0000d0 45 95 a5 ba 95 4a 24 b9 7f b1 b0 35 1f 8e 44 ba
       -0.0012632987 -0.00015668043 1.316468e-06 -0.00074979843
0000e0 e5 b8 94 ba ce 7b b5 39 00 00 00 00 93 d9 41 b9
       -0.0011346607 0.00034615252 0.0 -0.00018486967
0000f0 00 00 00 00 f9 af b2 b9 2b a8 d5 3a ba 6f fd ba
       0.0 -0.00034081916 0.0016300728 -0.0019335665
000100 00 00 00 00 3d b1 95 b9 00 00 00 00 51 7b b3 3a
       0.0 -0.00028551547 0.0 0.0013693367
000110 24 4f b1 3a 00 00 00 00 00 00 00 00 1b 04 3a ba
       0.0013527614 0.0 0.0 -0.00070959487
000120 7c 88 fc 39 35 11 6c 3a 70 13 25 ba e9 3b 93 3a
       0.00048166874 0.00090052496 -0.0006297147 0.0011233065
000130 00 00 00 00 7e 3f d2 38 cb df c2 3a 00 00 00 00
       0.0 0.00010025407 0.0014867721 0.0
000140 f3 e4 33 b9 8a bd 1d ba 3f 72 00 38 29 6c ee 39
       -0.0001715606 -0.0006017318 3.0623978e-05 0.00045475483
000150 be 34 15 3a 35 af 0d ba 00 00 00 00 84 7c 57 3a
       0.0005691758 -0.0005404831 0.0 0.00082201534
000160 00 00 00 00 04 1e 49 ba 26 a8 97 39 06 0b 59 3a
       0.0 -0.0007672014 0.00028926245 0.00082795357
000170 c1 d0 d2 b5 a7 f6 03 ba 12 59 b3 b8 00 00 00 00
       -1.5706975e-06 -0.00050340075 -8.551976e-05 0.0
000180 64 79 86 3a 00 00 00 00 a1 4d 38 ba d2 8f 38 3a
       0.0010259566 0.0 -0.00070306106 0.0007040474
000190 96 ec 98 ba 0a 68 84 3a 00 00 00 00 30 c0 83 b9
       -0.0011667188 0.0010101807 0.0 -0.00025129458
0001a0 6c 61 7e ba ed c4 52 b9 f7 31 18 3a 00 00 00 00
       -0.0009703848 -0.00020100521 0.0005805785 0.0
0001b0 8c b2 3a 3a 5c 4e bd 3a 46 66 cd 39 00 00 00 00
       0.00071219425 0.0014442909 0.00039176847 0.0
0001c0 0a 10 43 b9 00 00 00 00 00 00 00 00 00 00 00 00
       -0.00018602624 0.0 0.0 0.0
0001d0 4d 1e 38 b7 4d 79 4c 39 2c 2f 49 3a 00 00 00 00
       -1.097431e-05 0.00019500144 0.00076745707 0.0
0001e0 dd 34 68 3a 33 4d 1e ba 00 00 00 00 00 00 00 00
       0.0008857975 -0.0006038725 0.0 0.0
0001f0 26 5b c4 b9 00 00 00 00 00 00 00 00 03 4d fc 39
       -0.00037451944 0.0 0.0 0.00048122564

query_gen.1.linear.weight f4 [128, 128]
000000 9b 49 74 bd 83 81 57 bd c5 9e 86 3d bb 39 95 bb
       -0.05964051 -0.052613746 0.06573252 -0.004554001
000010 42 c4 06 3d 56 eb 47 3d 89 2c 30 bd f0 f8 b1 bc
       0.03290201 0.04880842 -0.043011222 -0.021725148
000020 2a 3f 4d 3d 7a 56 99 3c 9d 58 78 bd 50 67 81 3b
       0.050109066 0.018717993 -0.060631383 0.0039490834
000030 d2 68 6f 3d e8 b9 78 bd a6 77 3e 3d 13 3b 4e 3d
       0.058449574 -0.06072417 0.046500824 0.050349306
000040 2a 73 52 bc d7 db 2e 3b 08 cd 32 bc dc 6b a8 3d
       -0.01284484 0.0026681328 -0.010913141 0.082236975
000050 98 a0 1d bd 16 a6 4c 3d 67 6e 74 bd 72 61 2e bd
       -0.038483232 0.04996308 -0.0596756 -0.0425734
000060 1d e8 8a bd 5b 7a 89 bd 18 8a a8 3d 9d 1f 32 bd
       -0.06782553 -0.067127906 0.08229464 -0.04348718
000070 d0 b3 fc bc f9 32 98 bd 11 23 a4 3d 83 1c 8a ba
       -0.03084746 -0.07431597 0.08014501 -0.0010537062
000080 fb 3a bf bc eb 04 af bd 07 51 95 3d d0 9e ac 3d
       -0.023343554 -0.0854586 0.07290845 0.084287286
000090 1e 41 43 3d d0 81 f2 bc 5c 3c 3b bc 6f 88 f6 bc
       0.047669522 -0.029602915 -0.011427965 -0.030094353
0000a0 c2 d7 88 bd 87 6e b3 bc 17 13 86 3c 5f 57 26 bd
       -0.066817775 -0.02190329 0.016366525 -0.040610667
0000b0 cc e3 46 bc 88 1d da b8 65 b2 a6 bd 60 7b b8 3b
       -0.012139272 -0.00010400551 -0.08139495 0.005629942
0000c0 94 16 8b 3c 9c f9 82 bc 60 69 f1 bb f8 a2 c6 3c
       0.01697854 -0.015988164 -0.007367298 0.024247631
0000d0 6b 2c 78 3d a4 11 0b bd d8 e4 f7 bc d1 15 cf 3c
       0.060589235 -0.03395237 -0.030260488 0.025278958
0000e0 89 bb 90 bd 35 b4 a2 bd 56 cf 0d bd 32 79 bf 3c
       -0.070670195 -0.07944528 -0.03462156 0.02337322
0000f0 0c e2 a7 bd 76 9d a7 bd a1 38 3b bd f4 8a db ba
       -0.08197412 -0.0818433 -0.045708302 -0.0016749785
000100 0a 7c 1e bd 65 e6 df 3c 1e d3 13 3d 60 99 67 bd
       -0.03869251 0.02733154 0.03609001 -0.056542754
000110 7a 7d de bc cd 0d 8d 3d 10 27 c3 3b d5 54 da bc
       -0.027159441 0.06887398 0.0059555843 -0.02665178
000120 6b b2 8c 3d e1 78 fe bb 4d 53 c7 3c 93 5d 8d 3c
       0.06869968 -0.0077658747 0.024331713 0.017256534
000130 84 3f 5d bd b6 65 94 bc 8a 22 82 3d c4 cb c0 3c
       -0.05401565 -0.018114906 0.06354244 0.023534663
000140 46 0c a0 bd 74 b6 79 3d ae c9 51 bd 03 9f a6 bc
       -0.07814841 0.060965016 -0.051217727 -0.020339495
000150 af ff 51 3d fb 43 72 3b 10 3f cd 3b b9 8f 84 3d
       0.05126923 0.003696679 0.006263621 0.064727254
000160 28 3a 7f bc 35 d5 9f 3d 5f 06 cb 3c 9e e6 a7 bd
       -0.01557783 0.07804338 0.024783311 -0.081982836
000170 d8 5f 1c bd c6 4f e1 bc 65 d2 20 bb 88 e3 e5 3c
       -0.03817734 -0.02750386 -0.0024539467 0.028062597
000180 48 b7 73 bd 46 fd 4e 3d a2 4d 8d bd 65 ba a6 bd
       -0.059500962 0.05053451 -0.06899573 -0.08141021
000190 7e 98 dd bc 85 72 72 bc 30 cf 74 3c 51 5c 23 3d
       -0.027050253 -0.014797811 0.0149419755 0.03988296
0001a0 a4 b2 ae 3d 5a 35 b7 bc d3 b8 2d bc 3f 53 94 bd
       0.08530167 -0.022364307 -0.010603148 -0.072424404
0001b0 58 61 35 bd 86 f4 84 3d 74 82 b4 3d 68 86 fe 3c
       -0.044282287 0.06491952 0.088139445 0.03106995
0001c0 73 f4 82 3c 88 a5 c6 bc fa 0a 94 bd 10 89 d0 bc
       0.015985703 -0.024248853 -0.07228656 -0.025455981
0001d0 fe 1f 5c 3d 77 34 82 3d e5 b6 a3 3d 40 6d 2b 3c
       0.053741448 0.06357663 0.07993869 0.010463059
0001e0 5b 9b 24 3d f6 48 7b 3d 80 da 08 3a 18 50 e1 bc
       0.04018722 0.061348878 0.00052205473 -0.027504012
0001f0 3f 4b dc 3a 29 97 8e bd 76 5b 59 3d 39 62 3f 3d
       0.0016807093 -0.06962425 0.05306574 0.04672453
000200 e7 5b c7 3c 07 44 48 bc a5 6d b1 3d fc 86 40 bc
       0.024335815 -0.01222325 0.08663491 -0.011750933
000210 f6 ac 50 3d 13 67 6f 3d 3d ac df 39 40 62 72 bc
       0.0509462 0.05844791 0.00042662202 -0.014793932
000220 00 ac 23 bb 63 32 01 3d 4b a3 9f 3d 12 cf 7f 3d
       -0.0024974346 0.031542193 0.077948175 0.062453337
000230 ae 23 95 bd 56 a0 1c 3d f0 2d 4b bd 41 cc 12 3c
       -0.07282196 0.038238846 -0.049604356 0.008959831
000240 8d 55 51 3d 6d 2e ad 3c 38 90 85 3c 09 e6 a3 bd
       0.05110698 0.021140302 0.01630412 -0.0800286
000250 36 05 f0 bc de 35 08 3d 15 1d 69 3d 7f ac 91 3d
       -0.02929936 0.033254497 0.0569125 0.07112979
000260 32 14 46 3d f4 8b 97 bd a9 2f 43 bd 41 13 99 bd
       0.048359104 -0.07399741 -0.047652874 -0.074743755
000270 bb 12 ad 3d 40 11 53 3d be 61 1b 3d 5b 29 62 3d
       0.08450838 0.051530123 0.03793501 0.05521522
000280 75 e7 9b bd aa d3 37 bd 5e e2 33 3d 58 8c 51 3d
       -0.07612506 -0.044879593 0.043917052 0.051159233
000290 3b 60 95 bd 08 a3 08 bc 4e a5 d3 bc aa 8c 97 3c
       -0.07293745 -0.008339651 -0.02583566 0.018499691
0002a0 17 d5 27 bd e3 74 4a 3d 12 09 aa bd 80 32 c1 3c
       -0.040974703 0.049427878 -0.08302511 0.02358365
0002b0 fe e2 3a bd f7 ff 00 3d 99 45 88 bd 0e 56 72 bd
       -0.045626633 0.031494107 -0.066539 -0.0591641
0002c0 0b 0d 9a 3d fc 9a 8d 3c ae de b3 bd 92 75 29 3d
       0.07522019 0.017285816 -0.08782707 0.04137189
0002d0 84 3c ea bc 57 bd 3a bd 3e c5 52 bd 81 5e 80 3d
       -0.02859331 -0.045590725 -0.051457636 0.06268025
0002e0 63 a0 86 3c 0c ac a1 3c c9 9a 8f 3d a3 a2 92 bd
       0.0164339 0.019735359 0.07011945 -0.07159927
0002f0 be 34 92 bd 76 c3 a1 bc 06 85 9a bd 75 2a 9b bd
       -0.07138966 -0.019746523 -0.075449035 -0.075764574
000300 f7 be a2 3d 16 1f 12 3c dc e7 66 bd 43 7d 77 3c
       0.0794658 0.008918544 -0.056373462 0.015105548
000310 6f 90 b2 3d 00 76 3b 3c b6 fd 65 3d 7e 5d 3c 3c
       0.08718955 0.011441708 0.05615016 0.0114969
000320 a5 8f 25 bd d4 4a 43 bd 09 ab 28 3d 95 36 16 3d
       -0.040420193 -0.047678784 0.041178737 0.036673147
000330 f8 6e 18 bd c0 67 17 bd e2 c2 44 bd 72 48 37 3d
       -0.037215203 -0.036964178 -0.048037417 0.044746824
000340 40 3f 91 bd 88 c3 6c 3d 03 33 8b 3d 6b f0 3f bd
       -0.07092142 0.05780366 0.06796839 -0.04686014
000350 0a 80 96 3d b6 bd 89 3d e6 bd 0a 3d 5e 35 63 3d
       0.0734864 0.067256376 0.033872508 0.055470817
000360 b3 71 97 3d e6 3c 5d bd 1e d4 5b 3d 2a 69 73 3d
       0.07394733 -0.054013155 0.053669088 0.059426464
000370 45 c6 b2 3d 5f b3 af bd b3 15 ab bd 47 5b 64 bd
       0.08729223 -0.08579134 -0.08353748 -0.05575111
000380 ac ac 27 bc 9e 22 4e 3d 7f b9 51 3b 93 0c 73 bd
       -0.010234039 0.050325982 0.0032001433 -0.059338164
000390 bb 7b 6a bd 80 8c 6d bd 4d e5 b3 bd 3e f6 52 3d
       -0.057246905 -0.05799532 -0.0878397 0.051504366
0003a0 5e 86 d6 3c d6 7c 4c bd 71 69 48 bd e7 de a2 3d
       0.026187118 -0.04992374 -0.04892868 0.079526715
0003b0 84 cb 4d bc 57 6d f4 3b f9 bf 36 3c b2 97 81 bd
       -0.012560729 0.0074593234 0.011154168 -0.06327762
0003c0 d5 3d 96 bd 9b 70 a3 bd 4a a0 16 bd 94 e0 12 bd
       -0.07336012 -0.07980462 -0.036773957 -0.035858706
0003d0 c3 bd af 3d 57 38 31 bd 6b 22 da 3c 7a b8 1c bd
       0.08581116 -0.04326662 0.02662774 -0.038261868
0003e0 ab 12 6e 3d b5 94 49 3b 50 61 c3 3b 23 4b 86 3d
       0.058123272 0.0030758802 0.0059625283 0.065573
0003f0 b5 ba 45 3d 62 ca 2a 3d 19 b6 05 bd 4d 9c c1 bc
       0.04827376 0.041696914 -0.032644365 -0.0236341

query_gen.1.linear.bias f4 [128]
000000 20 e9 42 bd 8d 8e 5c 3d 07 e3 a3 bc cb d8 a2 bd
       -0.047585607 0.053846885 -0.020005716 -0.07951506
000010 87 24 57 3d 49 36 9a 3d 0d c5 1b 3d 5f 96 e6 bc
       0.05252507 0.07529885 0.03802972 -0.028147874
000020 de 59 ab bd 01 76 39 bd a9 01 dc bc 10 5e 9b bd
       -0.0836675 -0.045278553 -0.02685626 -0.075863004
000030 7d 21 08 3d 64 a1 04 bd 83 cf 26 3d 80 49 31 bd
       0.033235062 -0.032380477 0.040725242 -0.043282986
000040 d1 27 81 bd 1b 66 96 3d d3 a2 fc bc 80 7e a0 bb
       -0.063064225 0.07343694 -0.03083936 -0.0048978925
000050 2b 7f c8 bc 81 c9 33 bd 34 a4 51 3d 14 b2 e8 bb
       -0.0244747 -0.04389334 0.051181987 -0.0071013067
000060 d3 74 57 bc e5 4b 9f 3d d6 c6 a1 3a da 6b 7a bd
       -0.013150412 0.077781476 0.0012342583 -0.06113801
000070 44 bd 51 3d 3e 8b 69 bd d7 a0 90 bd 27 28 76 3d
       0.05120589 -0.057017557 -0.07061928 0.060096886
000080 83 68 84 3d 98 ca 1a bd 50 59 6a 3d dc de 9b 3d
       0.064652465 -0.037790865 0.05721408 0.076108664
000090 3e e2 ae 3d a4 b3 79 bc e9 85 8a 3d 0a 5a d0 bb
       0.08539246 -0.015240584 0.067638226 -0.0063583897
0000a0 34 8d a9 bc 8e 77 9d 3d e3 e9 ac 3c eb a3 82 bd
       -0.020697214 0.07688819 0.02110762 -0.06378921
0000b0 9c f7 58 3d 56 ab b4 3d f7 9d d5 ba 0e 06 78 bd
       0.052970514 0.08821742 -0.0016297688 -0.06055265
0000c0 e4 30 2c 3d 2f 34 bd 3c 96 58 aa bd 4f 19 5a bd
       0.042038813 0.023096172 -0.08317678 -0.053246792
0000d0 4f 38 bf bc 5d d6 c5 3c 4e 2f ff bc c5 98 18 bb
       -0.02334228 0.024150068 -0.031150486 -0.0023284417
0000e0 b3 19 4b bd 40 a1 5c bd b1 c6 b4 3c 2c 6b 7c 3d
       -0.049585056 -0.053864717 0.0220674 0.061625645
0000f0 63 31 3f bd 91 70 5f 3d af 0b 55 3d 37 be e8 bc
       -0.04667796 0.05455071 0.052013095 -0.028411014
000100 53 cd eb 3c 86 d5 0c bd 8e 08 89 3d 3f da 4a bc
       0.02878443 -0.03438332 0.06691085 -0.0123811355
000110 5c 49 9e 3d 8c a2 b0 bc 9d 28 31 bd 14 04 a1 3d
       0.07728836 -0.021561883 -0.043251622 0.07862106
000120 0d 80 05 3d 7f fc 4b bd a0 52 a0 bd 9e f9 a1 bd
       0.032592822 -0.049801346 -0.078282595 -0.07908939
000130 80 5a f4 ba d2 81 77 bd 16 6e 99 bb c2 5f 15 3d
       -0.0018642694 -0.06042654 -0.0046823127 0.036468275
000140 d9 20 b8 bb 19 74 82 3d fc 70 ec 3c bc 26 0b 3c
       -0.00561915 0.063698 0.028862469 0.008493122
000150 fa a2 b1 3d ec d2 2d bd 9b 21 a4 bd 77 a1 8e bd
       0.086736634 -0.04243748 -0.08014222 -0.06964391
000160 ab c8 a5 3d 2d 6e 68 3c 22 22 c9 bb ac c8 21 bd
       0.08094915 0.014186424 -0.006138102 -0.039498016
000170 ca 78 8a 3c b6 98 46 bd e1 d7 c0 3c 3f 6b 3c bd
       0.0169033 -0.04848548 0.02354044 -0.046000715
000180 a7 de 13 bd fd cb 2c 3d 68 2c 42 3d c8 a0 8b 3d
       -0.03610101 0.042186726 0.04740563 0.06817776
000190 c2 ca a7 3d aa 2e 47 bd 0c 27 a1 3d e6 ff 92 3d
       0.0819297 -0.048628487 0.07868776 0.07177715
0001a0 fa 7a 1c bc 61 31 55 3d b8 84 ed 3c 5c c0 98 bd
       -0.009550804 0.052049045 0.02899395 -0.07458565
0001b0 03 d8 4e 3c 79 33 84 bd 95 4f a5 3d 0f 7b 1f bc
       0.012624743 -0.0645513 0.0807182 -0.009733929
0001c0 54 95 ab bd 5d 65 ae bd 87 44 98 3d d1 a6 2f 3c
       -0.083780915 -0.08515427 0.074349456 0.0107209245
0001d0 77 e1 3a 3d 7b 49 72 bc 95 f2 50 bd a8 94 b9 3c
       0.045625176 -0.014788027 -0.051012594 0.022653893
0001e0 43 de be b9 fc 41 8c 3d 42 fc 8e 3d f2 23 df bc
       -0.00036405222 0.06848523 0.06981708 -0.02723882
0001f0 bd d2 a0 bd 68 01 52 bd ea 9b 86 3d 97 f3 bf b9
       -0.07852695 -0.051270872 0.06572707 -0.00036611847

query_gen.1.norm.weight f4 [128]
000000 00 00 80 3f 00 00 80 3f a0 a9 7f 3f 62 0a 80 3f
       1.0 1.0 0.998682 1.0003169
000010 b0 02 80 3f 88 ea 7f 3f 16 fe 7f 3f 00 00 80 3f
       1.000082 0.9996724 0.9999708 1.0
000020 e1 25 80 3f 00 00 80 3f 6a 0d 80 3f 99 e0 7f 3f
       1.001156 1.0 1.0004094 0.99952084
000030 00 00 80 3f 21 d2 7f 3f b3 04 80 3f 00 00 80 3f
       1.0 0.99930006 1.0001434 1.0
000040 00 00 80 3f d9 1c 80 3f 00 00 80 3f 00 00 80 3f
       1.0 1.0008804 1.0 1.0
000050 e1 e4 7f 3f 6d 06 80 3f 96 23 80 3f 12 b9 7f 3f
       0.99958616 1.0001961 1.001086 0.9989177
000060 00 00 80 3f 18 2d 80 3f 87 d3 7f 3f 00 00 80 3f
       1.0 1.0013762 0.9993214 1.0
000070 00 00 80 3f 00 00 80 3f dd db 7f 3f 00 00 80 3f
       1.0 1.0 0.9994486 1.0
000080 b2 c6 7f 3f c5 05 80 3f 8d cb 7f 3f 02 d4 7f 3f
       0.9991256 1.0001761 0.9991997 0.99932873
000090 00 00 80 3f 00 00 80 3f 00 00 80 3f 00 00 80 3f
       1.0 1.0 1.0 1.0
0000a0 42 07 80 3f 00 00 80 3f 1b 25 80 3f 00 00 80 3f
       1.0002215 1.0 1.0011324 1.0
0000b0 b7 ec 7f 3f 00 00 80 3f 3e fe 7f 3f d1 01 80 3f
       0.99970573 1.0 0.9999732 1.0000554
0000c0 f0 ff 7f 3f db 05 80 3f 06 1e 80 3f 00 00 80 3f
       0.99999905 1.0001787 1.0009162 1.0
0000d0 00 00 80 3f a4 a2 7f 3f 00 00 80 3f 00 00 80 3f
       1.0 0.99857545 1.0 1.0
0000e0 a3 09 80 3f 00 00 80 3f 00 00 80 3f 88 1c 80 3f
       1.0002941 1.0 1.0 1.0008707
0000f0 62 08 80 3f b8 3e 80 3f 6d 11 80 3f 00 00 80 3f
       1.0002558 1.001914 1.0005318 1.0
000100 e2 06 80 3f 73 d9 7f 3f 48 20 80 3f 6d d1 7f 3f
       1.00021 0.99941176 1.0009851 0.99928933
000110 d3 ce 7f 3f 8a da 7f 3f 00 00 80 3f 60 d7 7f 3f
       0.99924964 0.9994284 1.0 0.9993801
000120 90 08 80 3f 07 d6 7f 3f 1e 22 80 3f 34 fe 7f 3f
       1.0002613 0.99935955 1.0010412 0.9999726
000130 95 e1 7f 3f 11 0c 80 3f 52 b5 7f 3f 04 ce 7f 3f
       0.99953586 1.0003682 0.9988605 0.9992373
000140 f2 c7 7f 3f 00 00 80 3f 5b c6 7f 3f 1f 1f 80 3f
       0.9991447 1.0 0.9991204 1.0009497
000150 00 00 80 3f d1 f7 7f 3f 58 0d 80 3f 00 00 80 3f
       1.0 0.9998751 1.0004072 1.0
000160 2b dc 7f 3f 00 00 80 3f a2 01 80 3f e2 f8 7f 3f
       0.99945325 1.0 1.0000498 0.9998914
000170 00 00 80 3f 6a f7 7f 3f 4f 07 80 3f 00 00 80 3f
       1.0 0.999869 1.000223 1.0
000180 a7 1a 80 3f c9 e3 7f 3f a7 07 80 3f 11 03 80 3f
       1.0008134 0.9995695 1.0002335 1.0000936
000190 00 00 80 3f db 0b 80 3f b8 ca 7f 3f b0 07 80 3f
       1.0 1.0003618 0.999187 1.0002346
0001a0 00 00 80 3f 00 00 80 3f 0f f3 7f 3f 00 00 80 3f
       1.0 1.0 0.99980253 1.0
0001b0 1c 0b 80 3f 00 00 80 3f 42 f8 7f 3f 00 00 80 3f
       1.000339 1.0 0.99988186 1.0
0001c0 00 00 80 3f 00 00 80 3f e2 c6 7f 3f d6 c6 7f 3f
       1.0 1.0 0.99912846 0.99912775
0001d0 9e ca 7f 3f 8d 0e 80 3f 34 e7 7f 3f 00 00 80 3f
       0.99918544 1.000444 0.9996216 1.0
0001e0 2b ea 7f 3f c1 0c 80 3f 00 00 80 3f 00 00 80 3f
       0.99966687 1.0003892 1.0 1.0
0001f0 06 01 80 3f 85 30 80 3f 73 08 80 3f fa fe 7f 3f
       1.0000312 1.0014807 1.0002578 0.9999844

query_gen.1.norm.bias f4 [128]
000000 00 00 00 00 00 00 00 00 45 2f ae ba 39 97 aa 39
       0.0 0.0 -0.0013289234 0.00032537596
000010 70 01 24 39 c6 71 b1 b9 78 50 47 36 ff 51 97 34
       0.00015640794 -0.0003384484 2.970015e-06 2.8185602e-07
000020 fc 71 92 3a 00 00 00 00 b8 5c e0 39 50 05 82 39
       0.0011172886 0.0 0.0004279369 0.0002479949
000030 00 00 00 00 76 00 34 ba 4b 8b df b8 00 00 00 00
       0.0 -0.0006866524 -0.00010659414 0.0
000040 00 00 00 00 0e c8 68 3a 00 00 00 00 00 00 00 00
       0.0 0.0008879908 0.0 0.0
000050 54 6e d4 b9 a7 c6 51 b8 38 d8 8a 3a 61 0f 95 ba
       -0.00040517992 -5.0014492e-05 0.0010593003 -0.0011372381
000060 00 00 00 00 d2 86 b0 3a 8d 98 2e ba 00 00 00 00
       0.0 0.0013467914 -0.0006660305 0.0
000070 00 00 00 00 d7 1f 29 34 4b 58 59 b9 00 00 00 00
       0.0 1.5750935e-07 -0.00020727624 0.0
000080 28 25 62 ba 0c 35 2b 39 e7 11 55 ba 1d 7f 23 ba
       -0.00086267525 0.00016327592 -0.0008127973 -0.0006236898
000090 00 00 00 00 00 00 00 00 00 00 00 00 00 00 00 00
       0.0 0.0 0.0 0.0
0000a0 04 23 0c b8 00 00 00 00 31 f9 71 3a 00 00 00 00
       -3.3411212e-05 0.0 0.0009230553 0.0
0000b0 39 1c 78 b9 00 00 00 00 db e8 ba b9 c2 13 a2 38
       -0.00023661637 0.0 -0.00035650175 7.728442e-05
0000c0 74 00 03 b8 64 ba 56 39 d5 fa 72 3a a6 5d 7f b7
       -3.1233256e-05 0.00020478066 0.0009268944 -1.5220989e-05
0000d0 00 00 00 00 a2 2d c9 ba 00 00 00 00 00 00 00 00
       0.0 -0.0015348683 0.0 0.0
0000e0 85 ef 1f 3a 00 00 00 00 00 00 00 00 2c a7 5f 3a
       0.000610106 0.0 0.0 0.00085316855
0000f0 0a c9 5b 39 b2 8e f6 3a 2f 1a 09 3a 00 00 00 00
       0.0002096036 0.0018810837 0.0005230037 0.0
000100 18 ff 20 39 6c 8e 08 ba 23 cf 80 3a fb 41 33 ba
       0.00015353819 -0.0005209211 0.0009827357 -0.000683814
000110 9e fe 28 ba 76 a3 0a ba 00 00 00 00 2b d5 9c b9
       -0.00064466323 -0.000528864 0.0 -0.0002991346
000120 1c b4 8f 39 8f b2 13 ba 3a 46 ef 3a 3b b3 ac 39
       0.00027409277 -0.0005634212 0.0018255182 0.00032939934
000130 72 12 29 ba 4a 0c cc 39 32 36 9a ba fb dc 47 ba
       -0.0006449587 0.00038919068 -0.0011765419 -0.0007624176
000140 ce d7 5c ba 00 00 00 00 29 c8 54 ba f3 32 70 3a
       -0.00084244914 0.0 -0.00081169844 0.00091628655
000150 00 00 00 00 f3 e1 18 ba b1 17 33 b9 00 00 00 00
       0.0 -0.0005832009 -0.00017079596 0.0
000160 95 d7 17 ba 00 00 00 00 79 e3 00 39 f5 b8 c4 b8
       -0.0005792317 0.0 0.00012291771 -9.380459e-05
000170 00 00 00 00 d4 15 8a b8 3b 10 86 3a 00 00 00 00
       0.0 -6.5844186e-05 0.0010228226 0.0
000180 d7 17 59 3a ba 25 04 b9 45 e4 96 39 dd 80 b9 38
       0.00082814455 -0.00012602555 0.00028780304 8.84549e-05
000190 00 00 00 00 3b e4 ae 39 4c 4e 5b ba 82 0e df b9
       0.0 0.0003335791 -0.0008365854 -0.00042544684
0001a0 00 00 00 00 00 00 00 00 c6 1b dd 38 00 00 00 00
       0.0 0.0 0.000105432744 0.0
0001b0 6f be c3 39 00 00 00 00 d0 4b ef b8 00 00 00 00
       0.00037335182 0.0 -0.00011410529 0.0
0001c0 00 00 00 00 00 00 00 00 f6 c1 0f b9 9f 8d 7b ba
       0.0 0.0 -0.00013709799 -0.00095959933
0001d0 6e 80 58 ba 0f 9f fc 39 b6 3e e9 b9 00 00 00 00
       -0.00082588836 0.00048183693 -0.00044487946 0.0
0001e0 f9 2a 20 b9 48 b3 08 3a 00 00 00 00 00 00 00 00
       -0.00015274798 0.0005214703 0.0 0.0
0001f0 1f 5b 1d b9 d2 e9 a8 3a ce 37 fa 37 50 38 85 b7
       -0.00015006632 0.0012887067 2.9828308e-05 -1.5881058e-05

query_gen.3.weight f4 [128, 128]
000000 d0 17 13 bd 64 a0 a4 bd 7a 89 b3 bd 57 82 60 3d
       -0.03591138 -0.080384046 -0.08766456 0.0548118
000010 a4 25 8f bd f9 69 ac 3d 05 41 3e bc f6 9e b0 bd
       -0.06989601 0.0841865 -0.011612182 -0.086240694
000020 16 b8 9e bd c0 1e 00 bb 6f 4c 82 3d 28 8a 47 bd
       -0.07749955 -0.0019549578 0.06362235 -0.04871574
000030 5d 9a a1 bd 19 15 04 bb 74 81 87 bd ca 97 3f 3d
       -0.078907706 -0.0020154177 -0.06616488 0.046775617
000040 a8 57 9b bd 5f 12 03 bd 5e cb 7c 3d 70 5d 97 3b
       -0.075850785 -0.031999942 0.061717384 0.004619293
000050 af 1e f5 3c ec 15 8d bc 68 1f 19 bd f5 bb a8 3c
       0.029921858 -0.017222367 -0.037383467 0.020597437
000060 58 bd ca bc 0c 42 2e 3c 70 b9 85 bd d2 4f 4f bd
       -0.02474849 0.010635864 -0.0652951 -0.050613232
000070 2f 4b 90 3d 25 b4 9e 3d 0b 9f 46 bc a2 04 74 3d
       0.0704559 0.077492036 -0.01212288 0.05957473
000080 c8 7f 96 3d f2 13 8f bd 4e d3 f6 3c 24 25 81 bd
       0.07348591 -0.06986226 0.030130055 -0.06305912
000090 49 70 8d bd 78 09 88 3c ea 16 7c 3d 17 53 08 bd
       -0.06906182 0.016606078 0.06154529 -0.033282366
0000a0 be 93 34 3c c8 1b 78 bc 64 8d ac 3d af 58 6c bd
       0.011021553 -0.015143342 0.084254056 -0.057701763
0000b0 dd 8c 7c 3d 60 60 d2 3c b0 00 6f bd 5f b2 ed bc
       0.061657775 0.02568072 -0.058350265 -0.029015718
0000c0 42 8c ad bd 57 52 a3 bc 48 35 3b bd 31 99 ac 3d
       -0.08474018 -0.019936724 -0.04570511 0.084276564
0000d0 69 4c 9d bd f2 ee ff 3b 53 36 a7 3d 14 72 d7 3c
       -0.0768059 0.007810467 0.081646584 0.026299514
0000e0 89 1b 3f 3d a2 93 4e 3d 2e 8f 32 3d 03 1d 83 bd
       0.04665712 0.050433762 0.043593578 -0.06402018
0000f0 5f 80 90 3c 84 99 7d bd 80 cc 81 3d 4a 6b 68 3d
       0.017639337 -0.061913982 0.063378334 0.056742944
000100 42 3e 55 3d ca bd 69 bd d0 e1 a2 bc 06 96 1a bd
       0.052061327 -0.057065763 -0.019883066 -0.03774073
000110 50 b8 75 bb 65 0c 30 bd 80 61 05 bb 99 20 55 bd
       -0.0037493892 -0.04298057 -0.0020352304 -0.05203304
000120 a4 9c 86 bd 8e 36 8a bc 62 69 87 3d 9a 01 9c bd
       -0.065728456 -0.016871717 0.06611897 -0.07617493
000130 08 d7 a8 39 ce fa 92 bd 51 90 c6 3c 07 bb 97 3d
       0.00032203668 -0.071767434 0.024238737 0.074087195
000140 fb de ea bc f9 65 9a 3d 47 bc 28 bd 74 83 2c bc
       -0.028670778 0.07538981 -0.04119518 -0.010529388
000150 f8 86 23 3c fa f9 f2 3b dc d1 8e bd b6 ee 88 bd
       0.0099809095 0.0074150534 -0.06973621 -0.066861555
000160 5b db f7 ba f1 4f 90 bd d8 18 b0 3d 3a d1 70 bd
       -0.0018909978 -0.070464976 0.085984886 -0.058793284
000170 a6 4c 10 bd 4a 71 36 bc d1 10 2d bd da 51 20 3d
       -0.035229348 -0.011135409 -0.042252365 0.03914056
000180 de 4c 82 3d 8a b5 af 3c a2 a0 a8 3d 58 1a 72 3d
       0.063623175 0.02144887 0.08233763 0.059107155
000190 04 93 8f 3c bd a8 44 3c 67 46 06 bd 81 1f a6 3d
       0.017526157 0.012003121 -0.032781985 0.08111478
0001a0 b0 4c 0f 3d 46 ed 6a bd 82 f7 ad bd ee 90 5a bd
       0.034985244 -0.057355188 -0.08494474 -0.053360872
0001b0 73 96 68 bd 2a 5a 30 3d 9f 20 9f 3d ff 72 50 bd
       -0.056784105 0.043054737 0.07769894 -0.05089092
0001c0 4c 61 a9 bd a4 ab 4c bd f4 12 8d 3d f7 bc 4d bd
       -0.08270511 -0.049968377 0.06888381 -0.05022904
0001d0 a4 f8 92 bb ee a8 8a 3c 55 75 a2 3c 62 cf 91 bd
       -0.0044852067 0.016926255 0.019831339 -0.07119633
0001e0 3a 79 41 3d 03 32 56 bc 5e ed 71 3d d0 fa b3 bb
       0.04723475 -0.013073447 0.05906426 -0.0054925457
0001f0 de 0a 87 3d a7 71 a9 3c 45 88 4c bd ce c0 8d bd
       0.065938696 0.020684076 -0.049934644 -0.0692154
000200 b0 c7 fc 3c 7a ea 3a 3d 46 5a d8 bc e4 fa 15 bd
       0.030856937 0.04563377 -0.026410233 -0.03661622
000210 66 12 17 bd 0d ea 2c 3d 9e 01 93 3d 32 47 a0 bd
       -0.03688278 0.042215396 0.07178043 -0.078260794
000220 84 bf 7a 3c 08 f5 0a bc f1 3f 88 3c 3b b1 52 bd
       0.01530445 -0.008481272 0.016632052 -0.05143855
000230 89 c5 3e bd 5d 9b 71 3c f1 c2 8c 3c 3c cf d2 3c
       -0.046575103 0.014746514 0.017182799 0.025733583
000240 02 c6 53 3d 3f 27 b6 3d e8 60 cc 3c 9e 8b d9 bc
       0.051702507 0.08894204 0.024948552 -0.026555832
000250 e5 bd 57 3c ad 0f 7f 3d 65 64 b1 3d 11 8d 6b 3c
       0.013167833 0.06227081 0.08661727 0.014376895
000260 14 03 aa bc 48 93 1b 3c 8b 7b 77 bd 02 f8 16 3d
       -0.02075342 0.009495564 -0.060420554 0.036857612
000270 83 59 44 bd fd df b3 3d cc 4f cb bb c2 ff 12 bd
       -0.047936928 0.08782957 -0.006204581 -0.03588844
000280 d5 da 92 3d 5c c8 a0 39 86 4e c0 3c 2b d2 10 bd
       0.07170645 0.00030666857 0.023474943 -0.03535668
000290 1f ef 8d 3d fa fa 40 bd ff f2 9a 3d a2 87 58 3d
       0.06930374 -0.04711435 0.07565879 0.052863725
0002a0 d6 3a a9 3d bc a2 8c bc a1 48 96 bd 80 fd 31 ba
       0.08263175 -0.017167442 -0.073380716 -0.00067897886
0002b0 ec 9c 01 3d 6c 9d 2a bd 79 e0 38 bd 13 eb 1d 3d
       0.031643793 -0.041654035 -0.04513595 0.038554262
0002c0 9a 52 76 bd b4 ac 4a 3c 84 9a 6d 3c 3b 8c 0e bc
       -0.06013737 0.012370277 0.014502171 -0.008700426
0002d0 11 16 92 bd 6d ea 0c bd 35 12 0b bd 12 42 6f 3d
       -0.07133115 -0.034403253 -0.03395291 0.05841262
0002e0 30 ae e8 3c 28 40 ae bc 80 a4 9f 3c ba ed 5e bd
       0.028403372 -0.021270826 0.01948762 -0.054425932
0002f0 a5 97 ac 3d 1e e6 14 3c 22 10 38 ba 9b 6e 9d 3d
       0.084273614 0.009088067 -0.0007021447 0.07687112
000300 a2 65 49 3d 90 d9 4c 3d 73 b5 ca bc c2 7d bc 3b
       0.04916919 0.05001217 -0.024744725 0.005752296
000310 6d 92 37 bd ae 04 13 3c a5 99 17 bd 1f 70 c9 3c
       -0.044817377 0.008973284 -0.03701176 0.024589596
000320 50 9f 10 3d 13 eb 2b bd e8 0f 99 bd ac ec 78 bd
       0.035308182 -0.04197223 -0.07473737 -0.060772583
000330 6a 23 4a bd d4 95 76 bd 10 b8 ec 3b ed 53 8c 3d
       -0.04935018 -0.06020148 0.0072240904 0.06851945
000340 fe ec 56 3d 9d 2b 94 3d 32 d5 8e 3a e1 91 2c 3d
       0.052472107 0.07234881 0.0010897277 0.04213131
000350 e0 fe 8f bd b3 a3 a6 bc ad af 13 bd d0 ef 80 bd
       -0.070310354 -0.02034173 -0.03605621 -0.062957406
000360 b6 94 ae bd c8 ec 3d bd b8 94 27 bd 01 66 8b bb
       -0.08524458 -0.04636839 -0.040913314 -0.004254103
000370 e7 02 6a bd 32 03 55 bd eb 1b 39 bd c4 58 a3 bc
       -0.057131674 -0.052005 -0.04519264 -0.019939788
000380 e6 72 a5 bd 88 c2 aa 3d 19 4e 47 bd 51 d0 2a 3d
       -0.08078556 0.08337885 -0.048658464 0.041702572
000390 ca 28 2a 3d 85 1c d0 bb 32 fe 92 bd 9d ff 0d 3c
       0.041542806 -0.006351056 -0.0717739 0.0086669
0003a0 06 58 80 bd 08 a1 c3 bc 69 0e 10 bd 60 78 b1 3b
       -0.06266789 -0.023880497 -0.035169993 0.005415961
0003b0 de bd 88 3d c0 a9 70 bd 4e 54 88 bd fa d5 8b bd
       0.06676839 -0.058755636 -0.06656705 -0.06827922
0003c0 e6 b3 8e bd 60 1f 73 3c 7e d3 a5 bc 72 07 56 bc
       -0.06967907 0.014839023 -0.020242449 -0.013063299
0003d0 c9 bd 53 bd a4 b9 61 3d 68 53 62 bc 62 f1 0e bd
       -0.051694665 0.05510868 -0.013813831 -0.03489817
0003e0 b1 05 68 3d 0d ba e7 bc fd 06 49 bd e4 bb 8b bc
       0.056646053 -0.028286958 -0.04907893 -0.017057367
0003f0 2d c2 61 3d 11 02 17 3c d3 93 0b bd 56 c6 66 3d
       0.05511682 0.009216801 -0.034076523 0.05634149

query_gen.3.bias f4 [128]
000000 68 47 2f 3d 9c 2c 5b 3d 79 63 3b 3d 85 f0 b8 bc
       0.042792708 0.05350934 0.04574916 -0.022575626
000010 5d 69 49 bd b0 0d d4 3c 40 78 83 bd 1f b7 e4 bb
       -0.049172748 0.025885433 -0.0641942 -0.0069798375
000020 3c 1c 91 3d 76 00 58 bc 22 ce 4f bd 55 28 54 3c
       0.070854634 -0.013183704 -0.050733693 0.012949069
000030 fc fb 51 bc 4c 33 d6 3c d5 84 a5 bd 9e 3f 81 3d
       -0.012816425 0.026147507 -0.08081976 0.06310962
000040 1a ca 7a bd 1d a2 01 bd 40 72 00 3d 11 00 14 3c
       -0.061227895 -0.031648744 0.031358957 0.009033219
000050 cc 49 81 bc 0e d4 46 3d 32 98 48 3d 3c 2e 90 3d
       -0.01578226 0.048542075 0.04897327 0.070400685
000060 0a 3b 2f 3c 33 cc ad bd e7 14 d4 bc 8b bc 1d 3d
       0.010695228 -0.084862135 -0.025888873 0.038509887
000070 df 7e 99 bd 7c 98 4c bd cb 71 7b 3d 54 41 f4 3c
       -0.07494902 -0.049950108 0.06138782 0.029816307
000080 53 5f 92 bd c8 cb 15 3c ee f2 80 bd b1 4a 5c 3b
       -0.07147088 0.0091428235 -0.06296335 0.0033613855
000090 d0 c1 40 bd 67 3f 90 3d 99 39 9a 3c 67 08 48 bd
       -0.047059834 0.07043343 0.018826293 -0.048836138
0000a0 2c a6 21 bd f5 e0 8f 3d df 9e a0 3d 2f 73 3c 3d
       -0.039465114 0.07025329 0.07842802 0.046008285
0000b0 3c 31 78 3d 86 87 0a bd 86 e2 98 bd 8a d4 98 bd
       0.06059383 -0.03382065 -0.07465081 -0.074624136
0000c0 6d bf 2c bd 54 1a 87 3d 60 51 1c 3d 17 57 9e 3d
       -0.042174745 0.065968186 0.038163543 0.07731455
0000d0 e9 17 0a bd 73 27 4f 3d 37 30 b6 bd a7 59 79 bd
       -0.03371421 0.05057473 -0.08895915 -0.060876515
0000e0 23 41 02 bb 95 8b 74 bd ca 76 b7 bc b8 98 6d bd
       -0.001987525 -0.05970343 -0.02239551 -0.058006972
0000f0 b3 b9 a9 3d 27 b8 82 3d 78 ed 5e bc 84 07 5c bc
       0.082873724 0.063827805 -0.013606422 -0.013429526
000100 47 5d 69 3d 4d 01 28 3d ab 18 8e 3c b0 a2 ad bc
       0.05697372 0.041016866 0.017345747 -0.02119574
000110 e3 02 af 3d 0e b3 20 3d 37 34 59 3d 83 eb 43 3d
       0.085454725 0.03923326 0.05302831 0.047832023
000120 3e d3 09 3d 29 e1 aa 3d 73 95 10 bd b6 cb 07 bd
       0.033648722 0.08343727 -0.035298776 -0.03315326
000130 13 72 05 38 bc 96 9c 3c c2 fd 5a 3d 2c 4a b1 3d
       3.181591e-05 0.019114845 0.05346466 0.08656725
000140 47 cc 26 bd ad dc 95 bc 8a e1 9e bd d7 54 b1 bd
       -0.040722158 -0.018293703 -0.07757862 -0.0865876
000150 26 8e 45 3d 2d 52 6d bd bb 1f 32 bd 4f 64 68 3d
       0.048231266 -0.057939697 -0.04348729 0.056736287
000160 88 46 1d 3d ca f7 1d 3d 75 60 3e 3d 0b ae 6a 3c
       0.038397342 0.03856639 0.046478707 0.014323722
000170 21 97 1d 3c ab ba 4b 3d 63 cb 98 3c 1c 40 37 bc
       0.0096185515 0.049738567 0.01865167 -0.011184718
000180 f4 24 2a bd a4 b9 ac bd 79 4c 1e bc 6c 62 71 bc
       -0.041539147 -0.08433846 -0.009661787 -0.014732938
000190 58 9b 11 bd a8 ea 71 bd 9b bf 99 3d 48 9a 1a bd
       -0.035548538 -0.059061676 0.07507249 -0.03774479
0001a0 e2 08 9c bd 0e 24 ad bd dd f3 c4 3b ea d7 90 3d
       -0.07618882 -0.084541425 0.006010516 0.07072432
0001b0 ef c6 8f 3d e1 b6 e3 3c c3 9a 90 bd 5c 12 2e bd
       0.070203654 0.027797164 -0.070607685 -0.042497978
0001c0 80 1d a3 3d 9a f0 90 3d 27 c1 4f 3d 40 17 5f ba
       0.07964611 0.07077141 0.050721314 -0.00085102394
0001d0 ff 5e 61 bd 8c ac 08 3d 80 9d 82 3d 71 d8 a4 3d
       -0.055022236 0.03336768 0.06377697 0.080490954
0001e0 6d 54 9c bd 08 de 17 3d 6f 93 25 3d eb b9 55 bd
       -0.076332904 0.03707698 0.040423807 -0.05217926
0001f0 ff 0d a4 3d fe bb 3b 3d 81 4d c3 3b d2 24 80 bd
       0.08010482 0.04583358 0.005960167 -0.06257023
